checkpoint_critic_GPU.pth (torch_old, 549461 bytes, 9 tensors)

fcs1.weight f4 [400, 33]
-0.06700485 0.024773842 -0.29094812 0.3015172 0.3097869 0.44432592 -0.009961161 -0.09583437
-0.6542527 -0.123865 0.00092491566 0.0042716493 -0.1628874 -0.75820076 -0.3415464 -0.00890145
-0.40394893 -0.4353931 -0.67330545 -1.2773539 0.026744287 0.10101862 0.059145655 -0.55078727
0.017007325 0.05982614 0.60033053 0.004563489 -0.48230055 -0.040101133 -0.0032351222 -0.013945557
-3.7450707 -0.09832242 -0.04598231 0.021934412 0.024532035 -0.022928784 -0.04640271 0.007984016
0.01474717 0.03246755 0.065340415 0.019808955 0.023086553 -0.0016681841 0.0063296 0.004151752
-0.064230174 -0.07913042 0.01897846 -0.041941617 -0.054791115 -0.021282824 0.016872913 -0.03785794
0.045615878 0.087754935 -0.057880983 0.08849847 0.041391794 -0.028918544 -0.029689271 0.0014988846
0.0036308654 -0.0477553 -0.60438526 -0.13710526 -0.558883 0.85559505 -1.3286992 -0.20386973
-0.8883287 0.44599107 -0.39688832 0.05414009 0.013958154 -0.19056027 0.6229721 0.115996905
-0.1043121 0.6564286 1.0344259 -1.1836711 0.8338519 0.96613526 -0.2577218 -0.42891374
-0.13321765 0.16420798 -0.47245777 0.3416696 0.03523801 -0.009372892 0.7504828 0.023719456
-0.02198807 -0.04349489 -1.8344592 -0.8496647 -0.20821346 0.8775992 1.2415746 -2.804464
0.60706156 0.9169341 0.024850655 0.75565934 -0.56114006 -0.7000709 -0.047952443 0.32004383
-0.08277037 0.39919245 -0.21421795 -0.6366587 -0.51731366 0.56117547 -1.1975595 -0.023510752
0.03209146 -0.19121343 -0.12036456 0.18261763 -0.1453174 -0.041162286 0.030231386 -0.7935085
0.032071542 -0.012050308 0.00822553 -1.6332635 -0.31690544 -0.342644 -0.21635084 -0.87273085
-0.8746076 0.42800018 -1.9014654 0.0047893785 -0.22102882 -0.6750278 -0.37197554 0.08197848
0.13343872 0.111935474 -0.22127794 0.45471108 1.6030551 0.6598805 -1.3356179 -0.9202181
0.026999913 -0.16266476 0.1957955 0.25566882 0.20216367 0.08989907 -0.09306391 0.01691666
-0.6595413 -0.043984212 0.01836628 -0.0030933097 -3.5400372 -0.16477208 0.11979989 -0.35742432
-0.23724307 1.1544968 1.0650074 0.19487 -0.5837537 0.2323561 0.23923628 -0.11272104
0.107510075 -0.4263548 -0.8321866 0.12596023 0.5146962 -0.43776184 -0.4529148 0.8325623
-0.7039742 0.025153063 0.43714407 0.1552842 0.3229312 0.6475269 -0.07861786 1.088994
-0.038469296 -0.1547184 -0.04055267 0.0020029258 -0.009670667 0.9461013 0.033584867 -0.8503962
0.12692872 0.10037078 -0.8073775 -0.67147624 0.574011 -0.07534 -0.33113742 -0.50294423
-0.035225235 -0.040025458 -0.35702416 -0.24977006 -0.77601737 -0.43561846 -0.5677645 1.0023816
-2.2827094 -0.6322028 0.10255996 -0.06646192 -0.5414807 -0.44730523 -0.5487148 -0.2516834
-0.24339034 0.026156122 0.055066735 -0.046085186 0.039741803 -0.04248194 -2.0769134 -0.45067328
-0.048379626 0.39232323 -0.537513 0.3915128 0.77612936 -0.6715798 0.40213686 0.03696874
-1.108974 -0.87248474 -0.12533869 -0.13888443 -0.17955074 -0.47496065 -1.1136459 -0.4782708
0.38029867 -0.060361084 0.1706016 0.027326966 0.11650296 -0.07609859 -0.55480415 0.23032728
00000000: d739 89bd 83f2 ca3c 27f7 94be 7660 9a3e
00000010: 639c 9e3e b07e e33e 2334 23bc cf44 c4bd
00000020: 1b7d 27bf efac fdbd 0a76 723a 31f9 8b3b
00000030: f4cb 26be 7219 42bf 2bdf aebe 63d7 11bc
00000040: 65d2 cebe d8eb debe bf5d 2cbf 5580 a3bf
00000050: d616 db3c dae2 ce3d b742 723d 6500 0dbf
00000060: f252 8b3c 410c 753d 43af 193f 5289 953b
00000070: 19f0 f6be 1641 24bd 5804 54bb e87b 64bc
00000080: 3daf 6fc0 445d c9bd f257 3cbd ccaf b33c
00000090: 68f7 c83c 25d5 bbbc c510 3ebd 64cf 023c
000000a0: 1d9e 713c b2fc 043d 32d1 853d 6446 a23c
000000b0: 0320 bd3c f8a6 daba 8868 cf3b 6c0b 883b
000000c0: 1c8b 83bd 210f a2bd b778 9b3c f9ca 2bbd
000000d0: a66c 60bd 5159 aebc 1039 8a3c ed10 1bbd
000000e0: b7d7 3a3d dcb8 b33d 9c14 6dbd b03e b53d
000000f0: 718a 293d 95e6 ecbc ea36 f3bc 3976 c43a
00000100: d0f3 6d3b 109b 43bd feb8 1abf 5265 0cbe
00000110: f512 0fbf 4708 5b3f d112 aabf 3ac3 50be
00000120: 8269 63bf f158 e43e f234 cbbe 00c2 5d3d
00000130: beb0 643c 3b22 43be 197b 1f3f c98f ed3d
00000140: 95a1 d5bd b40b 283f 1168 843f 8982 97bf
00000150: 5177 553f a454 773f 1df4 83be 959a dbbe
00000160: 356a 08be 2326 283e fce5 f1be 51ef ae3e
00000170: bb55 103d c290 19bc a41f 403f 4e4f c23c
00000180: 5320 b4bc b327 32bd 8fcf eabf a083 59bf
00000190: e935 55be 57aa 603f ebeb 9e3f 577c 33c0
000001a0: 6368 1b3f 31bc 6a3f 9a93 cb3c e472 413f
000001b0: e0a6 0fbf d937 33bf c869 44bd c9dc a33e
000001c0: 8383 a9bd f462 cc3e f35b 5bbe 11fc 22bf
000001d0: ab6e 04bf 32a9 0f3f a149 99bf 9f99 c0bc
000001e0: 5672 033d 74cd 43be b281 f6bd 1e00 3b3e
000001f0: 16ce 14be c999 28bd d0a7 f73c 6023 4bbf
00000200: 735d 033d a86e 45bc 60c4 063c c70e d1bf
00000210: 6e41 a2be 096f afbe 138b 5dbe 4a6b 5fbf
00000220: 49e6 5fbf d722 db3e 3863 f3bf 38f0 9c3b
00000230: 6155 62be 9fce 2cbf 9473 bebe 55e4 a73d
00000240: 29a4 083e 6d3e e53d af96 62be e4cf e83e
00000250: e930 cd3f eeed 283f 87f5 aabf 6a93 6bbf
00000260: ec2e dd3c 9791 26be 9e7e 483e 06e7 823e
00000270: fe03 4f3e 011d b83d 4b98 bebd cf94 8a3c
00000280: b3d7 28bf ca28 34bd e174 963c 20b9 4abb
00000290: f88f 62c0 03ba 28be a559 f53d 5200 b7be
000002a0: d9ef 72be 8dc6 933f 2a52 883f 008c 473e
000002b0: e270 15bf c2ee 6d3e 5bfa 743e 4ada e6bd
000002c0: 3e2e dc3d 2d4b dabe 2e0a 55bf b8fb 003e
000002d0: 21c3 033f 5222 e0be 73e4 e7be ce22 553f
000002e0: a737 34bf cc0d ce3c 59d1 df3e d202 1f3e
000002f0: 3d57 a53e 53c4 253f 6702 a1bd 2864 8b3f
00000300: fb91 1dbd 806e 1ebe 8e1a 26bd 8543 033b
00000310: b871 1ebc b233 723f 4990 093d 91b3 59bf
00000320: 9af9 013e 328f cd3d 4bb0 4ebf dee5 2bbf
00000330: 63f2 123f dc4b 9abd d88a a9be f4c0 00bf
00000340: 5648 10bd bcf1 23bd dfcb b6be b9c3 7fbe
00000350: 13a9 46bf 6209 dfbe 0459 11bf 0a4e 803f
00000360: e917 12c0 0bd8 21bf f50a d23d 301d 88bd
00000370: 7b9e 0abf 3105 e5be 9378 0cbf a6dc 80be
00000380: 513b 79be 5d45 d63c a88d 613d d2c3 3cbd
00000390: 4dc8 223d 8b01 2ebd 26ec 04c0 a6be e6be
000003a0: b729 46bd 97de c83e 749a 09bf 5e74 c83e
000003b0: 6ab0 463f a7ec 2bbf e2e4 cd3e 896c 173d
000003c0: dcf2 8dbf 295b 5fbf c958 00be b837 0ebe
000003d0: 26dc 37be 0b2e f3be f38b 8ebf e9df f4be
000003e0: 82b6 c23e 2f3d 77bd 30b2 2e3e cddc df3c
000003f0: 1b99 ee3d 94d9 9bbd a507 0ebf eada 6b3e

fcs1.bias f4 [400]
0.04881966 0.15531367 0.09167665 0.028945196 -0.11792281 0.116281204 5.8249934e-05 0.057675876
-0.08328759 -0.14490208 -0.15519026 -0.052504603 -0.1293171 -0.15073507 0.17147663 0.06902311
-0.02304091 -0.15421724 -0.123566575 -0.16427743 -0.0442703 0.12377134 -0.022891136 0.038551416
-0.012779941 0.105662666 0.16686378 -0.07089003 -0.13411702 0.10214261 0.11506116 0.0138465585
-0.07808911 -0.041100513 0.09848785 0.052043766 -0.060574036 0.04952775 0.05456742 -0.049939822
-0.09983719 0.042708557 0.04286958 0.16891725 -0.028701482 0.025642568 0.038454425 0.07817461
0.081688166 -0.121327884 0.14813118 0.034076277 0.17376743 -0.13418077 0.15506518 0.12722719
-0.06659503 -0.16065656 0.028368412 0.10624861 -0.088959984 0.07235337 0.02761374 0.14784515
0.16957274 0.079059854 -0.030367732 -0.058348306 0.122789726 -0.093934916 -0.06481766 -0.10202154
-0.17346379 0.15657428 0.11173748 0.07136244 0.12839153 0.124111675 0.119897194 -0.11344093
0.11344654 -0.01232878 0.16713236 0.15327676 0.038889624 -0.09362367 0.16365544 -0.17240809
-0.0747677 0.05155215 0.020151662 -0.13213903 -0.10159142 0.03397845 -0.03353522 -0.14058766
0.10094566 0.12850055 -0.016851818 0.088211 0.03612877 0.09659515 0.0010729736 0.052735195
0.12107709 -0.054088328 0.12528095 0.048679266 -0.14106663 0.1382876 -0.068073325 -0.17042299
-0.043960955 -0.17187198 -0.04992386 -0.043160096 -0.12495008 0.14193153 0.10880267 0.08765176
0.16067998 -0.070697434 0.06703947 0.12954095 0.13951084 0.06370843 0.07986723 0.15721758
0.14546293 -0.1388592 0.14308433 -0.06838897 0.11300353 -0.16968825 0.15527056 0.14514135
-0.04975748 0.15889016 0.03513337 -0.11488472 0.06865614 -0.11007129 -0.09129041 0.14980707
0.0052289423 -0.09465277 -0.1665394 -0.009149957 0.019456558 -0.030279666 0.007851911 0.14251567
-0.15902309 0.040393583 -0.02005896 -0.15332781 -0.16912997 -0.008006519 -0.16761759 0.17209859
-0.1489571 -0.0049502305 -0.004258741 -0.1018274 0.16280425 -0.025185734 -0.066767186 0.140881
0.056758877 -0.051690686 -0.16882779 -0.03348616 -0.04321613 -0.04751903 0.10348837 -0.013009275
0.047630202 0.14203513 0.0028766934 0.16417445 0.07310762 -0.13010624 0.08726647 -0.072035775
0.13744844 0.04947485 -0.10506376 -0.105163306 -0.17247505 -0.16653076 -0.11068151 0.044631116
-0.049876582 0.033682607 -0.1486662 -0.0013702259 -0.082621545 0.04538612 -0.120764285 0.083540805
-0.072425954 0.019377746 -0.07404548 0.14793746 0.016539622 0.08454439 -0.06868824 0.13959359
-0.064532116 0.11082299 0.16692752 -0.087577745 0.039237987 0.03522653 -0.0008249974 0.07532915
0.15414947 -0.0014603948 0.042760167 0.108092755 -0.14286333 0.10261926 0.0055026463 -0.12642315
0.07156006 -0.07983376 -0.12793483 -0.056812566 0.022584459 0.1004158 -0.076774344 0.14569455
-0.12359654 -0.1272918 0.06848718 0.16366501 0.13199596 0.12554893 0.01046561 -0.061865076
-0.12955166 -0.12423718 0.053954944 -0.012277155 -0.027665585 -0.03318566 -0.0004599429 -0.1018245
-0.039597955 0.1428361 -0.09269701 -0.012914813 -0.13765746 -0.06974955 0.058933396 0.07541444
00000000: 20f7 473d 8c0a 1f3e f8c0 bb3d 7a1e ed3c
00000010: 8481 f1bd d724 ee3d 6451 7438 8a3d 6c3d
00000020: af92 aabd 3661 14be 32ea 1ebe 110f 57bd
00000030: b46b 04be 4b5a 1abe 9297 2f3e fd5b 8d3d
00000040: 4ac0 bcbc 20eb 1dbe 7910 fdbd 5838 28be
00000050: c654 35bd d47b fd3d 3186 bbbc 17e8 1d3d
00000060: f562 51bc ab65 d83d 57de 2a3e cb2e 91bd
00000070: f955 09be 2530 d13d 2fa5 eb3d addc 623c
00000080: 2fed 9fbd 0359 28bd ffb3 c93d d82b 553d
00000090: 7b1c 78bd 9cdd 4a3d 1682 5f3d b38d 4cbd
000000a0: 7177 ccbd 2bef 2e3d 0398 2f3d a5f8 2c3e
000000b0: 5f1f ebbc 5d10 d23c 6382 1d3d 031a a03d
000000c0: 204c a73d c17a f8bd b3af 173e 9193 0b3d
000000d0: 17f0 313e af66 09be 68c9 1e3e d847 023e
000000e0: fa62 88bd 2783 24be df64 e83c df98 d93d
000000f0: a730 b6bd 012e 943d 3636 e23c b864 173e
00000100: 7aa4 2d3e 22ea a13d c0c5 f8bc a2fe 6ebd
00000110: 2e79 fb3d f360 c0bd 1fbf 84bd abf0 d0bd
00000120: 7ea0 31be 0255 203e 9fd6 e43d 7926 923d
00000130: 1279 033e 432e fe3d a98c f53d b853 e8bd
00000140: a956 e83d a7fe 49bc bf24 2b3e 95f4 1c3e
00000150: ba4a 1f3d c4bd bfbd 4b95 273e bf8b 30be
00000160: cf1f 99bd 5928 533d 1915 a53c 744f 07be
00000170: 2a0f d0bd fd2c 0b3d 3a5c 09bd 36f6 0fbe
00000180: 99bc ce3d a695 033e d30c 8abc f8a7 b43d
00000190: c3fb 133d aed3 c53d 05a3 8c3a dc00 583d
000001a0: 44f7 f73d b98b 5dbd a649 003e e963 473d
000001b0: c573 10be 449b 0d3e 076a 8bbd 5d83 2ebe
000001c0: 6710 34bd 35ff 2fbe f67c 4cbd a4c8 30bd
000001d0: d4e5 ffbd 8056 113e efd3 de3d c482 b33d
000001e0: 4b89 243e d1c9 90bd fd4b 893d 62a6 043e
000001f0: eedb 0e3e 9179 823d 6e91 a33d a5fd 203e
00000200: 3cf4 143e 1b31 0ebe b384 123e 840f 8cbd
00000210: 656e e73d c2c2 2dbe 3fff 1e3e ef9f 143e
00000220: 80ce 4bbd 1ab4 223e 02e8 0f3d ae48 ebbd
00000230: 979b 8c3d 0e6d e1bd 77f6 babd 0667 193e
00000240: 8c57 ab3b 50d9 c1bd 4e89 2abe b4e9 15bc
00000250: 5c63 9f3c 100d f8bc 4da5 003c a1ef 113e
00000260: f3d6 22be be73 253d b052 a4bc f701 1dbe
00000270: 6830 2dbe c62d 03bc f2a3 2bbe 9d3a 303e
00000280: 3688 18be 8b35 a2bb e98c 8bbb e28a d0bd
00000290: 28b6 263e 5052 cebc 3cbd 88bd 1c43 103e
000002a0: ff7b 683d 9db9 53bd 31e1 2cbe c928 09bd
000002b0: 6603 31bd 50a3 42bd b6f1 d33d db24 55bc
000002c0: e317 433d a871 113e e886 3c3b 591d 283e
000002d0: 73b9 953d 923a 05be c3b8 b23d 7e87 93bd
000002e0: 49bf 0c3e 24a6 4a3d ab2b d7bd dc5f d7bd
000002f0: 4d9d 30be 0a87 2abe fdac e2bd 1ecf 363d
00000300: 634b 4cbd c6f6 093d f43b 18be 2799 b3ba
00000310: 7c35 a9bd cce6 393d 4453 f7bd 7117 ab3d
00000320: 0f54 94bd 14be 9e3c 28a5 97bd eb7c 173e
00000330: 1a7e 873c 9c25 ad3d 6cac 8cbd 9ff1 0e3e
00000340: 6a29 84bd 2af7 e23d 0cef 2a3e f65b b3bd
00000350: 03b8 203d b249 103d a344 58ba 2b46 9a3d
00000360: 5cd9 1d3e b86a bfba 4925 2f3d bc5f dd3d
00000370: c44a 12be 0c2a d23d 8b4f b43b 1275 01be
00000380: 158e 923d e27f a3bd 5901 03be 4bb4 68bd
00000390: 0b03 b93c cda6 cd3d de3b 9dbd f430 153e
000003a0: 2f20 fdbd c858 02be 0243 8c3d cd97 273e
000003b0: f329 073e e68f 003e f377 2b3c 3c66 7dbd
000003c0: 31a9 04be 1070 febd dcff 5c3d 1f26 49bc
000003d0: f0a2 e2bc b0ed 07bd 7e24 f1b9 5d89 d0bd
000003e0: 7731 22bd a043 123e eed7 bdbd a798 53bc
000003f0: 14f6 0cbe dad8 8ebd 2564 713d e372 9a3d

fc2.weight f4 [300, 404]
-0.014451118 -0.034324978 -0.030295383 0.011729856 -0.037952777 0.013945 -0.05715944 -0.07714479
-0.023695072 -0.12590802 -0.11050165 0.029237503 -0.092248686 -0.072427236 -0.013215139 -0.002222858
-0.026315425 0.009087676 -0.065758646 -0.057759177 -0.068202764 0.026115062 -0.03651031 -0.011213314
-0.05747919 -0.00044223916 0.018854382 -0.036608443 -0.022752881 -0.0806267 -0.06551623 -0.11513827
-0.08360619 -0.069487914 -0.044706438 -0.009523445 -0.034921695 0.006943867 -0.043923967 -0.0021495481
-0.0378936 0.035727993 0.019256884 -0.034024402 -0.044192575 -0.051661853 -0.0014107814 0.05087035
-0.034529276 -0.07039649 0.012769329 -0.04353776 0.049718544 -0.03632732 -0.049988188 0.0049141655
0.041802745 0.048132785 0.010702114 -0.059452914 -0.047095563 0.005635058 -0.036746565 -0.027763957
-0.022509005 -0.028225716 -0.004717874 0.019268807 -0.059727926 -0.024630306 -0.060021877 -0.0671714
-0.03997245 -0.08963123 -0.043091513 0.009226586 -0.049448762 0.025471553 -0.027594188 -0.03617138
-0.030551488 -0.0824831 -0.01904721 0.030833604 -0.036427855 -0.08823186 0.011726726 -0.011472353
0.05378057 0.035439726 -0.059346974 -0.007843486 -0.052413516 -0.08032722 -0.043230835 0.002783865
0.023737565 0.00946257 -0.025939908 -0.013308382 -0.08250294 -0.057853285 -0.0077229487 0.0061640134
-0.02843942 -0.045785252 -0.040112007 -0.028036 -0.04297476 -0.020624857 -0.012162353 -0.027111553
-0.04977724 -0.003441276 -0.07582192 0.0047829784 -0.02020741 -0.03867651 -0.011257412 0.0034749757
0.022049874 -0.04262582 -0.03766375 -0.038915586 -0.09225197 -0.040272642 -0.020070441 -0.030947834
-0.05850597 0.006500935 0.048607282 0.0032759702 -0.03543132 -0.05634527 0.030126806 -0.11527883
-0.009599586 -0.008594219 -0.058786627 -0.033086717 -0.018156832 -0.032358415 -0.11112098 -0.049274184
-0.07240084 -0.037586477 -0.033407047 0.059529122 -0.025005065 0.006716436 0.04110081 0.056512926
0.011488557 -0.017001431 -0.04996702 -0.025072373 -0.0039447867 -0.074621454 -0.044432808 -0.07728949
-0.0059733046 -0.034678392 -0.02974937 -0.019767107 0.028168714 -0.07376323 -0.029066531 -0.031556483
-0.07161507 0.011225012 -0.074217595 -0.026628517 -0.030170018 0.00435945 -0.028573921 0.03529494
-0.03608824 -0.07350782 0.030631464 -0.002294163 0.032966558 -0.010528872 -0.045117814 -0.0041209823
-0.058976658 -0.046615906 0.023441374 -0.009438051 0.0017209974 0.009118177 -0.0012019974 0.004403261
0.011298195 0.026821718 -0.001982188 0.030058602 0.006795555 -0.0041770767 -0.012656983 -0.039015684
-0.028270457 -0.04946668 -0.03937473 -0.046436414 -0.004824443 -0.03430586 0.015851934 -0.0130288005
0.04210583 -0.025766136 -0.0539363 -0.03777192 0.041483846 0.017824998 0.03162836 -0.018216448
-0.021337088 -0.024704503 -0.006637405 -0.032260858 -0.011958429 0.0008054627 -0.058203444 -0.02186545
0.00248165 -0.009436458 -0.077382356 -0.032942813 0.027656598 -0.016753739 0.01414963 -0.0418175
-0.023483267 0.0001326696 -0.046549655 -0.056483217 -0.06302236 -0.05799114 -0.062670775 -0.004203674
-0.007510617 -0.030816458 0.00967057 -0.0452187 -0.0016445369 0.0070090373 -0.05061056 -0.06859376
-0.0629814 -0.008623683 0.0070087826 0.02644765 -0.03399656 0.012475808 -0.051877737 0.0059552016
00000000: 62c4 6cbc 5998 0cbd 062e f8bc 952e 403c
00000010: 5f74 1bbd 9279 643c 0420 6abd 16fe 9dbd
00000020: 2b1c c2bc 08ee 00be b04e e2bd 7d83 ef3c
00000030: e1ec bcbd bb54 94bd 4f84 58bc 5ead 11bb
00000040: 7293 d7bc 7ae4 143c 78ac 86bd e394 6cbd
00000050: e4ad 8bbd 41ef d53c d68b 15bd 0cb8 37bc
00000060: 4d6f 6bbd 56dc e7b9 8174 9a3c bcf2 15bd
00000070: 4064 babc 9c1f a5bd 602d 86bd 9dcd ebbd
00000080: b939 abbd ae4f 8ebd 191e 37bd 3908 1cbc
00000090: 0d0a 0fbd 6189 e33b 9ee9 33bd 6fdf 0cbb
000000a0: 5236 1bbd 8457 123d 9dc0 9d3c 2c5d 0bbd
000000b0: 4603 35bd 619b 53bd f8e9 b8ba 6e5d 503d
000000c0: 926e 0dbd 092c 90bd 7336 513c a654 32bd
000000d0: aca5 4b3d f5cb 14bd 6ac0 4cbd 0207 a13b
000000e0: 5b39 2b3d e226 453d eb57 2f3c e684 73bd
000000f0: 47e7 40bd 4ba6 b83b 9183 16bd 3d71 e3bc
00000100: ce64 b8bc 9e39 e7bc 6598 9abb 9ed9 9d3c
00000110: 45a5 74bd 7fc5 c9bc 80d9 75bd 2991 89bd
00000120: 27ba 23bd 9490 b7bd ba80 30bd 1b2b 173c
00000130: c98a 4abd b8a9 d03c 350d e2bc 7128 14bd
00000140: 1d47 fabc e6ec a8bd e508 9cbc c196 fc3c
00000150: 6035 15bd e8b2 b4bd 7421 403c 89f6 3bbc
00000160: 0449 5c3d 3f29 113d d015 73bd f781 00bc
00000170: 8eaf 56bd 9982 a4bd d112 31bd 8171 363b
00000180: 4875 c23c e508 1b3c ee7f d4bc 660b 5abc
00000190: 4df7 a8bd 91f7 6cbd ca10 fdbb 7efb c93b
000001a0: c9f9 e8bc 5189 3bbd 7d4c 24bd c1ab e5bc
000001b0: 4d06 30bd 76f5 a8bc 9b44 47bc 0c19 debc
000001c0: 38e3 4bbd 0887 61bb 8648 9bbd 88ba 9c3b
000001d0: 038a a5bc 436b 1ebd 0271 38bc 6bbc 633b
000001e0: f0a1 b43c 6998 2ebd 4e45 1abd f365 1fbd
000001f0: 9aee bcbd edf4 24bd c46a a4bc 5086 fdbc
00000200: f5a3 6fbd cc05 d53b 6e18 473d a9b1 563b
00000210: 6f20 11bd 4cca 66bd 7ecc f63c 4f17 ecbd
00000220: 9547 1dbc c4ce 0cbc 3fca 70bd f085 07bd
00000230: a3bd 94bc 428a 04bd 6593 e3bd bad3 49bd
00000240: e446 94bd 47f4 19bd d4d5 08bd cfd4 733d
00000250: 6cd7 ccbc 8c15 dc3b 5359 283d 197a 673d
00000260: 803a 3c3c 9646 8bbc 38aa 4cbd 9464 cdbc
00000270: 4543 81bb 22d3 98bd 2dff 35bd f449 9ebd
00000280: b6bb c3bb ee0a 0ebd f3b4 f3bc a1ee a1bc
00000290: 13c2 e63c 2d11 97bd ef1c eebc 5f41 01bd
000002a0: ecaa 92bd 1de9 373c 65ff 97bd 0c24 dabc
000002b0: 1d27 f7bc b8d9 8e3b db13 eabc 6d91 103d
000002c0: 43d1 13bd 458b 96bd d6ee fa3c ab59 16bb
000002d0: f107 073d 4a81 2cbc 75cd 38bd 4e09 87bb
000002e0: 8291 71bd 52f0 3ebd 2008 c03c 0ea2 1abc
000002f0: 1793 e13a 6864 153c 578c 9dba 3b49 903b
00000300: 111c 393c 38b9 db3c 99e7 01bb 753d f63c
00000310: 3fad de3b dcdf 88bb 3c5f 4fbc e9ce 1fbd
00000320: 7297 e7bc 939d 4abd 6647 21bd 1c34 3ebd
00000330: 5c16 9ebb 4d84 0cbd eadb 813c c076 55bc
00000340: 2a77 2c3d 8113 d3bc 4fec 5cbd bbb6 1abd
00000350: f7ea 293d bb05 923c bd8c 013d a93a 95bc
00000360: 1ecb aebc 1961 cabc 977e d9bb f623 04bd
00000370: 49ed 43bc b025 533a bc66 6ebd 2c1f b3bc
00000380: 2ea3 223b 609b 1abc a47a 9ebd 0bef 06bd
00000390: 1790 e23c 233f 89bc dad3 673c d448 2bbd
000003a0: fb5f c0bc 391d 0b39 daaa 3ebd f25a 67bd
000003b0: de11 81bd 1e88 6dbd 8959 80bd f9be 89bb
000003c0: 9f1b f6bb cc72 fcbc 4f71 1e3c 3e37 39bd
000003d0: 808d d7ba 11ac e53b 054d 4fbd e37a 8cbd
000003e0: 64fc 80bd 594a 0dbc eea9 e53b bea8 d83c
000003f0: fa3f 0bbd 5567 4c3c c07d 54bd da23 c33b

fc2.bias f4 [300]
-0.13773015 0.25505424 -0.09843943 0.559837 -0.07416831 -0.0852662 -0.054290496 -0.12850204
-0.060652826 -0.10200892 -0.103114076 -0.30141407 -0.09946899 0.6568658 -0.30124885 0.17629804
-0.10454965 -0.0749389 -0.044330724 -0.11398599 -0.119398415 -0.07919141 0.38677734 -0.14400366
-0.056181088 0.45258513 -0.112465605 -0.032368995 -0.10647718 0.47811773 0.5442316 -0.07536235
-0.050154537 -0.115058064 -0.09893536 -0.05051791 -0.051743884 -0.29228744 -0.71257865 -0.040683858
0.6864183 -0.04697789 -0.08701155 -0.09658237 -0.11898374 -0.05733473 -0.34641963 -0.09467849
-0.040386856 -0.10936617 -0.12477284 -0.07938502 0.7073438 -0.11668557 -0.12837322 -0.16629529
-0.10329641 -0.021366484 -0.07328968 -0.062170863 0.120499924 -0.05068312 -0.29363775 -0.07247186
-0.07092195 -0.043785222 0.1656368 -0.16396011 1.4521599 0.2164643 -0.07340852 -0.11899352
0.09158064 -0.05095161 -1.2540351 -0.090364 -0.099199094 0.68784803 -0.030057434 -0.13634318
-0.10195015 -0.14328341 0.6435358 -0.15281206 -0.04678646 -0.06116458 -0.061682828 -0.13254453
-0.06246447 -0.07392592 -0.0031426265 -0.098121114 -0.08743531 -0.10863508 -0.0795221 -0.043071505
-0.331963 -0.110201314 -0.03724757 -0.1116353 -0.063173935 -0.07835545 -0.06421648 -0.023168236
-0.04797383 -0.09020913 -0.09338426 -0.09771201 0.8705533 -0.1055401 -0.0643703 0.35860473
-0.060506996 -0.08272743 -0.050695032 -0.12943575 0.29303768 -0.07238452 -0.14695643 -0.18179256
-0.07712598 0.07839936 -0.3512392 -0.10315597 -0.08376182 0.5386518 -0.09924209 0.32513344
-0.040629666 -0.121402726 -0.11626875 1.3838063 -0.07731087 -0.104737386 0.40144202 -1.4411222
0.0950681 -0.101735 0.029286439 -0.08351082 -0.067069225 -0.09003334 -0.11563701 -0.14297408
0.61849874 -0.07199777 -0.10017909 -0.06648398 0.20150381 -0.09844094 -0.07923041 -0.049324855
-0.1013551 -0.11353462 -0.114706784 0.8610283 0.65827566 -0.06279504 -0.1238622 -0.075479254
0.5611092 -0.11034446 -0.118785076 -0.10951039 -0.10062393 -0.084283374 1.6643226 -0.056262266
-0.08552005 -0.06433349 -0.0945455 -0.08292643 -0.121004686 -0.07213862 -0.06870435 -0.12277477
-0.067395985 -0.083017446 -0.118449554 -0.10373471 -0.0521561 -0.073998675 -0.071792185 -0.060646128
-0.40879843 -0.05142768 0.18049304 0.12762986 -0.10467744 0.8993072 -0.08160271 -0.10091699
-0.1036524 1.1678911 -0.10806748 0.2321717 -0.031309396 0.25637856 0.5133006 1.0455896
0.41014868 -0.055588942 -0.042147204 -0.09828945 -0.12518111 -0.0761643 -0.19292723 -0.089903794
-0.24706319 0.3884882 0.00036538992 0.18993038 -0.09403487 -0.104431644 -0.08991779 -0.09013162
0.01222552 -0.0980336 -0.10014008 0.63572663 -0.09731696 -0.05474377 -0.07854142 0.43193126
-0.035426196 -0.10515524 -0.11355735 -0.31458816 0.072541684 0.13781694 0.7283137 -0.08660961
0.00094541867 -0.08855565 -0.094841965 -0.10369098 -0.046236873 -0.07527774 -0.10014589 -0.098874874
-0.072610006 -0.05789125 -0.07870418 -0.058431096 -0.088654436 0.21562871 -0.15960462 -0.051638726
0.88926834 -0.054431126 0.8946989 -0.13647604 -0.098377354 -0.060720004 -0.1434787 -0.06689091
00000000: 2209 0dbe 7896 823e 9d9a c9bd 7a51 0f3f
00000010: 8ee5 97bd 0ca0 aebd b65f 5ebd 0a96 03be
00000020: 196f 78bd 0dea d0bd 792d d3bd f252 9abe
00000030: 66b6 cbbd 5b28 283f 4a3d 9abe 7987 343e
00000040: 201e d6bd 9179 99bd 2294 35bd 7d71 e9bd
00000050: 2887 f4bd 1b2f a2bd ae07 c63e b275 13be
00000060: 241e 66bd 3db9 e73e 5e54 e6bd 5a95 04bd
00000070: b510 dabd d9cb f43e c352 0b3f 9357 9abd
00000080: d86e 4dbd 90a3 ebbd 9f9e cabd deeb 4ebd
00000090: 65f1 53bd b3a6 95be 8e6b 36bf 1ea4 26bd
000000a0: 1cb9 2f3f e36b 40bd 1d33 b2bd facc c5bd
000000b0: bfad f3bd d2d7 6abd ea5d b1be cce6 c1bd
000000c0: b06c 25bd 5ffb dfbd e788 ffbd 9d94 a2bd
000000d0: 7c14 353f d8f8 eebd 4574 03be 5049 2abe
000000e0: 118d d3bd c408 afbc e618 96bd e0a6 7ebd
000000f0: aac8 f63d 1a99 4fbd b057 96be 206c 94bd
00000100: 873f 91bd 2258 33bd b19c 293e 29e5 27be
00000110: 60e0 b93f d1a8 5d3e 3557 96bd e0b2 f3bd
00000120: a18e bb3d a3b2 50bd 3984 a0bf c310 b9bd
00000130: e528 cbbd cf16 303f 023b f6bc 8c9d 0bbe
00000140: 3ecb d0bd e3b8 12be c3be 243f c47a 1cbe
00000150: 29a3 3fbd b687 7abd 22a7 7cbd c1b9 07be
00000160: beda 7fbd 7966 97bd 86f4 4dbb b9f3 c8bd
00000170: 4911 b3bd 127c debd 7cdc a2bd bf6b 30bd
00000180: 0ef7 a9be 3ab1 e1bd e890 18bd 0ca1 e4bd
00000190: 5661 81bd d278 a0bd ee83 83bd 50cb bdbc
000001a0: 3580 44bd 90bf b8bd 3f40 bfbd 3c1d c8bd
000001b0: 95dc 5e3f 6825 d8bd 93d4 83bd 0a9b b73e
000001c0: 2fd6 77bd 006d a9bd 98a5 4fbd ce8a 04be
000001d0: 0909 963e 563e 94bd bf7b 16be d427 3abe
000001e0: 3af4 9dbd d88f a03d a0d5 b3be 7043 d3bd
000001f0: 518b abbd 16e5 093f 703f cbbd e477 a63e
00000200: 4b6b 26bd fea1 f8bd 4f1e eebd 9120 b13f
00000210: 2955 9ebd 8e80 d6bd cf89 cd3e b176 b8bf
00000220: 10b3 c23d 715a d0bd 1dea ef3c b907 abbd
00000230: 975b 89bd 6663 b8bd 19d3 ecbd cc67 12be
00000240: ef55 1e3f 9173 93bd b22a cdbd c128 88bd
00000250: 0457 4e3e 679b c9bd 8e43 a2bd dc08 4abd
00000260: 4393 cfbd d784 e8bd 64eb eabd 5a6c 5c3f
00000270: c184 283f b09a 80bd 77ab fdbd de94 9abd
00000280: daa4 0f3f 47fc e1bd 9745 f3bd fc46 e0bd
00000290: eb13 cebd c39c acbd 8608 d53f 4373 66bd
000002a0: 2325 afbd 47c1 83bd 12a1 c1bd 55d5 a9bd
000002b0: 4ed1 f7bd 6abd 93bd deb4 8cbd 5771 fbbd
000002c0: e806 8abd 0d05 aabd ae95 f2bd dd72 d4bd
000002d0: a2a1 55bd 9e8c 97bd c807 93bd 1368 78bd
000002e0: 074e d1be d5a5 52bd 2bd3 383e 67b1 023e
000002f0: 2061 d6bd ff38 663f 521f a7bd 91ad cebd
00000300: b647 d4bd 757d 953f 7c52 ddbd 6bbe 6d3e
00000310: 483e 00bd 0d44 833e ab67 033f e1d5 853f
00000320: 02ff d13e 3bb1 63bd 8ca2 2cbd fb4b c9bd
00000330: 7a2f 00be 07fc 9bbd b78e 45be 7b1f b8bd
00000340: 22fe 7cbe ede7 c63e ce91 bf39 1c7d 423e
00000350: 5b95 c0bd 42e0 d5bd d126 b8bd ed96 b8bd
00000360: 8c4d 483c d7c5 c8bd 3e16 cdbd fbbe 223f
00000370: 1d4e c7bd 013b 60bd 53da a0bd 1826 dd3e
00000380: 0f1b 11bd a15b d7bd c290 e8bd b311 a1be
00000390: bc90 943d e21f 0d3e c472 3a3f 6160 b1bd
000003a0: f9d5 773a aa5c b5bd 813c c2bd f05b d4bd
000003b0: e062 3dbd 372b 9abd 4a19 cdbd e97e cabd
000003c0: 8eb4 94bd 601f 6dbd a82f a1bd 7255 6fbd
000003d0: 7590 b5bd c6cd 5c3e 656f 23be 2183 53bd
000003e0: 17a7 633f 2cf3 5ebd fd0a 653f 60c0 0bbe
000003f0: 117a c9bd 8ab5 78bd 15ec 12be 1afe 88bd

fc3.weight f4 [1, 300]
0.017393874 0.0244598 -0.019829609 0.030146759 0.005669783 0.02759208 0.02185363 0.028574485
0.010437995 0.018103156 -0.01539729 -0.076956294 0.03889736 0.048551243 0.021748379 0.13293797
0.014630857 -0.00014628099 0.0006425663 -0.022977736 -0.032051697 -0.0035541446 0.076761544 0.010980801
0.012622519 0.043806773 0.012964038 4.5914483e-05 -0.0060916534 0.04199002 0.0412083 0.019097717
0.022491833 0.021802556 -0.019096332 -0.011494324 -0.023266803 -0.06478605 -0.028249625 -0.008660531
0.055877388 0.0047716773 -0.0058440166 0.013263629 0.014373503 -0.01624642 -0.024811408 0.0031885728
0.0058061467 -0.013446714 0.002474124 0.02532867 0.02334269 -0.025212443 -0.008533151 -0.054186676
0.006826731 0.041030627 -0.0049175043 -0.0037470195 0.09263209 0.00693612 -0.035062086 0.00047072847
0.014956056 -0.002044649 0.024693692 0.014432792 0.04215194 0.085165404 -0.016512765 -0.014459027
0.062215608 -0.0104197385 -0.06989884 0.01669339 -0.0025743803 0.043441035 -0.022664465 0.01654783
0.03433188 0.022120772 0.083092384 -0.011773798 0.016624851 -0.024231855 -0.029773599 0.067087
0.007898944 -0.0035041617 0.019542113 -0.018888101 0.012174374 -0.01165988 0.008337413 0.0061929533
-0.054914907 0.019127004 0.01640947 -0.017806968 -0.017132124 -0.025583737 0.016320746 -0.0027244685
0.008339384 0.021933325 -0.008639196 0.024369387 0.03354324 0.009138257 0.0038088963 0.044515178
0.0025466643 -0.028617965 0.002042548 0.008122609 0.0415058 -0.023870707 0.09315879 -0.038742192
0.016126942 -0.113595404 -0.04581444 -0.0054039536 0.0033660063 0.050091937 -0.01196879 0.038414564
0.011889317 0.02236923 -0.019562317 0.057433434 -0.011942801 0.02093909 0.038984217 -0.032235578
0.033775434 2.214124e-05 -0.22096919 -0.004556281 -0.014782302 0.0041051675 0.02019712 0.0035303233
0.046249606 -0.018245678 -0.025383849 0.0029221866 0.062855534 0.0064123455 -0.018882927 -0.008985089
0.0011588659 0.0026656152 0.002484136 0.0321421 0.07187098 -0.0005775341 0.0063730893 0.11303353
0.03725722 -0.07346788 0.0033373688 -0.0018726722 0.029164799 0.0012638367 0.07091138 -0.002355707
0.041360192 -0.0056058336 -0.021235194 -0.0057145697 -0.00825027 0.018854791 -0.016349507 -0.022551129
-0.0036100226 1.6580796e-06 0.017657675 -0.0014125174 0.002761862 -0.017226735 -0.00010076408 -0.007845398
-0.058893953 -0.02479876 0.047607515 0.04558745 0.0013811364 0.05683564 -0.020516591 -0.024499444
-0.023162596 0.03558608 -0.01237964 0.039774902 -0.012078681 0.02598694 0.05486197 0.026649928
0.070006184 -0.023472426 -0.00096237415 -0.015045108 0.0126226675 -0.0023239125 0.018013092 0.0063520065
-0.018757923 0.039126396 0.012692487 0.1445268 -0.039239906 0.009355656 -0.00047073144 -0.006326198
0.012083032 -0.002566743 0.01960358 0.02996519 -0.007046669 0.024589058 0.02195594 0.048213292
-0.009565082 0.0053798845 0.016873823 -0.06375521 -0.030506104 0.29310116 0.033724163 -0.004224003
0.11092818 -0.010736529 -0.015282408 0.0012239554 0.030198121 -0.0058863587 -0.0010532307 -0.031632464
0.029534213 -0.008080491 -0.015418343 -0.0069117825 -0.039919093 0.0421368 -0.0022517731 0.004188386
0.039738707 -0.004252152 0.044351917 -0.012394625 -0.034714475 -0.001264605 -0.008466715 -0.027578037
00000000: 997d 8e3c eb5f c83c b471 a2bc 56f6 f63c
00000010: 96c9 b93b c908 e23c 6206 b33c 0a15 ea3c
00000020: 2004 2b3c 124d 943c ea44 7cbc 439b 9dbd
00000030: d752 1f3d abdd 463d a829 b23c e420 083e
00000040: 43b6 6f3c 0163 19b9 e571 283a ce3b bcbc
00000050: a448 03bd a7ec 68bb 2835 9d3d d1e8 333c
00000060: afce 4e3c bb6e 333d 1e67 543c 4d94 4038
00000070: 7e9c c7bb bafd 2b3d 09ca 283d d172 9c3c
00000080: cb40 b83c 469b b23c e96f 9cbc b052 3cbc
00000090: 069a bebc 8cae 84bd c26b e7bc e6e4 0dbc
000000a0: b0df 643d bb5b 9c3b 2a7f bfbb b14f 593c
000000b0: d77e 6b3c 3617 85bc 4b41 cbbc 60f7 503b
000000c0: 7d41 be3b 9b4f 5cbc ea24 223b 127e cf3c
000000d0: 2b39 bf3c 538a cebc a1ce 0bbc d9f2 5dbd
000000e0: c5b2 df3b bb0f 283d 0423 a1bb 8e90 75bb
000000f0: e5b5 bd3d 6448 e33b 439d 0fbd 1bcc f639
00000100: 3f0a 753c 85ff 05bb 6d4a ca3c 8477 6c3c
00000110: 83a7 2c3d 336b ae3d c745 87bc 8ee5 6cbc
00000120: cbd5 7e3d 8db7 2abc 1f27 8fbd 94c0 883c
00000130: efb6 28bb 3aef 313d d4aa b9bc 518f 873c
00000140: 969f 0c3d 9f36 b53c 572c aa3d e3e6 40bc
00000150: d730 883c e281 c6bc c3e7 f3bc e964 893d
00000160: 936a 013c 14a6 65bb c816 a03c 38bb 9abc
00000170: 0777 473c 1509 3fbc a599 083c 42ee ca3b
00000180: 74ee 60bd 3cb0 9c3c 276d 863c ebdf 91bc
00000190: ab58 8cbc fc94 d1bc 16b3 853c ff8c 32bb
000001a0: e9a1 083c 84ad b33c 6a8b 0dbc 4fa2 c73c
000001b0: a364 093d a1b8 153c ad9e 793b 8c55 363d
000001c0: f0e5 263b 3970 eabc 45dc 053b b114 053c
000001d0: fc01 2a3d 808c c3bc 09ca be3d 22b0 1ebd
000001e0: a61c 843c b5a4 e8bd eca7 3bbd a613 b1bb
000001f0: 3798 5c3b 342d 4d3d be18 44bc 9758 1d3d
00000200: 69cb 423c ad3f b73c 2741 a0bc 523f 6b3d
00000210: bdab 43bc 7488 ab3c eaad 1f3d 7409 04bd
00000220: 1c58 0a3d f3bb b937 bf45 62be db4c 95bb
00000230: 7831 72bc a484 863b 6e74 a53c ff5c 673b
00000240: 3a70 3d3d f677 95bc caf1 cfbc 2882 3f3b
00000250: 67ba 803d a71e d23b 5eb0 9abc 3236 13bc
00000260: 16e5 973a 9ab1 2e3b e3cc 223b 6fa7 033d
00000270: 1831 933d a865 17ba 59d5 d03b 207e e73d
00000280: 079b 183d 5476 96bd c2b7 5a3b 7474 f5ba
00000290: 04eb ee3c 53a7 a53a fc39 913d 3562 1abb
000002a0: 4e69 293d 24b1 b7bb 6ef5 adbc 4941 bbbb
000002b0: 242c 07bc 5d75 9a3c 67ef 85bc 25bd b8bc
000002c0: 2196 6cbb 2e8b de35 d4a6 903c 3824 b9ba
000002d0: 5b00 353b 151f 8dbc 4e51 d3b8 fc89 00bc
000002e0: c93a 71bd c526 cbbc 1900 433d e8b9 3a3d
000002f0: 3f07 b53a 7dcc 683d 6912 a8bc 0fb3 c8bc
00000300: 7cbf bdbc b6c2 113d f9d3 4abc 02eb 223d
00000310: a9e5 45bc 90e2 d43c f2b6 603d f350 da3c
00000320: 675f 8f3d 3f49 c0bc d647 7cba c27f 76bc
00000330: 4ecf 4e3c c84c 18bb 3190 933c 7e24 d03b
00000340: 37aa 99bc 0043 203d 26f4 4f3c d5fe 133e
00000350: 06ba 20bd 7748 193c 81cc f6b9 ff4b cfbb
00000360: e9f7 453c cd36 28bb b097 a03c 8f79 f53c
00000370: bee7 e6bb fe6e c93c f2dc b33c 4d7b 453d
00000380: ddb6 1cbc be49 b03b f93a 8a3c 1792 82bd
00000390: f0e7 f9bc 5b11 963e 5922 0a3d 8169 8abb
000003a0: 502e e33d 44e8 2fbc 1163 7abc 216d a03a
000003b0: 0d62 f73c 5be2 c0bb 8f0c 8aba 0b91 01bd
000003c0: bcf1 f13c 0964 04bc 389d 7cbc 3c7c e2bb
000003d0: 3482 23bd a397 2c3d 7c92 13bb ba3e 893b
000003e0: 0ec5 223d a355 8bbb 5baa 353d d312 4bbc
000003f0: c430 0ebd 1ac1 a5ba fab7 0abc 56eb e1bc

bn1.weight f4 [400]
0.56026536 0.0042627547 0.54076874 0.60463744 0.36201334 0.44594485 0.33494857 0.47096708
0.50200564 0.5850173 0.54690576 0.5511861 0.5050846 0.5323858 0.28910226 0.5748292
0.48486447 0.4532872 0.41385564 0.47533497 1.3262876 0.33602855 0.32469982 0.45928264
0.45050523 0.6741617 0.5475992 0.30286276 0.41612142 0.40449813 0.5807845 0.5779615
0.55742764 0.3850025 0.46830225 0.4574978 0.4266112 -0.0064842706 0.63257444 0.2719323
0.35159785 0.38944566 0.20173313 0.53703254 0.4385091 0.409649 0.45999983 0.37074956
0.38644332 0.27934828 0.63437355 0.33091897 0.4609614 0.4849607 0.7596993 0.37292373
0.33565715 0.5668507 0.46146852 0.54718244 0.5371992 0.37810647 0.6459787 0.43698826
0.47993374 0.34101874 0.21781239 0.4447104 0.4187149 0.44296962 0.51351786 0.4880786
0.3267928 0.40543857 0.46186748 0.57568467 0.36913434 0.4395394 0.5235304 0.4338801
0.35394788 0.40224156 0.3337744 0.25383398 0.48202357 0.4537473 0.84018594 0.40692884
0.5610819 0.46197718 0.5129731 0.63923705 0.5433911 0.61744815 0.5114934 0.3290282
0.54180133 0.5111079 0.5105664 0.35384464 0.2785987 0.4734 0.5188891 0.351333
0.35137248 0.40796885 0.47043434 0.5806553 0.58823234 0.30284515 0.34852815 0.4422477
0.50458556 0.71194565 0.3709019 -0.005920212 0.6406007 0.607954 0.43172094 0.36640927
0.33717194 0.40888143 0.4247901 0.27480042 0.48340213 0.30786112 0.5383309 0.34677455
0.521328 0.48484442 0.30231333 0.39328125 0.4612442 0.45196646 0.3447858 0.30628023
0.28004134 0.31761444 0.2586775 0.45281386 0.39651158 0.5887497 0.47212687 -0.006221013
0.36487105 0.54733795 0.44289926 0.5154144 0.46393222 0.42007416 0.5226259 0.47306433
0.36908388 0.49947843 -0.00776799 0.4283519 0.54402655 0.57278156 0.35321018 0.2302632
0.49618837 0.43499672 0.5529838 0.46472925 0.5200306 0.44502997 0.3071155 0.5851416
0.37955657 1.0158901 0.45672366 0.31865782 0.44106942 0.5632763 0.458314 0.37292495
0.0035065636 0.48458776 0.48748407 0.3554339 0.40052152 0.41296834 0.4520789 0.32732224
0.5345369 0.4008297 0.37062407 0.43125787 0.003775574 -0.0055344016 0.43330094 0.52831423
0.44309655 0.5146829 0.48241177 0.40724814 0.6031361 0.76749355 0.3788174 0.36171737
0.42795494 0.5599061 0.5493737 0.39966854 0.51834273 0.42696488 0.36485085 0.42493153
0.49925175 0.3227339 0.46734712 0.3477022 0.41062695 0.61041194 0.41712117 0.34144735
0.42133123 0.6239888 0.6036355 0.44971088 0.66218853 0.49090093 0.42345157 0.20215978
0.41266605 0.56707305 0.22471358 0.5319544 0.3740588 0.4166804 0.42014113 0.54877174
0.3822385 0.33673277 -0.0017819273 0.31508127 0.49564153 0.42243212 0.4051287 -0.006354941
0.48892742 0.5951053 0.41871437 0.42644966 0.0060657933 0.40282676 0.41750398 0.9836663
0.36505705 0.62748474 0.46637678 0.48830715 0.5136029 0.28050253 0.38704932 0.16519378
00000000: 8d6d 0f3f 94ae 8b3b d26f 0a3f 85c9 1a3f
00000010: d059 b93e e252 e43e 617e ab3e 9922 f13e
00000020: 7183 003f b2c3 153f 0402 0c3f 881a 0d3f
00000030: 394d 013f 704a 083f 3605 943e 0228 133f
00000040: 2840 f83e 4315 e83e e3e4 d33e 1b5f f33e
00000050: cbc3 a93f ef0b ac3e 0e3f a63e 1827 eb3e
00000060: 9fa8 e63e dc95 2c3f 762f 0c3f d410 9b3e
00000070: de0d d53e 611a cf3e 4bae 143f 49f5 133f
00000080: 94b3 0e3f 0c1f c53e 50c5 ef3e 273d ea3e
00000090: c96c da3e 017a d4bb 66f0 213f b63a 8b3e
000000a0: a204 b43e 6c65 c73e 2193 4e3e f77a 093f
000000b0: 4484 e03e 84bd d13e 1985 eb3e e3d2 bd3e
000000c0: e6db c53e bd06 8f3e 4e66 223f 366e a93e
000000d0: 2203 ec3e c54c f83e a77b 423f dcef be3e
000000e0: 41db ab3e 211d 113f 9a45 ec3e 2614 0c3f
000000f0: e385 093f 2c97 c13e dc5e 253f edbc df3e
00000100: e0b9 f53e 029a ae3e 360a 5f3e 15b1 e33e
00000110: cd61 d63e eacc e23e e875 033f 70e5 f93e
00000120: 6351 a73e a595 cf3e e579 ec3e 1260 133f
00000130: 2dff bc3e 4f0b e13e 1706 063f 8825 de3e
00000140: a838 b53e 9bf2 cd3e 7ae4 aa3e 87f6 813e
00000150: cbcb f63e 9151 e83e 6d16 573f fa58 d03e
00000160: 10a3 0f3f 4688 ec3e 3552 033f 0aa5 233f
00000170: ae1b 0b3f 1511 1e3f 3bf1 023f 6276 a83e
00000180: 7eb3 0a3f f8d7 023f 7bb4 023f 202b b53e
00000190: 7da4 8e3e 7c61 f23e ebd5 043f ebe1 b33e
000001a0: 18e7 b33e 4be1 d03e c5dc f03e d3a5 143f
000001b0: 6596 163f 850e 9b3e 4872 b23e 4a6e e23e
000001c0: 852c 013f 1242 363f dbe6 bd3e 56fe c1bb
000001d0: 68fe 233f e0a2 1b3f 870a dd3e ff99 bb3e
000001e0: cda1 ac3e e858 d13e 177e d93e a4b2 8c3e
000001f0: 7c80 f73e f99f 9d3e 0ed0 093f 6f8c b13e
00000200: c075 053f 873d f83e d0c8 9a3e 295c c93e
00000210: 3328 ec3e 2668 e73e c487 b03e c3d0 9c3e
00000220: 9461 8f3e 5c9e a23e 6171 843e 38d7 e73e
00000230: 9103 cb3e 4db8 163f 9dba f13e a4d9 cbbb
00000240: 61d0 ba3e 571e 0c3f b1c3 e23e 33f2 033f
00000250: 8688 ed3e f613 d73e d0ca 053f 7d35 f23e
00000260: 90f8 bc3e a3bb ff3e a08a febb f150 db3e
00000270: 5345 0b3f d0a1 123f f7d7 b43e 1eca 6b3e
00000280: 670c fe3e e4b7 de3e 5990 0d3f fef0 ed3e
00000290: ba20 053f f8da e33e 3e3e 9d3e d7cb 153f
000002a0: 3d55 c23e b008 823f afd7 e93e 1e27 a33e
000002b0: dad3 e13e e032 103f 22a8 ea3e 05f0 be3e
000002c0: 60ce 653b e31b f83e 8397 f93e 6ffb b53e
000002d0: 2811 cd3e 9670 d33e e376 e73e c896 a73e
000002e0: 69d7 083f 8d39 cd3e 70c2 bd3e d5cd dc3e
000002f0: 9f6f 773b ed59 b5bb 9fd9 dd3e 9a3f 073f
00000300: 8ddd e23e 42c2 033f adfe f63e d482 d03e
00000310: 2167 1a3f 757a 443f 5bf4 c13e 0533 b93e
00000320: e91c db3e 0256 0f3f c1a3 0c3f 5ba1 cc3e
00000330: 1cb2 043f 249b da3e bbcd ba3e a090 d93e
00000340: ed9d ff3e 613d a53e 1f48 ef3e 0606 b23e
00000350: b23d d23e f543 1c3f e890 d53e 30d2 ae3e
00000360: bab8 d73e bbbd 1f3f db87 1a3f 8140 e63e
00000370: 3085 293f 5e57 fb3e a5ce d83e f902 4f3e
00000380: f748 d33e b32b 113f 511b 663e 2a2e 083f
00000390: a384 bf3e 2257 d53e bd1c d73e 4e7c 0c3f
000003a0: c4b4 c33e 3d68 ac3e 8f8f e9ba 5552 a13e
000003b0: bac4 fd3e 0649 d83e 076d cf3e 1c3d d0bb
000003c0: b254 fa3e d258 183f bb61 d63e 9c57 da3e
000003d0: 90c3 c63b 4f3f ce3e 15c3 d53e 8ed1 7b3f
000003e0: c2e8 ba3e d7a2 203f f0c8 ee3e 6503 fa3e
000003f0: 7b7b 033f 079e 8f3e 542b c63e 8f28 293e

bn1.bias f4 [400]
-0.5082983 -0.066273294 -0.5822354 -0.5323509 -0.22884451 -0.44042695 -0.23945019 -0.50485414
-0.37914285 -0.4661276 -0.48786134 -0.26617107 -0.7993356 -0.6888235 -0.24681497 -0.5666515
-0.36317307 -0.41252714 -0.47221208 -0.36941153 -0.20541692 -0.36698583 -0.24227469 -0.49721643
-0.6561319 -0.71459544 -0.06635738 -0.2260864 -0.33825207 -0.5232262 -0.54420763 -0.29999965
-0.5782732 -0.35334927 -0.48714367 -0.6900851 -0.5771135 -0.050722785 -0.74195236 -0.11224927
-0.34192935 -0.6616083 -0.033306397 -0.61123383 -0.26296428 -0.18222296 -0.41168883 -0.44409272
-0.4407255 -0.27507097 0.2128086 -0.1362911 -0.51776475 -0.61020523 -0.80929136 -0.7127979
-0.4107388 -0.5491254 -0.36185363 -0.24875754 -0.7808112 -0.29175994 -0.5250383 -0.47490266
-0.37500829 -0.17289208 -0.08114695 -0.31571877 -0.2744666 -0.44555622 -0.3947966 -0.24000067
-0.24215634 -0.2444971 -0.34859753 -0.46272123 -0.36981636 -0.39865592 -0.51071626 -0.2249908
-0.39321566 -0.53978264 -0.22784828 -0.20692478 -0.5576919 -0.46259362 -0.5975816 -0.59465885
-0.65853685 -0.55494624 -0.48161098 -0.6233158 -0.38825342 -0.7147032 -0.65375996 0.054862794
-0.68150014 -0.17268966 -0.64890814 -0.41782102 -0.013191025 -0.5271615 -0.28526664 -0.25821736
-0.3577009 -0.28965536 -0.44083402 -0.49628603 -0.4823724 0.036900934 -0.37913904 -0.5646413
-0.5942093 -0.08616326 -0.28273097 -0.037996244 -0.11319414 -0.6148378 -0.5756412 -0.48761615
-0.35851398 -0.41087815 -0.5337707 -0.071747564 0.02041177 -0.22712398 -0.29438856 -0.14225067
-0.60108906 -0.72711235 -0.13724357 -0.2849128 -0.3472454 -0.62834436 -0.4368582 -0.24538185
-0.1261048 -0.097511746 -0.039744772 -0.4157144 -0.49824947 -0.6057888 -0.20674309 -0.05025105
-0.28237855 -0.9900114 -0.46012327 -0.4853338 -0.31097126 -0.54387915 -0.6918223 -0.35079148
-0.27881274 -0.48692662 -0.072771385 -0.49386996 -0.3867807 -0.41901767 -0.22854355 -0.19952443
-0.741103 -0.45446503 -0.6361597 -0.7755992 -0.5325916 -0.2093811 -0.08383963 -0.7322702
-0.5854296 -0.71050143 -0.22865553 -0.16101658 -0.5889737 -0.51623124 -0.64882976 -0.28467107
-0.045967385 -0.36884633 -0.59682924 -0.48220977 -0.56034714 -0.47908685 -0.40797606 -0.21147245
-0.33449897 -0.57552236 -0.32661474 -0.54262125 -0.03887761 -0.08050913 -0.5999593 -0.47056445
-0.47391108 -0.25856605 -0.37343135 -0.13136218 -0.5546205 -0.6379709 -0.28597763 -0.27700222
-0.30352888 -0.7098401 -0.5099859 -0.3862307 -0.4884509 -0.30514225 -0.2153775 -0.3507398
-0.5974759 -0.17760995 -0.39232653 -0.34362894 -0.6846008 -0.6026563 -0.7732347 -0.21556628
-0.3313367 -0.58877903 -0.5574775 -0.42594305 -0.48687163 -0.16111924 -0.47353843 -0.026697192
-0.6139242 -0.40436292 -0.20816459 -0.36600748 -0.30507743 -0.5877236 -0.08418828 -0.19449137
-0.09834713 -0.43556488 -0.037258957 -0.1667143 -0.55401444 -0.51786894 -0.47423616 -0.07302459
-0.40519506 -0.5425985 -0.17310509 -0.48478854 -0.061012864 -0.27975994 -0.61252856 -0.49949434
-0.3247153 -0.8385944 -0.479827 -0.73892885 -0.6157096 -0.42505312 -0.08430374 0.2574618
00000000: d61f 02bf 4bba 87bd 610d 15bf 2648 08bf
00000010: 3756 6abe a47f e1be 6e32 75be 1f3e 01bf
00000020: 031f c2be 47a8 eebe f6c8 f9be 9347 88be
00000030: 42a1 4cbf bd56 30bf 10bd 7cbe 1310 11bf
00000040: d2f1 b9be c236 d3be c8c5 f1be 8223 bdbe
00000050: d058 52be 91e5 bbbe db16 78be 2793 febe
00000060: 43f8 27bf baef 36bf 61e6 87bd 3183 67be
00000070: 602f adbe 27f2 05bf 3151 0bbf 8e99 99be
00000080: b609 14bf 32ea b4be e56a f9be 6ba9 30bf
00000090: b6bd 13bf b2c2 4fbd 97f0 3dbf f2e2 e5bd
000000a0: 5d11 afbe 295f 29bf 4a6c 08bd d279 1cbf
000000b0: 41a3 86be a898 3abe e1c8 d2be 1f60 e3be
000000c0: c6a6 e1be 1ad6 8cbe 7fea 593e e58f 0bbe
000000d0: 3b8c 04bf 6936 1cbf b82d 4fbf ec79 36bf
000000e0: 5b4c d2be 7b93 0cbf e144 b9be 4cba 7ebe
000000f0: 3ee3 47bf 8f61 95be e968 06bf 7126 f3be
00000100: 1601 c0be 9f0a 31be 5f30 a6bd e4a5 a1be
00000110: e386 8cbe f21f e4be c822 cabe bcc2 75be
00000120: d5f7 77be 735d 7abe 607b b2be cce9 ecbe
00000130: 9258 bdbe a11c ccbe 4dbe 02bf fd63 66be
00000140: 9053 c9be 322f 0abf 0f51 69be 17e4 53be
00000150: e5c4 0ebf 12d9 ecbe 1cfb 18bf 903b 18bf
00000160: df95 28bf f510 0ebf b795 f6be a091 1fbf
00000170: 27c9 c6be caf6 36bf d05c 27bf cfb7 603d
00000180: cb76 2ebf 8fd5 30be d81e 26bf a3ec d5be
00000190: 2b1f 58bc 0ef4 06bf 780e 92be 1135 84be
000001a0: 9324 b7be b54d 94be ffb4 e1be 3419 febe
000001b0: 84f9 f6be 6f25 173d 831e c2be 558c 10bf
000001c0: 1a1e 18bf 5d76 b0bd 1dc2 90be f3a1 1bbd
000001d0: 54d2 e7bd 0366 1dbf 395d 13bf d3a8 f9be
000001e0: 258f b7be 9f5e d2be 32a5 08bf 63f0 92bd
000001f0: 9636 a73c 3093 68be 19ba 96be 29aa 11be
00000200: f9e0 19bf 0924 3abf 9489 0cbe 17e0 91be
00000210: 26ca b1be 2ddb 20bf e1ab dfbe 6145 7bbe
00000220: 9e21 01be 3db4 c7bd 6acb 22bd 85d8 d4be
00000230: 8e1a ffbe fa14 1bbf 76b4 53be 0cd4 4dbd
00000240: ec93 90be 6371 7dbf 4795 ebbe ac7d f8be
00000250: a037 9fbe aa3b 0bbf 441b 31bf f19a b3be
00000260: 8bc0 8ebe 724e f9be 2a09 95bd 86dc fcbe
00000270: 1f08 c6be 7c89 d6be 5207 6abe 2250 4cbe
00000280: edb8 3dbf a4af e8be 5ddb 22bf ab8d 46bf
00000290: ec57 08bf 0068 56be 1db4 abbd 0f76 3bbf
000002a0: b7de 15bf 6ce3 35bf ad24 6abe 88e1 24be
000002b0: fbc6 16bf bb27 04bf b519 26bf 68c0 91be
000002c0: 4c48 3cbd 6dd9 bcbe cdc9 18bf 33e4 f6be
000002d0: e972 0fbf df4a f5be 3de2 d0be 3c8c 58be
000002e0: 7343 abbe 6f55 13bf 0c3a a7be 3ae9 0abf
000002f0: 213e 1fbd f9e1 a4bd ef96 19bf d3ed f0be
00000300: 79a4 f2be c562 84be 6532 bfbe cf83 06be
00000310: 9cfb 0dbf 1052 23bf a96b 92be 3cd3 8dbe
00000320: 2368 9bbe 15b8 35bf 708e 02bf 08c0 c5be
00000330: 3d16 fabe 9b3b 9cbe eb8b 5cbe 2b94 b3be
00000340: 2ef4 18bf 62df 35be 06df c8be 22f0 afbe
00000350: ff41 2fbf af47 1abf b6f2 45bf 68bd 5cbe
00000360: f7a4 a9be 39ba 16bf d8b6 0ebf 3515 dabe
00000370: 3d47 f9be 71fc 24be a173 f2be 12b4 dabc
00000380: 232a 1dbf a808 cfbe 1929 55be 5565 bbbe
00000390: 1c33 9cbe 0e75 16bf e86a acbd bf28 47be
000003a0: 386a c9bd 5c02 dfbe d99c 18bd 27b7 2abe
000003b0: e4d3 0dbf 0f93 04bf 15cf f2be eb8d 95bd
000003c0: ba75 cfbe bce7 0abf 7642 31be 3436 f8be
000003d0: a0e8 79bd b23c 8fbe acce 1cbf b9bd ffbe
000003e0: 1541 a6be 1fae 56bf e2ab f5be 712a 3dbf
000003f0: 259f 1dbf 90a0 d9be 70a7 acbd 08d2 833e

bn1.running_mean f4 [400]
0.9038426 0.18684748 0.19550182 -1.2023697 0.8418576 -1.2263443 4.0257916 1.972195
-0.5701054 1.355685 2.141839 -0.28178552 -2.3639922 -1.1570352 1.8102512 0.6101334
1.352831 -0.036009524 -1.6715695 -0.12763263 0.41268998 1.9618967 1.3765469 -2.5843666
0.46762064 0.8821006 0.33897486 -0.36009538 0.17430432 -1.454269 0.20275468 -0.47023612
0.12343298 0.38833556 0.39997077 -0.48796 -3.2532947 -0.1455644 0.07238522 -1.127387
1.1850948 -0.980724 0.47187972 -1.4261625 -5.667352 -1.0325174 2.0254245 -0.41895187
0.7215896 -1.8675548 3.7578537 1.8747735 -1.1540486 0.7785159 0.09737523 -0.46318674
-2.4643764 1.3220683 -1.6432339 -2.9586048 -1.8676898 -1.3697339 0.73130655 -1.4690735
-1.4075891 -0.54215765 -2.7759352 -4.508164 -0.44847932 2.353677 -1.237752 1.2464538
0.44488937 -1.2489938 -1.3243446 -1.5007732 -1.3796139 -2.3912184 -0.6745449 0.34862486
0.78674525 2.026354 -1.3986317 -0.5748758 1.7019912 0.63914096 -0.15575883 2.4335835
-0.11433379 0.16435225 0.35501295 0.65786505 1.3015318 0.5697413 1.1884495 0.9527597
1.414966 -1.793709 -0.24254373 1.2662847 -0.8042318 -1.7825738 0.59574234 0.83467525
0.464235 -0.36438665 -0.44427305 -0.80713123 1.0068586 -0.99341184 1.1740532 -0.8661379
0.45136997 -1.1545722 2.9249878 -0.20358914 -0.88786006 0.73337835 -0.48663026 -0.44290584
-0.5836187 -2.5322835 -2.5553887 3.9126227 1.6153386 -2.9114437 0.17118114 1.951389
0.45373955 -2.9916854 -0.544119 1.5769813 -0.7627086 3.900908 2.616345 1.252949
-1.0072918 2.8883798 -0.22849368 -0.7306313 -3.1475596 0.3293822 -0.833256 0.10466603
-0.31929123 0.019755283 -1.6981438 -0.9561619 -1.2929186 2.396118 1.5476283 -0.12156277
-0.35118064 -0.16386582 -0.013240533 -0.9263778 -1.575008 -0.387899 -2.4888086 0.7933332
-1.1642452 -4.202996 2.028176 -2.3240597 -0.38583583 -0.93792456 -0.09184027 3.6456668
0.12965916 -0.6774429 0.2992615 -1.7011815 -0.3609302 -0.59692013 1.138406 0.73991174
-0.025876613 3.8750112 -1.4811246 -0.81158054 1.9650682 -1.0143161 2.540098 -1.1638341
-0.91738987 1.7840778 1.164817 0.31360468 -0.19955091 -0.1823511 1.6651314 0.46732116
-0.61146927 0.14191847 -0.5849664 0.3603963 0.27350652 0.16797319 -3.5940773 0.53578943
-0.17783414 -0.6744447 0.89403653 3.138901 0.15818855 -2.3224912 -0.44498074 1.4209628
4.4628735 0.16001043 -2.4809413 -1.0256135 1.6105669 1.4173157 -4.1956353 -0.665711
-1.3617395 -0.38962093 -1.9142462 -0.44060266 0.21967192 -0.810892 -2.3435001 -0.34421358
-2.1904805 -0.6672041 1.0065739 0.51742905 -1.1141832 -0.9349779 -0.0924327 -0.22338353
1.0817657 -0.9395874 0.17940345 0.2759639 3.8396814 -6.4800467 3.8182821 -0.11275099
-2.2327645 -0.3317026 2.4760137 0.019739714 -0.13765441 -1.612367 3.0810418 0.28375977
1.0376602 0.7566427 -1.0800015 2.0455625 1.6346765 -1.9694355 2.2527966 -1.6531279
00000000: 3b62 673f f254 3f3e a131 483e 40e7 99bf
00000010: fb83 573f daf8 9cbf 49d3 8040 e370 fc3f
00000020: 6df2 11bf 1687 ad3f e413 0940 3146 90be
00000030: a64b 17c0 bb19 94bf 50b6 e73f b431 1c3f
00000040: 9129 ad3f b97e 13bd fdf5 d5bf 21b2 02be
00000050: 1a4c d33e 6e1f fb3f b032 b03f 4366 25c0
00000060: f96b ef3e 58d1 613f 1d8e ad3e 6c5e b8be
00000070: d57c 323e 7d25 babf ec9e 4f3e cac2 f0be
00000080: 6eca fc3d ebd3 c63e f8c8 cc3e e5d5 f9be
00000090: fb35 50c0 d60e 15be b43e 943d 384e 90bf
000000a0: 30b1 973f ba10 7bbf 389a f13e 7e8c b6bf
000000b0: f35a b5c0 8829 84bf 8ea0 0140 dc80 d6be
000000c0: 19ba 383f 090c efbf ad80 7040 94f8 ef3f
000000d0: ddb7 93bf d14c 473f aa6c c73d d026 edbe
000000e0: 58b8 1dc0 8939 a93f 7d55 d2bf c859 3dc0
000000f0: 7610 efbf 7153 afbf e836 3b3f 9a0a bcbf
00000100: e12b b4bf d8ca 0abf eca8 31c0 e142 90c0
00000110: 159f e5be a5a2 1640 a86e 9ebf cc8b 9f3f
00000120: 8ac8 e33e 07df 9fbf 2084 a9bf 5619 c0bf
00000130: 3097 b0bf b909 19c0 f9ae 2cbf f57e b23e
00000140: 2368 493f c9af 0140 5d06 b3bf 0f2b 13bf
00000150: d9da d93f be9e 233f 3e7f 1fbe d5bf 1b40
00000160: d627 eabd f54b 283e 42c4 b53e d869 283f
00000170: 9898 a63f 91da 113f 1d1f 983f 0fe8 733f
00000180: 9b1d b53f 4298 e5bf 625d 78be 9e15 a23f
00000190: 23e2 4dbf 612b e4bf 9282 183f 47ad 553f
000001a0: 36b0 ed3e e390 babe c277 e3be 27a0 4ebf
000001b0: bee0 803f 3d50 7ebf 6047 963f 37bb 5dbf
000001c0: f719 e73e 06c9 93bf 0033 3b40 ac79 50be
000001d0: cc4a 63bf afbe 3b3f 9a27 f9be 8ec4 e2be
000001e0: 0968 15bf ef10 22c0 7d8b 23c0 6968 7a40
000001f0: 6ac3 ce3f 1855 3ac0 1c4a 2f3e 1dc7 f93f
00000200: 8d50 e83e c677 3fc0 624b 0bbf 86da c93f
00000210: df40 43bf 7aa8 7940 3272 2740 a260 a03f
00000220: f0ee 80bf 37db 3840 3ffa 69be a70a 3bbf
00000230: 9e71 49c0 c9a4 a83e 4450 55bf 255b d63d
00000240: 247a a3be d5d5 a13c c75c d9bf 07c7 74bf
00000250: 5b7e a5bf ff59 1940 af18 c63f e7f5 f8bd
00000260: f3cd b3be 71cc 27be d2ee 58bc 1827 6dbf
00000270: dd99 c9bf b39a c6be a448 1fc0 e217 4b3f
00000280: fd05 95bf f17e 86c0 a3cd 0140 65bd 14c0
00000290: 468c c5be d31b 70bf c016 bcbd 9b52 6940
000002a0: 5fc5 043e e66c 2dbf ce38 993e 51c0 d9bf
000002b0: d8cb b8be c2cf 18bf 4ab7 913f db6a 3d3f
000002c0: 31fb d3bc 2f00 7840 7e95 bdbf bec3 4fbf
000002d0: 5b87 fb3f 1cd5 81bf f790 2240 84f8 94bf
000002e0: 10da 6abf a95c e43f b918 953f cb90 a03e
000002f0: 1357 4cbe 3fba 3abe 0723 d53f b844 ef3e
00000300: 4089 1cbf 1353 113e 5cc0 15bf dd85 b83e
00000310: 0c09 8c3e 2a01 2c3e 5d05 66c0 7f29 093f
00000320: 271a 36be 68a8 2cbf 94df 643f c1e3 4840
00000330: 2efc 213e b2a3 14c0 84d4 e3be 1ce2 b53f
00000340: dccf 8e40 c6d9 233e bec7 1ec0 4e47 83bf
00000350: 0e27 ce3f 9a6a b53f a542 86c0 096c 2abf
00000360: 7b4d aebf 657c c7be 0506 f5bf ac96 e1be
00000370: adf1 603e 9e96 4fbf e8fb 15c0 c33c b0be
00000380: d530 0cc0 e3cd 2abf 6ad7 803f 3b76 043f
00000390: 8e9d 8ebf b65a 6fbf 5b4d bdbd a7be 64be
000003a0: 4c77 8a3f cd88 70bf 8ab5 373e 244b 8d3e
000003b0: 57bd 7540 8b5c cfc0 bc5e 7440 fee9 e6bd
000003c0: 9de5 0ec0 ecd4 a9be 0277 1e40 2eb5 a13c
000003d0: 47f5 0cbe 0b62 cebf ca2f 4540 f648 913e
000003e0: 0dd2 843f 56b3 413f 7d3d 8abf 7fea 0240
000003f0: 143d d13f 7616 fcbf d22d 1040 b299 d3bf
