checkpoint_critic_GPU.pth (torch_old, 549749 bytes, 9 tensors)

fcs1.weight f4 [400, 33]
0	0x3db386e1	0.087659605
1	0xbbd96095	-0.006633828
2	0x3d87b280	0.06625843
3	0xbd8df20c	-0.069309324
4	0x3d258f73	0.040420007
5	0x3e562085	0.20910843
6	0x3d8fac7e	0.07015322
7	0x3d7bfd89	0.061521087
8	0xbdf5e169	-0.12005884
9	0xbc89538b	-0.01676347
10	0x3d4b80a5	0.04968323
11	0x3d251b1b	0.040309053
12	0x3cf958c0	0.030437827
13	0xbd300c2d	-0.04298036
14	0xbcb7549e	-0.022379216
15	0xbcc46f5c	-0.023978882
16	0xbdd2b5fa	-0.102886155
17	0x3d5b23d3	0.05350096
18	0x3dc07ce9	0.09398825
19	0x3d1865d3	0.037206482
20	0x3c807798	0.015682027
21	0xbd47c686	-0.04877331
22	0x3cc7e143	0.024399405
23	0xbde42233	-0.111393355
24	0x3ca0c637	0.019625766
25	0xbcdc6af2	-0.026906464
26	0x3c7f2433	0.015572595
27	0x3b9edfcc	0.004848456
28	0x3a07c306	0.0005178902
29	0xbd244116	-0.040101133
30	0xbb66b121	-0.0035200792
31	0xbc647be8	-0.013945557
32	0x3e7e0af0	0.2480886
33	0xbe069724	-0.13143593
34	0xbd005692	-0.03133256
35	0x3d0a5e59	0.033781383
36	0x3e36d2f9	0.17853917
37	0xbd6f9f68	-0.05850163
38	0x3d776eec	0.060408518
39	0x3d498dd2	0.049207516
40	0xbc0ff0c2	-0.0087854285
41	0xbb86697f	-0.0041019316
42	0xbc3e4235	-0.011612465
43	0xbd1705fc	-0.03687094
44	0xbc2a76d5	-0.010404308
45	0xbb8bcca7	-0.00426634
46	0x3ac19546	0.0014769218
47	0x3d063457	0.03276476
48	0xbd405087	-0.046951797
49	0xbdb44495	-0.088021435
50	0x3daed9bb	0.085376225
51	0x3d78cc28	0.060741574
52	0x3d22697a	0.03965137
53	0xbc2e431a	-0.010636115
54	0xbcb45204	-0.022011764
55	0x3d30f4fe	0.043202393
56	0x3d26c91f	0.040719148
57	0x3b87ec4c	0.004148042
58	0xbbff6792	-0.007794329
59	0x3dccbee2	0.099973455
60	0x3d2d3de3	0.042295348
61	0x3d493f31	0.04913253
62	0xbcf336ea	-0.029689271
63	0x3a1c0414	0.00059515354
64	0x3b6df3d0	0.0036308654
65	0xbc879881	-0.016552212
66	0xbca7d0ce	-0.020485308
67	0x3c61c04f	0.01377876
68	0x3b2de6de	0.0026535313
69	0x3d785a12	0.060632773
70	0xbd9aeb48	-0.075644076
71	0xbdc46268	-0.09589082
72	0x3d0cb869	0.034355555
73	0xbb8c15fc	-0.0042750817
74	0x3bfc0d5c	0.0076920222
75	0x3a98af28	0.001164888
76	0xbb197902	-0.0023418074
77	0x3bc3c277	0.0059741098
78	0x3c32be29	0.0109095955
79	0x3c85bfc9	0.016326802
80	0xbc12a376	-0.008950105
81	0x3cb80740	0.022464395
82	0x3c13e1a7	0.009025968
83	0xbb2ad6e4	-0.0026068026
84	0xbd02ef87	-0.031966712
85	0xba390b02	-0.000705883
86	0xbb3b89ae	-0.0028616
87	0xbc057c81	-0.00814736
88	0x3c289c5c	0.010291185
89	0x3b9b2771	0.0047349264
90	0xbb90f881	-0.004424155
91	0x3bddc4c5	0.0067678415
92	0x3c5ecb97	0.013598344
93	0xbc16d9d4	-0.009207208
94	0xbccd3fd7	-0.025054855
95	0x3cc24f4e	0.023719456
96	0xbcb57bd3	-0.02215377
97	0xbd3227b3	-0.04349489
98	0x3f37a22d	0.71731836
99	0xbd1576ad	-0.03649013
100	0x3d428fab	0.047500294
101	0xbc278786	-0.010225182
102	0xbcfc2b4e	-0.030782368
103	0x3e58989f	0.2115197
104	0x3d67fa8b	0.05663542
105	0xbe0bb055	-0.13641484
106	0x3ce8798c	0.02837827
107	0x3ca2401a	0.019805957
108	0x3ca1ee39	0.019766914
109	0x3c256694	0.010095257
110	0x3d506e7a	0.05088661
111	0x3d3725dc	0.04471384
112	0x3dcb04f6	0.099130556
113	0xbd8c2a26	-0.06843977
114	0x3d152300	0.03641033
115	0x3dc8237e	0.097723946
116	0xbbc13520	-0.0058962256
117	0xbde1a9e6	-0.11018734
118	0xbda3114d	-0.07962284
119	0x3b3322e8	0.0027334038
120	0x3d0a7360	0.033801436
121	0xbcbdb980	-0.023159742
122	0x3cdbf4cb	0.026850125
123	0xbcfaadf7	-0.030600531
124	0x3c353e11	0.011062161
125	0xbda0e9f1	-0.07857121
126	0x3cf3ac72	0.029745314
127	0xbc2c6401	-0.01052189
128	0x3d035d73	0.032071542
129	0xbc3d7733	-0.011564064
130	0x3c06c460	0.00822553
131	0xbe5cb550	-0.2155354
132	0x3dc18d96	0.094508335
133	0xbcecc1e0	-0.02890104
134	0x3c963918	0.018337771
135	0xbe2fb685	-0.1715947
136	0xbe1014fe	-0.14070508
137	0x3db644b4	0.08899823
138	0x3d0e982c	0.03481309
139	0x3c1798a7	0.009252704
140	0xbcd131a8	-0.025536373
141	0x3b41053d	0.0029452585
142	0x3a959b0b	0.0011414004
143	0xbb1e350c	-0.0024140505
144	0xbb51bbe8	-0.003200287
145	0xbd2e439c	-0.042544946
146	0x3c052015	0.008125325
147	0xb9bafdfe	-0.00035665923
148	0x3ca5ae47	0.020224703
149	0xbd85df7b	-0.06536766
150	0x3d0fbdd2	0.035093136
151	0x3c37b5db	0.011212791
152	0xbb6ef52b	-0.003646205
153	0x3bbdb9d4	0.0057899747
154	0xbbdb89b2	-0.006699764
155	0xbd110e7b	-0.0354142
156	0xbb20ef71	-0.002455678
157	0x3b93eb50	0.0045141354
158	0xbc586856	-0.013208469
159	0x3c8c264c	0.017108105
160	0xbca347cf	-0.019931702
161	0xbd3428ca	-0.043984212
162	0x3c94e364	0.018174835
163	0xbb4ab920	-0.0030933097
164	0xbf193e3a	-0.59860575
165	0xbdac3819	-0.08409137
166	0x3e1c32aa	0.15253702
167	0x3cd53dc3	0.026030427
168	0xbd09f6d8	-0.033682674
169	0x3e3a8d96	0.18218073
170	0xbdf1bac8	-0.11803204
171	0x3dd1e287	0.10248285
172	0xbd043846	-0.03228023
173	0x3d4d3808	0.050102264
174	0xbccc407c	-0.024933092
175	0xbc2827da	-0.010263408
176	0x3d69840c	0.057010695
177	0x3ce110d1	0.027473839
178	0x3d33fa55	0.043939907
179	0xbcaa6cda	-0.020803858
180	0xbce4fa35	-0.02795134
181	0x3dc77725	0.09739522
182	0xbded1abd	-0.115773655
183	0x3c397511	0.011319415
184	0x3e59df3b	0.21276562
185	0x3d02b87d	0.031914223
186	0xbc4aa8e6	-0.01236937
187	0x3c8a0a7d	0.016850704
188	0x3d14c5ad	0.03632133
189	0x3bd2cc85	0.006433072
190	0xbc393342	-0.011303725
191	0x3d668fbf	0.05628943
192	0xbd1f042b	-0.038822334
193	0xbd4ea534	-0.05045052
194	0xbd261a8e	-0.04055267
195	0x3b1a5b05	0.0023552787
196	0xbc1e71b8	-0.009670667
197	0xbcaf9b2b	-0.021436295
198	0x3cba7fce	0.02276602
199	0xbd26f5f8	-0.040761918
200	0x3dca6408	0.09882361
201	0xbd9112e5	-0.07083682
202	0x3ddab60d	0.10679255
203	0x3d0d6518	0.03452024
204	0xbe0e2fbb	-0.13885395
205	0x3d1ee2ad	0.038790394
206	0xbd54bdd2	-0.05193884
207	0xbc1a3244	-0.009411398
208	0x3c9aca48	0.018895283
209	0xbdb573c8	-0.08859974
210	0xbd319fe1	-0.043365363
211	0x3c2809d9	0.010256254
212	0x3d0ecba9	0.034862194
213	0xbd700fe0	-0.05860889
214	0xbde24c1d	-0.11049674
215	0xbe17a9c8	-0.1481086
216	0xbd5b1805	-0.053489704
217	0x3bab5bd7	0.005229454
218	0xba11a50e	-0.0005555906
219	0x3d4c52f7	0.04988381
220	0xbc8ecb00	-0.017430782
221	0x3d467e4a	0.048460282
222	0x3d133d7e	0.035947315
223	0x3ada2647	0.0016643488
224	0xbda6b164	-0.08139303
225	0x3cd67e9b	0.026183417
226	0x3c2cae27	0.010539568
227	0xbd3cc3d2	-0.046085186
228	0x3d22ab2e	0.03971403
229	0xbd2e018b	-0.04248194
230	0x3e7463ac	0.23866147
231	0xbdb05f34	-0.086119086
232	0x3dbb15b4	0.09134999
233	0xbdb855c1	-0.09000731
234	0xbc7d43fe	-0.015458105
235	0x3e07cec3	0.13262467
236	0xbd9c1cd0	-0.07622683
237	0x3d3ccf18	0.046095937
238	0x3d9c1d2c	0.076227516
239	0xbda3e350	-0.08002341
240	0xbd61ad34	-0.05509682
241	0x3d3dea5b	0.046366077
242	0xbc799c1f	-0.015234976
243	0xbc874c1c	-0.016515784
244	0x3d071b05	0.032984752
245	0xbe1a08f0	-0.15042472
246	0xbd65d148	-0.05610779
247	0x3de4c9a6	0.11171274
248	0xbe1e1efe	-0.1544151
249	0x3d7eba5f	0.062189456
250	0xb9c51a51	-0.00037594375
251	0x3b27d7aa	0.0025610724
252	0x3de73642	0.11289646
253	0xbcdb647f	-0.026781319
254	0xbcdbbe6f	-0.026824204
255	0xbbd4c9a2	-0.006493763

fcs1.bias f4 [400]
0	0x3d477f7e	0.04870557
1	0x3e1e8f8b	0.15484445
2	0x3dbc2bd5	0.09188048
3	0x3cedd4ec	0.029032193
4	0xbdf1ffaf	-0.11816346
5	0x3deeb5bc	0.11655757
6	0xb918ad93	-0.00014560511
7	0x3d6cbdc8	0.057798177
8	0xbdaa9f0b	-0.08331116
9	0xbe147491	-0.14497592
10	0xbe1e7db4	-0.1547764
11	0xbd5728f9	-0.05252931
12	0xbe045aaa	-0.1292521
13	0xbe1a5a8a	-0.150736
14	0x3e2f369a	0.17110673
15	0x3d8d1f72	0.06890763
16	0xbcbf7af9	-0.023374068
17	0xbe1a9874	-0.15097219
18	0xbdfc0957	-0.12306469
19	0xbe28861f	-0.16457413
20	0xbd319146	-0.043351434
21	0x3dff1284	0.124547035
22	0xbcb78a54	-0.022404827
23	0x3d1d0270	0.038332403
24	0xbc447eb5	-0.0119931
25	0x3dd7dbb9	0.10539956
26	0x3e29d3f1	0.16584755
27	0xbd911e0a	-0.070858076
28	0xbe095c5f	-0.13414143
29	0x3dd1313d	0.102144696
30	0x3dec7d68	0.11547357
31	0x3c607e41	0.013701976
32	0xbda0ceab	-0.07851919
33	0xbd286794	-0.041114405
34	0x3dc9eed6	0.098600075
35	0x3d553f03	0.052062046
36	0xbd772213	-0.06033523
37	0x3d4b2297	0.049593534
38	0x3d5ddf48	0.054168016
39	0xbd4bd3ee	-0.04976266
40	0xbdcc39ae	-0.09971939
41	0x3d2ef2fe	0.042712204
42	0x3d2f3f0b	0.04278473
43	0x3e2e7785	0.1703778
44	0xbcebd815	-0.02878956
45	0x3cd32354	0.025773682
46	0x3d1f6241	0.03891206
47	0x3da03741	0.07823039
48	0x3da795a6	0.0818284
49	0xbdf8fb89	-0.121573515
50	0x3e1762d7	0.14783798
51	0x3d0bbc9d	0.034115423
52	0x3e31c200	0.17359161
53	0xbe09c77e	-0.13455006
54	0x3e1f6fdb	0.15570013
55	0x3e025b8a	0.12730232
56	0xbd8856ec	-0.06657204
57	0xbe24c38b	-0.16090219
58	0x3ce90c29	0.028448181
59	0x3ddb2994	0.1070129
60	0xbdb63872	-0.08897485
61	0x3d946158	0.07245129
62	0x3cdb5d55	0.026777903
63	0x3e17c076	0.14819512
64	0x3e2e56a4	0.17025238
65	0x3da06948	0.07832581
66	0xbcf74498	-0.030184075
67	0xbd6f17f3	-0.05837245
68	0x3dfac89a	0.12245293
69	0xbdc065a3	-0.09394386
70	0xbd8462e4	-0.064641744
71	0xbdd087bc	-0.10182139
72	0xbe319e97	-0.17345653
73	0x3e20bc0e	0.15696737
74	0x3de509a8	0.111834824
75	0x3d910119	0.070802875
76	0x3e03e02d	0.12878485
77	0x3dfb600c	0.12274179
78	0x3df63042	0.12020923
79	0xbde78e02	-0.11306383
80	0x3de96a95	0.11397282
81	0xbc4b4288	-0.012405999
82	0x3e2a24ab	0.1661555
83	0x3e1d7eeb	0.15380447
84	0x3d1dd963	0.038537394
85	0xbdc0a909	-0.09407241
86	0x3e2733bc	0.16328329
87	0xbe306540	-0.17226124
88	0xbd98f74e	-0.074690446
89	0x3d534c3f	0.051586386
90	0x3ca54e76	0.020179015
91	0xbe061cb8	-0.13096893
92	0xbdd07386	-0.10178284
93	0x3d0ad4e9	0.033894453
94	0xbd09fd24	-0.03368868
95	0xbe0fd353	-0.14045458
96	0x3dcf4ee9	0.10122473
97	0x3e035e88	0.1282903
98	0xbc895d52	-0.016768131
99	0x3db45c6f	0.08806693
100	0x3d13fc89	0.03612951
101	0x3dc4d50a	0.096109465
102	0xb9b318b4	-0.00034159946
103	0x3d58beee	0.05291646
104	0x3df81c8e	0.121148214
105	0xbd5cff56	-0.053954445
106	0x3e005672	0.12532976
107	0x3d4883be	0.048953764
108	0xbe1099d7	-0.14121185
109	0x3e0dd584	0.13850981
110	0xbd8c5819	-0.06852741
111	0xbe2e7101	-0.17035295
112	0xbd349b7c	-0.044093594
113	0xbe302e8a	-0.17205253
114	0xbd4c954e	-0.049947076
115	0xbd3104ec	-0.043217584
116	0xbe00c494	-0.12574989
117	0x3e1164fb	0.14198677
118	0x3ddeb2c6	0.10873942
119	0x3db3eec9	0.08785779
120	0x3e244341	0.1604128
121	0xbd911600	-0.07084274
122	0x3d891c85	0.06694893
123	0x3e052893	0.13003759
124	0x3e0ee804	0.13955694
125	0x3d825bc9	0.06365163
126	0x3da34579	0.07972235
127	0x3e21294d	0.15738411
128	0x3e133431	0.14375378
129	0xbe0eb003	-0.1393433
130	0x3e1275c4	0.14302737
131	0xbd8c7bf9	-0.068595834
132	0x3de71751	0.11283744
133	0xbe2d7ac6	-0.16941366
134	0x3e1ee5e3	0.15517382
135	0x3e14bd7f	0.14525412
136	0xbd4b868d	-0.049688864
137	0x3e2299ed	0.1587903
138	0x3d1052be	0.03523516
139	0xbdeb1c96	-0.11480062
140	0x3d8c3456	0.0684592
141	0xbde14f93	-0.11001506
142	0xbdbaf863	-0.09129407
143	0x3e19e5fb	0.15029137
144	0x3ba660ad	0.0050774426
145	0xbdc19af2	-0.094533816
146	0xbe2aa170	-0.16663146
147	0xbc18bba0	-0.009322077
148	0x3ca49065	0.020088384
149	0xbcf877a0	-0.03033048
150	0x3c04bd75	0.008101811
151	0x3e11f6bf	0.14254282
152	0xbe244533	-0.16042022
153	0x3d262f70	0.040572584
154	0xbca47239	-0.020073997
155	0xbe1d3816	-0.15353426
156	0xbe2d01a3	-0.16895156
157	0xbc063319	-0.008190894
158	0xbe2b81cb	-0.16748731
159	0x3e2fce59	0.17168559
160	0xbe18cbf2	-0.14921549
161	0xbb9f8446	-0.004868063
162	0xbba5c21e	-0.005058541
163	0xbdd10837	-0.10206645
164	0x3e267e43	0.16259103
165	0xbcd03875	-0.025417546
166	0xbd894274	-0.06702128
167	0x3e0fb6e9	0.14034618
168	0x3d68f506	0.056874298
169	0xbd5622d7	-0.05227932
170	0xbe2cef2a	-0.16888109
171	0xbd0865a9	-0.033300076
172	0xbd30cc05	-0.04316332
173	0xbd439393	-0.04774816
174	0x3dd38a80	0.10329151
175	0xbc4e611a	-0.012596393
176	0x3d430afd	0.0476179
177	0x3e11872a	0.14211717
178	0x3b3cf76b	0.0028833996
179	0x3e2815dd	0.1641459
180	0x3d9407cb	0.07228049
181	0xbe0541fa	-0.1301345
182	0x3db29a00	0.087207794
183	0xbd939873	-0.07206812
184	0x3e0cbef4	0.13744718
185	0x3d48cedb	0.049025398
186	0xbdd73fb4	-0.10510197
187	0xbdd7b9d6	-0.10533492
188	0xbe30b874	-0.17257863
189	0xbe28df08	-0.1649133
190	0xbde20e25	-0.11037854
191	0x3d385db5	0.04501124
192	0xbd4c2736	-0.049842082
193	0x3d0a6f3a	0.03379748
194	0xbe189caa	-0.14903513
195	0xba8f34b9	-0.0010925747
196	0xbda78fc0	-0.08181715
197	0x3d39877d	0.045295227
198	0xbdf71170	-0.12063873
199	0x3dab9cc6	0.083795115
200	0xbd956fc8	-0.07296711
201	0x3c9c3013	0.019065892
202	0xbd98f8bc	-0.07469317
203	0x3e171ae4	0.14756352
204	0x3c8538a6	0.016262364
205	0x3dadc590	0.08484948
206	0xbd8c7158	-0.06857556
207	0x3e0f30b2	0.1398342
208	0xbd835144	-0.064119846
209	0x3de33baa	0.110953644
210	0x3e2b10c4	0.16705614
211	0xbdb33a4d	-0.08751354
212	0x3d218fc1	0.039443735
213	0x3d0fe50f	0.035130557
214	0xba8a8862	-0.001056921
215	0x3d9b1486	0.07572274
216	0x3e1f1995	0.15537103
217	0xb97cad5e	-0.00024097177
218	0x3d3358d2	0.043785878
219	0x3ddc7864	0.1076515
220	0xbe12a1b2	-0.14319494
221	0x3dd1928f	0.10233032
222	0x3ba56505	0.005047443
223	0xbe012c29	-0.12614502
224	0x3d920919	0.071306415
225	0xbda3652c	-0.079782814
226	0xbe024af6	-0.12723908
227	0xbd68feee	-0.056883745
228	0x3cbaff31	0.022826763
229	0x3dce0013	0.10058608
230	0xbd9d82ca	-0.07690962
231	0x3e150219	0.14551581
232	0xbdfdb44e	-0.12387906
233	0xbe027ffe	-0.12744138
234	0x3d8cc180	0.06872845
235	0x3e2764e7	0.16347085
236	0x3e072e0e	0.13201162
237	0x3e002f98	0.12518156
238	0x3c25bdde	0.010116069
239	0xbd7d2039	-0.061798308
240	0xbe049d8e	-0.12950727
241	0xbdfe7067	-0.12423783
242	0x3d5fdc50	0.054653466
243	0xbc4fbad1	-0.012678818
244	0xbce3c12f	-0.027802078
245	0xbd097faa	-0.033569016
246	0x3917bcd3	0.00014470825
247	0xbdd137d5	-0.10215727
248	0xbd23703c	-0.039901957
249	0x3e1228da	0.14273396
250	0xbdbd4e2b	-0.09243425
251	0xbc54273e	-0.012948809
252	0xbe0bd158	-0.13654077
253	0xbd8ffab5	-0.070302404
254	0x3d717042	0.058944948
255	0x3d9bb159	0.07602186

fc2.weight f4 [300, 404]
0	0x3cf3138b	0.029672405
1	0x3d11b095	0.035568792
2	0x3de571ce	0.11203347
3	0x3ca4b4e4	0.020105787
4	0xbca55686	-0.02018286
5	0xbd0ce7db	-0.034400802
6	0xbcacb532	-0.021082494
7	0xbdb25c13	-0.08708968
8	0x3be61e13	0.007022628
9	0xbdae90b2	-0.08523692
10	0xbe8ea4e6	-0.27860183
11	0xbccac672	-0.02475283
12	0xbd212bef	-0.03934854
13	0xbd104897	-0.035225477
14	0x3d00198d	0.031274367
15	0x3cc6f321	0.024285855
16	0x3d78fe3a	0.060789324
17	0xbdd66422	-0.104683176
18	0xbca99997	-0.02070312
19	0xbcb6b922	-0.022305075
20	0xbd6e7459	-0.058216427
21	0x3d1b2c7a	0.037884213
22	0xbd86b6b4	-0.065778166
23	0xbd2c41a5	-0.04205479
24	0xbe734197	-0.2375549
25	0x3c0146e8	0.0078904405
26	0xbd84f709	-0.06492431
27	0xbdb72ea5	-0.089444436
28	0xbd03efc7	-0.03221109
29	0x3b8fcda0	0.004388526
30	0xbd04b343	-0.03239752
31	0xbdcd0aec	-0.10011849
32	0xbd423227	-0.04741111
33	0x3c880e04	0.016608246
34	0xbb28fd73	-0.0025785833
35	0x3d2aa1b4	0.04165812
36	0xbd7915b6	-0.06081172
37	0x3db42290	0.08795655
38	0xbbcef0d6	-0.006315331
39	0x3e058bc5	0.13041599
40	0xbd4b6f83	-0.049666893
41	0x3d4a5b34	0.049403384
42	0x3d32f7a0	0.043693185
43	0xbdfd5f13	-0.123716496
44	0x3db2df0d	0.0873395
45	0xba42dd01	-0.0007433445
46	0xbd1354d7	-0.03596958
47	0x3d400f4a	0.04688958
48	0xbcba87bc	-0.022769801
49	0x3bb4eea7	0.0055216136
50	0xbd860ea7	-0.065457635
51	0xbb924638	-0.004463937
52	0x3d8e3211	0.06943143
53	0xbda8bb7f	-0.08238887
54	0xbc59fc24	-0.013304744
55	0xbc03caed	-0.008043987
56	0x3dba808b	0.09106549
57	0x3d17572e	0.036948375
58	0x3d8f861d	0.07008002
59	0xbd15cb1a	-0.036570646
60	0xbd1f5709	-0.038901363
61	0x3d8b8532	0.06812514
62	0xbee175f5	-0.44035307
63	0xbc9c50fd	-0.019081587
64	0xbd10f5f6	-0.035390817
65	0x3e0357ac	0.12826413
66	0xbcf3e80e	-0.029773738
67	0xbca2eaf1	-0.01988742
68	0x3c0567d2	0.0081424285
69	0x3ad25543	0.0016047138
70	0xbd4d6e51	-0.050154034
71	0xbd989892	-0.074509755
72	0xbad9ce4c	-0.0016617267
73	0xbd4ca3b1	-0.049960796
74	0xbd228fb1	-0.039687816
75	0x3c8ca26c	0.017167293
76	0x3d30787f	0.043083664
77	0xbd34ed95	-0.04417189
78	0xbc11e525	-0.00890473
79	0xba91b82f	-0.0011117513
80	0x3c9fc05b	0.019500902
81	0x3c9633e9	0.0183353
82	0xbcea713e	-0.028618451
83	0xbddec553	-0.1087748
84	0xbd583c99	-0.052792165
85	0xbe19832e	-0.14991447
86	0x3d92371b	0.07139417
87	0xbc340700	-0.010987997
88	0xbd02f4ca	-0.03197173
89	0x3cb2f90c	0.02184727
90	0xbb8a3dfd	-0.0042188154
91	0xbe90f6ad	-0.283132
92	0xbc02c7fc	-0.00798225
93	0xbc1426b7	-0.009042433
94	0xbe007b2a	-0.12546983
95	0x3c42bb79	0.011885517
96	0x3c18c255	0.009323676
97	0x3d27a4a7	0.04092851
98	0x3e0162f8	0.1263541
99	0x3d80b795	0.062850155
100	0x3d57df74	0.052703336
101	0xbd90149d	-0.07035182
102	0x3d028c45	0.031872053
103	0x3d9c1413	0.07621016
104	0x3d879fea	0.06622298
105	0xbe8bcb28	-0.27303433
106	0xbd00435a	-0.03131423
107	0x3db597ca	0.08866842
108	0x3db99b47	0.0906282
109	0xbd280a09	-0.041025195
110	0xbd983994	-0.07432857
111	0xbc9a94a5	-0.018869707
112	0x3ca5bb06	0.020230781
113	0x3d38fe83	0.045164596
114	0xbc213826	-0.009840047
115	0xbc8ef77c	-0.017451994
116	0xbca61afa	-0.020276535
117	0x3c90bb9d	0.017667586
118	0xbcef2f11	-0.029197248
119	0x3c51aaab	0.012797038
120	0xbcc6b5f8	-0.024256691
121	0xbcb79bc1	-0.022413136
122	0xbba14da3	-0.004922585
123	0xbc738828	-0.014864005
124	0xbdc355f5	-0.095378794
125	0x3d4ed287	0.050493743
126	0x3d4e3b0e	0.050349288
127	0x3e0ba5b6	0.13637432
128	0xbd18480d	-0.037178088
129	0xbc2aa35d	-0.010414925
130	0x3cf543ff	0.02993965
131	0x3ca5acda	0.020224024
132	0xbc981826	-0.018566202
133	0xbc9102c1	-0.017701508
134	0xbaf42fad	-0.0018629931
135	0xbe138669	-0.14406742
136	0x3c936d9e	0.017996605
137	0xbde04727	-0.10951071
138	0xbb52977e	-0.0032133753
139	0xbb5d01d3	-0.003372301
140	0x3cb7f66c	0.02245637
141	0x3c14836a	0.009064535
142	0x3d908c69	0.07058031
143	0x3d73ae5e	0.05949246
144	0xbd8eeca6	-0.06978731
145	0xbc9d404e	-0.019195702
146	0xbe3e2c4a	-0.18571582
147	0x3d80a879	0.062821336
148	0x3bec7d86	0.007217112
149	0xbd33dd39	-0.043912146
150	0x3dbbd571	0.0917157
151	0x3df3ee07	0.119106345
152	0xbe030cd2	-0.1279786
153	0x3d50fe24	0.051023617
154	0xbe289ce9	-0.16466106
155	0xbd559b06	-0.052149795
156	0x3d044be4	0.032298937
157	0xbcb5820b	-0.022156736
158	0x3ba539d2	0.005042293
159	0xbca3574f	-0.019939093
160	0x3cc24493	0.02371434
161	0xbd8dce31	-0.069240935
162	0x3d873d11	0.06603444
163	0xbd1dbde0	-0.038511157
164	0xbd4ad9cd	-0.049524117
165	0xbdba883b	-0.09108015
166	0x3c149283	0.009068134
167	0x3ce15613	0.027506864
168	0x3d85b88c	0.0652934
169	0x3dbcb3f2	0.09214009
170	0xbbddc91a	-0.006768358
171	0xbdb6c9cd	-0.08925209
172	0x3d9f7d70	0.07787597
173	0xbd020483	-0.031742584
174	0x3d654cf9	0.05598161
175	0x3cbfd3e3	0.023416465
176	0xbdb9a248	-0.09064156
177	0xbc345fe4	-0.01100919
178	0x3ccdb2cc	0.025109671
179	0x3d2e5f89	0.04257158
180	0x3db16532	0.086618796
181	0x3c6e9463	0.014561745
182	0xbda7e73a	-0.081984
183	0xbce571cb	-0.028008362
184	0x3c4be675	0.012445082
185	0xbe46c6f4	-0.19411832
186	0x3ccf1c38	0.02528201
187	0x3cf79d85	0.030226478
188	0xbb41fcbd	-0.0029600107
189	0xbed89293	-0.42299327
190	0x3e08246b	0.13295142
191	0x3d77f180	0.060533047
192	0xbc6c4853	-0.01442154
193	0x3db2b79f	0.08726429
194	0x3c1d14c5	0.009587471
195	0x3c98e5a5	0.01866419
196	0xbd1e40c1	-0.038635973
197	0x3cfdd98b	0.030987522
198	0x3c26b1e7	0.010174251
199	0xbd9d150c	-0.0767003
200	0x3c8ee1b8	0.017441615
201	0xbda12df8	-0.07870096
202	0xbe714eb4	-0.23565179
203	0x3cf14a98	0.029454514
204	0xbafc5253	-0.0019250609
205	0xbd9eb22b	-0.077488266
206	0x3db02e7e	0.08602618
207	0x3d852641	0.06501437
208	0x3dcaa58b	0.09894856
209	0xbdf65f1e	-0.12029861
210	0xbcdf8d5d	-0.027289087
211	0x3c1fd762	0.009755941
212	0x3d071d39	0.032986853
213	0xbd33319c	-0.043748483
214	0x3bcd4133	0.006263876
215	0xbe9e2c08	-0.30892968
216	0x3d7c67ce	0.061622433
217	0xbbdb3a43	-0.006690295
218	0xbd3277d2	-0.0435713
219	0xbc91f30d	-0.017816091
220	0x3d324d0b	0.043530505
221	0x3db58619	0.08863468
222	0xbd3404d8	-0.04394993
223	0xbdb5fb65	-0.0888584
224	0x3d47ef0b	0.048811954
225	0xbbb1079a	-0.0054025175
226	0xbd56621c	-0.05233966
227	0xbbeaa597	-0.007160853
228	0xbb2f9618	-0.0026792344
229	0x3c92fb94	0.017942227
230	0xbcb4369a	-0.021998692
231	0x3ca6343e	0.020288583
232	0x3d5b1aab	0.05349223
233	0x3cddde8e	0.027083661
234	0xbdad7202	-0.08469011
235	0xbd21318b	-0.03935389
236	0x3cc3dffc	0.023910515
237	0xbd20abe9	-0.039226446
238	0xbd8b1fec	-0.06793198
239	0xbe2f5e60	-0.17125845
240	0xbc11045c	-0.008851137
241	0xbd9d5ccd	-0.07683716
242	0x3da277e3	0.07933023
243	0x3d25c923	0.040475022
244	0x3cf08181	0.029358627
245	0x3d8c4456	0.068489715
246	0xbd2659b1	-0.04061288
247	0xbe024d73	-0.12724857
248	0xbddb5852	-0.10710205
249	0x3d6cabd9	0.057781074
250	0x3d2b0836	0.041755877
251	0xbd091565	-0.03346767
252	0xbc4d1028	-0.012516059
253	0x3c6e7244	0.01455361
254	0x3cf5b71d	0.029994542
255	0x3d414225	0.04718222

fc2.bias f4 [300]
0	0x3db54430	0.08850896
1	0x3e89264d	0.26787034
2	0xbe50a3e7	-0.20375024
3	0xbd5c6c92	-0.05381448
4	0xbda26532	-0.07929458
5	0xbdf686f0	-0.12037456
6	0x3e19a869	0.1500565
7	0xbe76e8f9	-0.2411231
8	0x3d9d633a	0.076849416
9	0x3e7b07f9	0.2451476
10	0xbe38960c	-0.18025988
11	0x3e25c46f	0.16188215
12	0x3d5e29d3	0.054239105
13	0xbcf36f4b	-0.029716155
14	0xbe36d781	-0.17855646
15	0x3ea152af	0.31508395
16	0xbe189c87	-0.1490346
17	0xbdb6d85b	-0.08927985
18	0x3eafb42e	0.34317154
19	0x3e7bbbbf	0.24583338
20	0xbe232bdb	-0.15934698
21	0x3eaa65de	0.33280843
22	0xbe1c4336	-0.15260014
23	0x3e27ce99	0.16387405
24	0x3e8b37f0	0.27191114
25	0xbe5077b9	-0.2035817
26	0xbd8f7c1c	-0.07006094
27	0xbdaf9a11	-0.08574308
28	0x3d6d8851	0.05799133
29	0xbddfe2f3	-0.10931959
30	0x3dee3e96	0.11633031
31	0x3e74b51f	0.23897217
32	0xbda3fd9d	-0.08007357
33	0x3e3ce93c	0.18448347
34	0xbdf378e8	-0.118882954
35	0x3ea8523e	0.32875246
36	0x3d9341b8	0.07190269
37	0xbdac8c22	-0.08425166
38	0x3e849607	0.25895712
39	0x3ea66c07	0.32504293
40	0xbdca9d81	-0.09893323
41	0xbc96bc4e	-0.018400338
42	0x3ec35721	0.38152412
43	0xbe85527f	-0.26039502
44	0x3ed214bb	0.4103144
45	0x3e454e3a	0.19268122
46	0x3eca3f89	0.39501598
47	0x3e31f7ab	0.17379634
48	0x3e406298	0.1878761
49	0xbe16ac22	-0.14714101
50	0xbe34097c	-0.17581743
51	0x3e8b08c2	0.2715512
52	0xbe0db49b	-0.13838427
53	0x3ed88ff5	0.4229733
54	0x3e997559	0.29972342
55	0xbe0b1a7e	-0.13584325
56	0x3e2b4be2	0.16728166
57	0x3e88be06	0.26707476
58	0x3da5d08f	0.0809642
59	0x3e401110	0.18756509
60	0xbe4d37cc	-0.20040816
61	0x3e295daf	0.16539644
62	0x3e0c86a7	0.13723241
63	0x3eab4ccc	0.3345703
64	0xbddab184	-0.1067839
65	0x3e9dcd58	0.30820727
66	0x3ec1e922	0.3787318
67	0x3ddc1b38	0.10747379
68	0x3daf6b48	0.08565384
69	0x3e12c559	0.14333095
70	0x3e9fc93a	0.3120821
71	0xbe40cb69	-0.18827595
72	0xbe08f8ad	-0.13376112
73	0xbd81f2dc	-0.0634515
74	0xbe61b41b	-0.22041361
75	0xbe5fa9b2	-0.21842077
76	0x3ca8ff1b	0.020629456
77	0x3e1c6d87	0.15276156
78	0xbdcd98d4	-0.10038915
79	0xbde5a1df	-0.11212515
80	0xbe5d11b6	-0.21588787
81	0x3e8d3cd8	0.27585483
82	0x3ea18ea8	0.3155415
83	0x3e8dde09	0.27708462
84	0xbd54110e	-0.051774077
85	0x3d7b8ed6	0.061415516
86	0x3eafec8c	0.34360158
87	0x3e0830da	0.13299885
88	0xbd880443	-0.06641438
89	0x3db13b69	0.0865391
90	0xbd7b4909	-0.06134895
91	0xbdb6dbac	-0.08928618
92	0xbe210f0c	-0.15728396
93	0x3e209559	0.15681972
94	0x3e9a0975	0.3008534
95	0xbdce9878	-0.10087675
96	0x3e8ba6df	0.2727575
97	0xbe4e7962	-0.20163491
98	0xbe440f39	-0.19146432
99	0x3db4b51b	0.088236056
100	0x3e971bf8	0.29513526
101	0xbd3d167f	-0.046164032
102	0xbe5ef689	-0.21773733
103	0x3ecbfda4	0.3984195
104	0x3ec6d22a	0.38832217
105	0xbe5e9d45	-0.21739681
106	0xbda0f330	-0.07858884
107	0x3df99d9c	0.12188265
108	0x3d3ddc6f	0.0463528
109	0xbe20793f	-0.15671252
110	0xbe08dcbe	-0.13365456
111	0x3eb363fd	0.35037223
112	0x3e89c27f	0.269062
113	0xbd77aec0	-0.06046939
114	0x3e6ce743	0.23135094
115	0xbde9ee55	-0.11422411
116	0x3ede8566	0.4346115
117	0x3e382c0e	0.17985556
118	0xbd41c6a6	-0.047308587
119	0x3ebacf50	0.36486292
120	0x3e6b5798	0.22982633
121	0x3ea171f5	0.31532255
122	0xbd8a34f2	-0.0674838
123	0xbdc466f3	-0.095899485
124	0xbe2b74cb	-0.16743772
125	0xbddd2af4	-0.10799208
126	0x3e4448c4	0.19168383
127	0x3e276576	0.16347298
128	0xbe76d2e6	-0.24103889
129	0x3e7362cf	0.23768161
130	0xbe5386c8	-0.20656884
131	0x3e985ad2	0.2975679
132	0xbde05fda	-0.10955782
133	0xbe676f99	-0.22601165
134	0x3e7e99e9	0.248634
135	0xbe41a566	-0.18910751
136	0xbd97fb14	-0.07420936
137	0x3e3f1d7f	0.18663596
138	0xbde6d4e4	-0.112710744
139	0xbcf38fd7	-0.029731674
140	0x3e412887	0.18863116
141	0x3dd3aed8	0.10336083
142	0x3e23e006	0.16003427
143	0xbe8b4896	-0.27203816
144	0xbe21c57c	-0.1579799
145	0xbe5bfba2	-0.21482709
146	0x3e279c8e	0.16368315
147	0x3e56dbff	0.2098236
148	0x3e022ee4	0.127132
149	0x3d1f46c5	0.03888585
150	0x3d88ad10	0.06673634
151	0x3e34da31	0.17661358
152	0xbe742510	-0.23842263
153	0x3b9b17ed	0.004733077
154	0x3daca699	0.084302135
155	0xbdf047aa	-0.11732419
156	0xbce22dc6	-0.027609717
157	0xbd9b1ffa	-0.075744584
158	0x3e6178e2	0.2201877
159	0xbe48004e	-0.19531366
160	0x3e8a3bd7	0.2699878
161	0x3e7fcaf4	0.24979764
162	0xbe05772a	-0.13033739
163	0xbd07125f	-0.032976504
164	0x3e05e72e	0.1307647
165	0x3e9cdd61	0.3063765
166	0x3e815117	0.2525718
167	0xbd12c734	-0.035834506
168	0x3e55d826	0.20883235
169	0xbded32c5	-0.11581949
170	0xbe78f677	-0.24312769
171	0x3e842ed5	0.2581698
172	0xbdd62cee	-0.104577884
173	0x3e35906f	0.17730878
174	0x3e925f54	0.28588355
175	0x3d85087b	0.06495758
176	0x3e683a12	0.22678402
177	0x3c86169e	0.016368207
178	0x3daa6f17	0.0832197
179	0x3e8c850d	0.2744526
180	0xbdbc4def	-0.09194552
181	0x3e5b6ea0	0.21428919
182	0x3e4495e5	0.19197805
183	0xbe331860	-0.17489767
184	0xbe4a77d5	-0.19772275
185	0x3e32d595	0.17464288
186	0x3b320c5a	0.0027168007
187	0xbe40570e	-0.18783209
188	0x3e19247e	0.14955327
189	0x3e6fc02e	0.23413154
190	0x3e74ccbc	0.23906225
191	0x3e337b61	0.17527534
192	0xbe8010cc	-0.25012815
193	0xbe3901dd	-0.18067117
194	0xbe709ff1	-0.23498513
195	0x3e906983	0.282055
196	0x3e492a46	0.19645032
197	0xbe463293	-0.1935523
198	0x3eaabf6a	0.33349162
199	0xbdced0a9	-0.100983925
200	0xbda71eb3	-0.08160152
201	0xbe4bddd0	-0.19908834
202	0xbd07085d	-0.03296696
203	0xbdf0287e	-0.11726473
204	0xbe032428	-0.12806761
205	0xbdd11fc5	-0.10211138
206	0x3e38f599	0.18062438
207	0x3ed0bdd4	0.40769827
208	0x3e89eafa	0.26937085
209	0x3e18b6b8	0.14913452
210	0x3ea709d6	0.32624692
211	0x3d1ac64c	0.037786767
212	0xbe304dc1	-0.17217161
213	0xbd6e615d	-0.05819832
214	0xbc4971af	-0.012295171
215	0x3e67901a	0.22613564
216	0x3ea47b72	0.3212543
217	0x3e2df18e	0.16986677
218	0x3e5db91b	0.21652643
219	0xbda5a4e8	-0.08088094
220	0xbddd2d5f	-0.107996695
221	0x3e7a6cc2	0.2445555
222	0x3e77f9a7	0.24216329
223	0xbdeea291	-0.11652101
224	0xbd168f30	-0.036757648
225	0xbe31a29a	-0.17347184
226	0xbe3526b0	-0.1769054
227	0xbe162fb4	-0.14666635
228	0x3ea4481f	0.32086274
229	0xbdf98225	-0.12183026
230	0x3dffc883	0.124894165
231	0x3df550e6	0.11978321
232	0xbd9eae0f	-0.07748043
233	0x3d5d1db2	0.053983398
234	0xbd80f1bc	-0.06296107
235	0x3e7846ba	0.2424573
236	0x3ea884f0	0.32913923
237	0x3eb98487	0.36233923
238	0x3ed40d67	0.41416475
239	0xbdd852af	-0.10562646
240	0x3ca776f8	0.02044247
241	0xbe2a599a	-0.16635743
242	0x3e431f0c	0.19054812
243	0xbe1aea48	-0.15128434
244	0x3de5e655	0.11225573
245	0x3e674c8d	0.22587796
246	0xbdc41393	-0.09574046
247	0x3eb2d832	0.3493057
248	0xbd8b0690	-0.06788361
249	0xbe07f912	-0.13278607
250	0x3e7482e9	0.23878063
251	0xbe544cbb	-0.20732395
252	0x3e6bf951	0.23044325
253	0x3d94f045	0.0727239
254	0x3e125ae6	0.14292488
255	0x3e45f3c2	0.19331267

fc3.weight f4 [1, 300]
0	0x3e60c243	0.21949105
1	0x3d35b517	0.044362154
2	0xbd80397a	-0.06260963
3	0xbe038f83	-0.12847714
4	0xbd9488d5	-0.07252661
5	0xbdd9ac66	-0.106285855
6	0x3de41902	0.11137582
7	0xbd0329df	-0.032022353
8	0x3e65d147	0.22443114
9	0x3d8a830e	0.06763278
10	0xbdccb1bb	-0.09994837
11	0x3d9e2577	0.077219896
12	0x3e2e0a69	0.16996159
13	0xbdbecf22	-0.09316851
14	0xbd8e7d7e	-0.069575295
15	0x3d3c9bc7	0.046047
16	0xbd3c03fc	-0.045902237
17	0xbdcf1523	-0.101114534
18	0x3db834fe	0.089944825
19	0x3d52aa15	0.051431734
20	0xbde33e75	-0.11095897
21	0x3db4d1bd	0.08829067
22	0xbd36a136	-0.044587336
23	0x3d81cda2	0.063380495
24	0x3d9f8e26	0.077907845
25	0xbdb829e2	-0.089923635
26	0xbe296901	-0.16543962
27	0xbdb8d3a1	-0.0902474
28	0x3d9a7120	0.07541108
29	0xbdb0c52a	-0.08631356
30	0x3e3942b9	0.18091859
31	0x3dd08765	0.101820745
32	0xbdab3d2d	-0.08361278
33	0x3d55f808	0.052238494
34	0xbe212f7d	-0.15740772
35	0x3d9e0fbb	0.07717844
36	0x3d89fb20	0.067373514
37	0xbdf198e6	-0.11796741
38	0x3d84a73f	0.06477212
39	0x3db0949a	0.086220935
40	0xbdc955da	-0.09830828
41	0xbe5852fd	-0.21125408
42	0x3d9917d5	0.07475249
43	0xbdc16e64	-0.094448835
44	0x3db6c00d	0.089233495
45	0x3dc6a073	0.09698572
46	0x3db44908	0.08802992
47	0x3d8593f2	0.06522359
48	0x3e1f021a	0.15528145
49	0xbd963d20	-0.073358774
50	0xbdc978b6	-0.09837477
51	0x3d7cc8d3	0.06171496
52	0xbd21947b	-0.039448243
53	0x3dea8205	0.114505805
54	0x3d98d76c	0.074629635
55	0xbd4cf906	-0.050042175
56	0x3da5223a	0.08063169
57	0x3db406b4	0.08790341
58	0x3ddbed93	0.10738673
59	0x3db23cd1	0.08703006
60	0xbd3823dd	-0.044956077
61	0x3da5cb7e	0.08095454
62	0x3db0444a	0.08606775
63	0x3d4490dd	0.047989715
64	0xbd779586	-0.06044533
65	0x3d9e936f	0.077429645
66	0x3d87c00c	0.06628427
67	0x3d667e85	0.056273002
68	0x3de20baa	0.11037381
69	0x3db225f5	0.08698646
70	0x3d70986c	0.05873911
71	0xbd54e8b5	-0.05197974
72	0xbe04afd0	-0.12957692
73	0xbd7ec6bc	-0.062201247
74	0xbd86747d	-0.06565187
75	0xbd4a6322	-0.049410947
76	0x3dd076ff	0.10178947
77	0x3dd401ad	0.10351882
78	0xbd8a823f	-0.06763124
79	0xbd81ba06	-0.06334309
80	0xbe1538d7	-0.14572464
81	0x3d60962f	0.054830726
82	0x3da97e70	0.08276069
83	0x3d7fecf5	0.06248184
84	0xbe245a00	-0.16049957
85	0x3e944ea3	0.28966245
86	0x3d9dc0fd	0.07702825
87	0x3dacc461	0.08435894
88	0xbe553612	-0.20821407
89	0x3dce6eeb	0.1007975
90	0xbe1443e4	-0.14479023
91	0xbe1a28ec	-0.15054673
92	0xbd78d9bc	-0.060754523
93	0x3dac8239	0.084232755
94	0x3dc55800	0.09635925
95	0xbdc65c9a	-0.09685631
96	0x3d45f7ae	0.04833191
97	0xbd44c84e	-0.048042588
98	0xbd13b7ca	-0.036063947
99	0x3df8edea	0.121547535
100	0x3d6d23d2	0.05789549
101	0xbdd99b03	-0.10625269
102	0xbd5e7529	-0.05431095
103	0x3d974310	0.07385838
104	0x3da0b6f4	0.078473955
105	0xbd771795	-0.060325224
106	0xbdf989f4	-0.121845156
107	0x3db599bc	0.08867213
108	0x3e8c24a6	0.2737171
109	0xbe0330cf	-0.12811588
110	0xbd7122dc	-0.058871135
111	0x3d900336	0.070318624
112	0x3dc3688c	0.09541425
113	0xbe0cc842	-0.13748267
114	0x3d651c0a	0.055934943
115	0xbdb78c9c	-0.08962366
116	0x3dc83467	0.0977562
117	0x3e1c30d6	0.15253004
118	0xbe177eab	-0.14794414
119	0x3d7563b9	0.059909556
120	0x3d86cf77	0.065825395
121	0x3d362ecd	0.044478226
122	0xbe1d6134	-0.15369111
123	0xbe03980b	-0.12850969
124	0xbde17f97	-0.11010664
125	0xbd714ca2	-0.058910973
126	0x3d71c6e0	0.059027553
127	0x3d5665a1	0.052343015
128	0xbd9bed68	-0.07613641
129	0x3d69a3da	0.057041027
130	0xbd971c60	-0.07378459
131	0x3d5585f4	0.0521297
132	0xbdb89773	-0.09013262
133	0xbd7527f6	-0.059852563
134	0x3d6f883b	0.05847953
135	0xbd17fbb4	-0.037105277
136	0xbdf84a8c	-0.12123594
137	0x3d342b3e	0.04398655
138	0xbddd2ec4	-0.107999355
139	0xbdd49421	-0.10379816
140	0x3d8c007a	0.068360284
141	0x3e1a7db4	0.15087014
142	0x3da55089	0.080720015
143	0xbdb0c448	-0.08631188
144	0xbdb12673	-0.08649912
145	0xbcfed91c	-0.031109385
146	0x3db39268	0.08768159
147	0x3d9485a9	0.07252056
148	0x3da3d5b5	0.07999746
149	0x3dd5e8ef	0.10444819
150	0x3e4760aa	0.19470468
151	0x3d918b89	0.07106692
152	0xbd851465	-0.064980306
153	0x3e5da422	0.21644643
154	0x3de2da1f	0.110767595
155	0xbe26a3b4	-0.16273385
156	0xbe7c8484	-0.24659926
157	0xbddfe90a	-0.109331205
158	0x3d9279b2	0.07152118
159	0xbdb77169	-0.08957178
160	0x3d5fc262	0.054628737
161	0x3d97546d	0.0738915
162	0xbe63ba33	-0.22238998
163	0x3d926612	0.071483746
164	0x3e5c81f7	0.21533953
165	0x3d390b4d	0.045176793
166	0x3d96cb35	0.073629774
167	0xbe528d38	-0.20561683
168	0x3d36ff26	0.044676922
169	0xbda29a72	-0.07939614
170	0xbd80c98a	-0.062884405
171	0x3d862612	0.0655023
172	0xbdd48956	-0.10377757
173	0x3dac2dd9	0.08407182
174	0x3d9ed8a7	0.07756167
175	0x3dd51c3a	0.104057744
176	0x3dadabe2	0.0848005
177	0x3e3cc4a2	0.18434384
178	0x3ded671e	0.11591934
179	0x3d2851c7	0.041093614
180	0xbdbce675	-0.09223644
181	0x3d89254c	0.06696567
182	0x3d87a0e0	0.06622481
183	0xbd794d66	-0.06086483
184	0xbd46a404	-0.04849626
185	0x3d7dbc3c	0.061947092
186	0xbe8b633b	-0.27224144
187	0xbd97b8bd	-0.07408283
188	0x3d7956af	0.060873684
189	0x3d74ea1e	0.059793584
190	0x3dd0751d	0.101785876
191	0x3d7309f0	0.05933565
192	0xbd5bbe66	-0.053648375
193	0xbd60ea31	-0.054910842
194	0xbd49ffc8	-0.049316198
195	0x3d455811	0.04817969
196	0x3d9c24f3	0.07624235
197	0xbd4a36df	-0.049368735
198	0x3d875f9a	0.066100314
199	0xbdd33794	-0.10313335
200	0xbe0f3f26	-0.13988933
201	0xbd7de834	-0.061989024
202	0xbe313138	-0.17303932
203	0xbddd065b	-0.10792228
204	0xbd4bbe48	-0.049742013
205	0xbda9f97b	-0.08299538
206	0x3d8b1e29	0.06792862
207	0x3dbd409e	0.092408404
208	0x3d3c8fe9	0.04603568
209	0x3d5749d1	0.05256063
210	0x3dcbda77	0.09953778
211	0x3dfb8c62	0.12282635
212	0xbd8a16ff	-0.067426674
213	0xbe120c8e	-0.14262602
214	0xbc3a4d95	-0.011371036
215	0x3da4354c	0.08017978
216	0x3d2edf1c	0.042693242
217	0x3dc9533a	0.09830327
218	0x3d1195ab	0.035543125
219	0xbdffa282	-0.12482168
220	0xbe0bf386	-0.13667116
221	0x3d85527e	0.06509875
222	0x3d5d8f4f	0.054091748
223	0xbd90dfbd	-0.07073925
224	0xbe1eba5c	-0.15500778
225	0xbd29e2bf	-0.041476008
226	0xbdf99b76	-0.12187855
227	0xbd815a33	-0.06316032
228	0x3d824938	0.063616216
229	0xbda51524	-0.08060673
230	0x3df5b89d	0.11998103
231	0x3da8073d	0.082045056
232	0xbe07dcc5	-0.1326781
233	0x3e196804	0.14981085
234	0xbdf0d4ae	-0.117593154
235	0x3d5fdb6d	0.05465262
236	0x3d91cd1b	0.07119199
237	0x3d932d84	0.07186416
238	0x3d8e1d5c	0.069391936
239	0xbdd3ab50	-0.1033541
240	0x3e489cf0	0.19591117
241	0xbe317bb8	-0.17332351
242	0x3d8e757f	0.06956004
243	0xbd6cceeb	-0.05781452
244	0x3d8ac8ad	0.06776557
245	0x3d6fafbf	0.058517214
246	0xbe47ad04	-0.19499594
247	0x3dab28e8	0.083574116
248	0xbe4b02f2	-0.19825342
249	0xbd3a7edc	-0.04553114
250	0x3d77dd06	0.06051352
251	0xbda98e9c	-0.08279154
252	0x3db0f4ae	0.08640419
253	0x3e2889a3	0.16458754
254	0x3de89af2	0.113576785
255	0x3d72d0dd	0.05928122

bn1.weight f4 [400]
0	0x3f5c0ef0	0.8596029
1	0x3f705c63	0.9389097
2	0x3f8f43fb	1.1192621
3	0x3f57a61f	0.84237856
4	0x3f94fabb	1.1639017
5	0x3f6f8554	0.9356282
6	0x3f7388df	0.95130724
7	0x3f5b604e	0.85693824
8	0x3f897943	1.0740131
9	0x3f8b69a2	1.0891612
10	0x3f66e738	0.9019656
11	0x3f7490f7	0.955337
12	0x3f5ed491	0.870431
13	0x3f8f8dff	1.1215209
14	0x3f6b6576	0.9195169
15	0x3f687e97	0.9081816
16	0x3f85df73	1.0458816
17	0x3f967a65	1.1756102
18	0x3f8053da	1.002559
19	0x3f652b56	0.8951925
20	0x3f6c0b8e	0.9220513
21	0x3f827932	1.0193236
22	0x3f948bbb	1.1605142
23	0x3f54d624	0.8313925
24	0x3f980e86	1.1879432
25	0x3f85199a	1.0398438
26	0x3f6c54a4	0.9231665
27	0x3f3c539f	0.73565096
28	0x3f583c2b	0.8446681
29	0x3f6127ee	0.8795155
30	0x3f6dff0f	0.92967314
31	0x3f7cd694	0.9876492
32	0x3f6b3f47	0.9189343
33	0x3f7f97f4	0.9984124
34	0x3f3dd5c4	0.74154305
35	0x3f50535c	0.81377196
36	0x3f857555	1.0426432
37	0x3fa85732	1.315161
38	0x3f6ac1b5	0.91701823
39	0x3f78aca6	0.9713844
40	0x3fa8f3bf	1.3199385
41	0x3f5c1f61	0.8598538
42	0x3f688042	0.90820706
43	0x3faff5f6	1.3746936
44	0x3f614a5c	0.8800409
45	0x3f6662e9	0.89994675
46	0x3f8a9b41	1.082863
47	0x3f80c31b	1.0059541
48	0x3f549ec3	0.8305475
49	0x3f74924f	0.9553575
50	0x3f572e9e	0.8405551
51	0x3f7d0724	0.9883902
52	0x3f825469	1.018201
53	0x3f718609	0.94345146
54	0x3f710df3	0.9416191
55	0x3f9982e2	1.1993067
56	0x3f67a5e7	0.9048752
57	0x3f7e94c7	0.99445766
58	0x3f717647	0.943211
59	0x3f873a11	1.0564595
60	0x3f704fa8	0.93871546
61	0x3f6437ff	0.89147943
62	0x3fb5dad7	1.420741
63	0x3f674ab4	0.9034836
64	0x3f65206b	0.8950259
65	0x3f9eb4e1	1.239895
66	0x3f56f931	0.83973986
67	0x3f652f0c	0.8952491
68	0x3f6d3a01	0.9266663
69	0x3f723d99	0.9462524
70	0x3f7d4bd2	0.9894382
71	0x3f976faa	1.1830952
72	0x3f6b6d9e	0.9196414
73	0x3f79811c	0.9746263
74	0x3f59018e	0.84768
75	0x3f7957e4	0.97399735
76	0x3f7670ac	0.96265674
77	0x3f7ba3ff	0.98297113
78	0x3f589d29	0.8461481
79	0x3f7a0705	0.9766696
80	0x3f7d7bf1	0.99017245
81	0x3f624720	0.8838978
82	0x3f6f7eb7	0.93552727
83	0x3f9d7a58	1.2302961
84	0x3f706593	0.9390499
85	0x3f912094	1.1338067
86	0x3f7c2116	0.98487985
87	0x3f807508	1.0035715
88	0x3f821a72	1.016432
89	0x3f67176a	0.902701
90	0x3f62ac52	0.8854419
91	0x3f936a85	1.1516882
92	0x3f9e108f	1.2348803
93	0x3f6c44b8	0.92292356
94	0x3f8791b8	1.0591345
95	0x3f604867	0.8761048
96	0x3f862f5e	1.0483205
97	0x3f706b44	0.93913674
98	0x3f4efc81	0.8085404
99	0x3f5911f6	0.8479303
100	0x3f5f5823	0.8724386
101	0x3f8c1437	1.0943669
102	0x3f7d64f7	0.98982185
103	0x3f6fcfa9	0.9367624
104	0x3f7464d4	0.9546635
105	0x3f7556e1	0.9583569
106	0x3f50e820	0.81604195
107	0x3f75aaa3	0.95963496
108	0x3f5f9a4e	0.87344825
109	0x3f7e6947	0.9937939
110	0x3f5b0b8e	0.85564506
111	0x3f6aa3b8	0.91656065
112	0x3f6afe0b	0.9179389
113	0x3f650264	0.8945677
114	0x3f560938	0.83607817
115	0x3f6ffec3	0.9374811
116	0x3f713482	0.94220746
117	0x3f819874	1.012465
118	0x3f67cb82	0.90544903
119	0x3f7cd83f	0.98767465
120	0x3f6f5dae	0.9350232
121	0x3f7c2fca	0.9851042
122	0x3f796bbc	0.97430015
123	0x3f6304cf	0.8867921
124	0x3f9450bd	1.1587139
125	0x3f831bf6	1.0242908
126	0x3f530597	0.82430404
127	0x3f5bb18b	0.85817784
128	0x3f832aac	1.0247397
129	0x3f7ebbe9	0.9950548
130	0x3f909101	1.1294252
131	0x3f95b7a3	1.1696666
132	0x3f4f8199	0.81057125
133	0x3f6a0bba	0.91424143
134	0x3f6d8708	0.92784166
135	0x3f6da1db	0.92825097
136	0x3f680fa2	0.90648854
137	0x3f55ec50	0.8356371
138	0x3f7cab14	0.98698545
139	0x3f56caa9	0.83902985
140	0x3f5fea06	0.87466466
141	0x3f5e4e3a	0.86838114
142	0x3f668314	0.9004376
143	0x3f8e1f56	1.1103313
144	0x3f63b988	0.88954973
145	0x3f84602f	1.0341853
146	0x3f7afa12	0.98037827
147	0x3f72d241	0.9485207
148	0x3f7c082c	0.9844997
149	0x3f4f6c53	0.81024665
150	0x3f679862	0.9046689
151	0x3f6f2397	0.9341368
152	0x3f8b7a93	1.0896782
153	0x3f626bfb	0.88446015
154	0x3f819d7e	1.0126188
155	0x3f48870c	0.78331065
156	0x3f6c8f31	0.9240599
157	0x3f8165bd	1.0109173
158	0x3f52c1d2	0.82326996
159	0x3f837c29	1.0272266
160	0x3f670462	0.9024106
161	0x3f535c05	0.82562286
162	0x3f9b8267	1.2149171
163	0x3f8d4b3b	1.1038584
164	0x3f793db2	0.97359765
165	0x3f4a7fa4	0.79101014
166	0x3f8a5a63	1.0808834
167	0x3f72846a	0.947333
168	0x3f816c24	1.0111127
169	0x3f8af77a	1.0856774
170	0x3f6daa52	0.92838013
171	0x3f4caee8	0.79954386
172	0x3f5580bf	0.83399576
173	0x3f668438	0.900455
174	0x3f6a79d6	0.91592157
175	0x3f665437	0.8997225
176	0x3f69ac4b	0.91278523
177	0x3f659411	0.89679056
178	0x3f4fdaf1	0.81193453
179	0x3f62f467	0.8865418
180	0x3f743745	0.95396835
181	0x3f595010	0.8488779
182	0x3f63c6b2	0.8897506
183	0x3f67cc50	0.9054613
184	0x3f5e2ada	0.86784136
185	0x3f8e7ecb	1.1132444
186	0x3f574982	0.8409654
187	0x3f5a49d4	0.852689
188	0x3f59e6a3	0.8511755
189	0x3fa43b94	1.2830682
190	0x3f598195	0.8496335
191	0x3f5c7437	0.8611483
192	0x3f7ecc86	0.9953083
193	0x3f5ca87d	0.8619459
194	0x3f7e56ad	0.99351007
195	0x3f5aa951	0.85414606
196	0x3f9e16ee	1.2350748
197	0x3f70ecce	0.94111335
198	0x3f81c8ac	1.0139365
199	0x3f5fb6a5	0.8738807
200	0x3f7c74d2	0.98615754
201	0x3f56663c	0.8374975
202	0x3f93b208	1.1538706
203	0x3f6dc4fc	0.928787
204	0x3f7dc024	0.9912131
205	0x3f779d9d	0.96724874
206	0x3f6bf2e9	0.92167526
207	0x3f55af4c	0.83470607
208	0x3f78e466	0.9722351
209	0x3f81323b	1.0093454
210	0x3f575b09	0.84123284
211	0x3f60ea44	0.8785746
212	0x3f834af8	1.0257254
213	0x3f6288e3	0.8849012
214	0x3f7b81aa	0.98244727
215	0x3f8496fa	1.0358574
216	0x3f8b2e14	1.0873437
217	0x3f9f4b1a	1.2444794
218	0x3f6f3872	0.93445504
219	0x3f7c4ae1	0.98551756
220	0x3f5de45c	0.86676574
221	0x3f6b4ac7	0.91910976
222	0x3f75e0bc	0.9604604
223	0x3f6786db	0.9044015
224	0x3f856044	1.0420003
225	0x3f674184	0.90334344
226	0x3f781ed6	0.9692205
227	0x3f5ac596	0.8545774
228	0x3f6cc4a2	0.9248754
229	0x3f7ac15f	0.9795131
230	0x3f534226	0.8252281
231	0x3f7843e6	0.96978605
232	0x3f6b33e0	0.9187603
233	0x3f7e9f4a	0.99461806
234	0x3f672547	0.90291256
235	0x3f853363	1.0406307
236	0x3f729f9b	0.9477479
237	0x3f5aeb10	0.85514927
238	0x3f6a2222	0.9145833
239	0x3f8344a9	1.0255328
240	0x3f6d96e3	0.9280836
241	0x3f4f63df	0.81011766
242	0x3f7434ae	0.9539288
243	0x3f7b80fe	0.982437
244	0x3f7f4639	0.99716526
245	0x3f84c2bf	1.0371932
246	0x3f6630f0	0.8991842
247	0x3f56a8e8	0.8385148
248	0x3f7617c6	0.96130025
249	0x3f7850e7	0.9699845
250	0x3f5ea340	0.8696785
251	0x3f5a299b	0.85219735
252	0x3f8b130f	1.0865191
253	0x3f7070c5	0.9392207
254	0x3f5aa3e2	0.85406315
255	0x3f70bb41	0.94035727

bn1.bias f4 [400]
0	0xbed87e52	-0.42283875
1	0x3e9aa49c	0.30203712
2	0xbe7e2817	-0.2481998
3	0xbeb78aec	-0.35848176
4	0xbe682037	-0.22668539
5	0x3ca0a6ec	0.019610845
6	0xbea6b781	-0.32561877
7	0xbe8a616d	-0.27027455
8	0xbcfff2f5	-0.03124378
9	0xbde0a536	-0.109690115
10	0xbeb962e8	-0.36208272
11	0xbe9a663a	-0.30156118
12	0xbd8d6aab	-0.06905111
13	0x3e6ddb0a	0.23228088
14	0xbd95fb9f	-0.073233835
15	0x3e2f928d	0.17145748
16	0xbeac957e	-0.33707803
17	0xbe8847da	-0.26617318
18	0x3e53da10	0.20688653
19	0xbe929020	-0.28625584
20	0x3da285c4	0.0793567
21	0xbec7e99a	-0.3904541
22	0x3e74b180	0.23895836
23	0xbe9a2894	-0.30109084
24	0x3e004f16	0.12530169
25	0xbe58d44f	-0.2117474
26	0x3e591633	0.21199875
27	0xbf0575cc	-0.5213287
28	0xbe8ab733	-0.27092895
29	0xbe3d2718	-0.18471944
30	0xbede7dbd	-0.43455306
31	0x3e089387	0.13337527
32	0xbe97a359	-0.29616812
33	0xbeaa45e5	-0.3325645
34	0xbec07d25	-0.37595478
35	0xbeaccfa2	-0.3375216
36	0xbe71a7ef	-0.23599218
37	0xbdd22634	-0.10261193
38	0xbead756e	-0.33878654
39	0xbe4e34e0	-0.20137358
40	0xbd53d0c8	-0.05171278
41	0xbe9a2570	-0.30106688
42	0xbe144767	-0.14480363
43	0xbda7717e	-0.08175944
44	0xbec06004	-0.37573254
45	0x3e5f9519	0.2183422
46	0x3d0a712e	0.033799343
47	0x3e4e843d	0.20167632
48	0xbea0b371	-0.31386903
49	0x3ddbf6d3	0.10740437
50	0xbee53cb8	-0.44772887
51	0xbe53c978	-0.20682323
52	0xbe88f98d	-0.26752892
53	0xbe9ce61a	-0.30644304
54	0x3ea2c823	0.31793317
55	0xbe1c6d7d	-0.15276141
56	0x3e3eca0e	0.18631765
57	0x3e3c6dcf	0.18401264
58	0xbdbbb102	-0.09164621
59	0xbcc6c679	-0.024264561
60	0x3ce14f70	0.027503699
61	0xbe8da0ae	-0.2766165
62	0xbe092db1	-0.13396336
63	0xbe8f7632	-0.28019863
64	0xbee1b4bb	-0.440832
65	0xbe8c6f2b	-0.27428564
66	0xbf03a656	-0.51425683
67	0xbf005c18	-0.50140524
68	0xbe9c24b0	-0.3049674
69	0x3e46632e	0.19373772
70	0xbe8f7b92	-0.28023964
71	0x3b340b68	0.002747262
72	0xbd0e3efa	-0.034728028
73	0x3e4a9c7e	0.1978626
74	0xbe476e9e	-0.19475791
75	0xbeb01106	-0.34387988
76	0xbd7721e8	-0.06033507
77	0x3e55d59a	0.20882264
78	0xbecdbd30	-0.401834
79	0x3e5dc1e9	0.21656002
80	0xbe969ff2	-0.29418904
81	0x3df18b15	0.11794106
82	0x3d867fa2	0.06567313
83	0xbe802cf1	-0.25034288
84	0x3e6bb5ab	0.2301852
85	0xbe8cc9fe	-0.27497858
86	0xbc46690f	-0.012110009
87	0x3d769bac	0.060207054
88	0x3d323b51	0.0435136
89	0xbea51c4a	-0.32248145
90	0xbd5029b3	-0.050821017
91	0x3cb18a95	0.021672526
92	0xbe894fec	-0.26818788
93	0xbea61cfc	-0.32443988
94	0xbda94a5c	-0.08266136
95	0xbe92aad8	-0.28645968
96	0xbcc50d2f	-0.024054138
97	0xbe94dd13	-0.29074916
98	0xbe1f0ed6	-0.15533003
99	0x3cf59b6c	0.029981337
100	0xbe0d9732	-0.13827208
101	0x3d66d397	0.05635413
102	0x3dbf7119	0.093477435
103	0xbeb460fb	-0.3523024
104	0x3dd2f5ef	0.10300814
105	0x3e0c3147	0.13690673
106	0xbeb89de6	-0.36057967
107	0xbe81ca6a	-0.25349742
108	0xbeedd72b	-0.46453223
109	0xbe805d18	-0.25071025
110	0xbf02d586	-0.5110706
111	0x3d97c915	0.074114
112	0xbe6ca45e	-0.23109576
113	0xbd19bc1b	-0.037532907
114	0xbeb08eab	-0.34483847
115	0xbe5b1c23	-0.21397452
116	0x3e718389	0.23585333
117	0xbe998c78	-0.29989982
118	0xbd200be8	-0.039073855
119	0x3e62248e	0.22084257
120	0xbe30f288	-0.17280018
121	0xbe52cb4f	-0.20585369
122	0x3d2d5de3	0.042325865
123	0xbeb3467b	-0.3501471
124	0xbe3dd4f4	-0.18538266
125	0x3a748f0a	0.0009329176
126	0xbdd0d5da	-0.10197039
127	0xbe3d4754	-0.18484241
128	0xbe640333	-0.22266845
129	0xbc9be95b	-0.019032171
130	0xbcb20741	-0.021731975
131	0xbd93a621	-0.07209421
132	0xbe64e752	-0.22353867
133	0xbe8d9e75	-0.27659956
134	0xbe6d379b	-0.23165743
135	0x3e1accc9	0.15117182
136	0xbe83f7d2	-0.2577501
137	0xbe8690ff	-0.26282498
138	0x3beaafa3	0.007162051
139	0xbe87b565	-0.2650558
140	0xbe8ecbb0	-0.27889776
141	0xbe3d1a64	-0.18467098
142	0xbea69bcc	-0.3254074
143	0xbd83b5a8	-0.064311326
144	0xbede984d	-0.4347557
145	0xbe948c64	-0.2901336
146	0x3dc97891	0.09837449
147	0xbce45a6e	-0.027875151
148	0x3e6f2970	0.23355651
149	0xbec3aec7	-0.38219282
150	0x3c19dbc2	0.009390773
151	0xbd974c54	-0.07387605
152	0xbcebd3a3	-0.02878744
153	0xbebb9add	-0.3664159
154	0x3e1e9c31	0.1548927
155	0xbe8e6f54	-0.27819312
156	0xbeac9b3c	-0.33712184
157	0xbea1ba14	-0.3158728
158	0xbdf7316b	-0.120699726
159	0xbeca8314	-0.3955313
160	0xbb907ba1	-0.004409269
161	0xbe8320b4	-0.25610888
162	0xbdda4816	-0.106582806
163	0xbdfdd20b	-0.12393578
164	0x3e3c6f25	0.18401773
165	0xbe3df199	-0.18549193
166	0xbeacbd16	-0.3373801
167	0xbeaf1e6b	-0.34202895
168	0xbe86c7a8	-0.263242
169	0xbe25f9d2	-0.1620858
170	0xbea9a918	-0.3313682
171	0xbe7b29b6	-0.2452763
172	0xbeb486b5	-0.35259023
173	0xbe91bf81	-0.28466418
174	0xbeac0308	-0.33596063
175	0x3e56f725	0.20992716
176	0xbead7714	-0.33879912
177	0xbed24dda	-0.4107502
178	0xbe18a7b3	-0.14907722
179	0xbee56cd4	-0.44809592
180	0x3e7cb615	0.24678834
181	0xbe2e89f4	-0.17044812
182	0xbeb01d73	-0.34397468
183	0xbe6e5e97	-0.2327827
184	0xbe168a50	-0.147012
185	0xba9112a8	-0.0011068182
186	0xbeaf1977	-0.34199116
187	0xbe0d1315	-0.1377681
188	0xbe6005b5	-0.21877177
189	0xbe43f8c6	-0.19137868
190	0xbe946392	-0.28982216
191	0xbec74fab	-0.3892797
192	0xbda863d3	-0.08222165
193	0xbeccd3e4	-0.4000541
194	0xbeb8c84c	-0.36090314
195	0xbe3791cf	-0.17926715
196	0xbdc8beed	-0.09802041
197	0x3e144a66	0.14481506
198	0xbdf4f331	-0.119604476
199	0xbe58c644	-0.21169382
200	0x3ea1d611	0.31608632
201	0xbe63d587	-0.22249423
202	0xbe666184	-0.22498137
203	0xbe88df89	-0.26733044
204	0xbe9bbed3	-0.30419025
205	0xbe038163	-0.12842326
206	0xbec8576b	-0.39129195
207	0xbec8fdb0	-0.39256048
208	0xbe82db0d	-0.25557747
209	0x3d6843e5	0.056705374
210	0xbe8d593a	-0.27607137
211	0xbe9acc32	-0.30233914
212	0x3e34064f	0.17580532
213	0x3e3f7092	0.18695286
214	0x3dfd1e0a	0.12359245
215	0xbd934ca7	-0.07192355
216	0x3e51af46	0.20477018
217	0xbe0287ba	-0.12747088
218	0x3e18dcb9	0.14927949
219	0xbe663e21	-0.22484638
220	0xbe86f4f1	-0.2635875
221	0x3d51b75f	0.051200267
222	0x3e124b26	0.1428648
223	0xbeb06f82	-0.34460074
224	0x3d1973c8	0.037463933
225	0x3dc084ac	0.09400305
226	0x3e7d81da	0.24756566
227	0x3d9afffd	0.07568357
228	0xbe65065a	-0.22365704
229	0x3e64f2ae	0.223582
230	0xbebdfe7c	-0.3710822
231	0x3e8d6f90	0.27624178
232	0xbed5aa39	-0.41731432
233	0xbe56da66	-0.2098175
234	0xbe97e705	-0.2966844
235	0xbc7f0000	-0.015563965
236	0x3e3d2a7d	0.18473239
237	0xbeabc97b	-0.33552155
238	0xbe258bd2	-0.16166618
239	0xbdeaf6d9	-0.11472864
240	0xbe4c4889	-0.19949545
241	0xbec7c0e6	-0.39014357
242	0x3d94bc7b	0.07262512
243	0xbea638ec	-0.32465303
244	0xbe4f1478	-0.20222652
245	0xbe96620e	-0.29371685
246	0xbeac9859	-0.33709982
247	0xbe25bfb1	-0.16186406
248	0xbe00d5a9	-0.12581505
249	0x3e42e892	0.19034031
250	0xbe993fbe	-0.29931444
251	0xbecbd004	-0.3980714
252	0x3e804891	0.25055364
253	0x3e8ebc3e	0.27877992
254	0xbedefb58	-0.43551135
255	0xbe661296	-0.22468027
