checkpoint_actor_GPU.pth (torch_old, 548258 bytes, 10 tensors)

fc1.weight f4 [400, 33]
00000000: 4080 73bd 0483 193d 67f5 9e3c 3c55 3a3c
00000010: fabe adbd 4e08 d5bd 250e 2b3e ecfa 80bd
00000020: 50f2 0bbd fe95 0f3d b1ba c63d aa0c 873c
00000030: a832 b93d 9f5f 1bbb 605a c03d 4f7b fe3c
00000040: 7efb 7a3d b6fd a73d 55e6 ec3d 28a6 513d
00000050: c497 3ebb c407 4ebd 2a82 3abd 0271 113d
00000060: 900f 71bd 6920 ee3c b512 c73d 7c93 2dbd
00000070: 505a 713d a076 28bb 2903 fcbc 82c2 863c
00000080: aa02 3fbe bed5 383d dff2 ba3c 1a56 d63d
00000090: 495f a8bd fe6d e83d be09 b73d a785 a5bd
000000a0: e488 50bc 602d 76bd 6934 133d bd27 9e3d
000000b0: 780b 2f3d 1712 363d 099c 823d 4488 a53d
000000c0: 277f 74bd 115b a8bd 225e d93d b0de 05be
000000d0: f093 793d 63c1 5d3d 5e3f 8cbc 0fc7 e7bb
000000e0: 280e 4a3d ccd0 7a3d 6c66 b8bc 6c45 d0bd
000000f0: bea2 58bc 9777 523a c257 ed3c c9f0 04bb
00000100: adfa a0bc 6d1c a13d 5263 2cbd 7263 7ebd
00000110: 1139 bdbb 3050 4c3d 0ca9 dabc 4555 3d3d
00000120: b3b3 853c 09f9 863b 7f8f 093d da56 bebc
00000130: c8ba c5bb 67df babc afe3 fabb 3bc9 2d3c
00000140: 1e0b 103d efb6 0abd 2619 5d3d cbf5 6fbc
00000150: a95a a63d fec5 b53c aab4 083d 5c92 9d3c
00000160: d2bf a8bc 67e0 1e3d 2604 ad3c d05f 753c
00000170: b48f 6c3d 4059 e2bc 3437 89bc 0d64 acbc
00000180: e6c6 9bb9 d3c6 f5bc 2f56 1d3f 7dc7 343b
00000190: 09d7 6dbb f894 9b3d b887 39be f6b1 c6bb
000001a0: 149c 3fbd 83b4 2eba 88f6 bcbd 3c8e 19bd
000001b0: f0ca a83a 3138 eabd a2d2 e63d b0d4 913c
000001c0: 489d 2fbc c4e4 0d3e 5610 b4ba 07b0 e7bd
000001d0: 00af b43d 7b8c 44be b505 d13c b8f9 a3bc
000001e0: e7f1 30bd 9919 b0bd 2352 383d 86ee debc
000001f0: 85eb 3bbd ba51 a23c 3c08 dbbc f81c 18bc
00000200: 5370 b1bc 2f5d f43c a29e 19bd ba32 503e
00000210: 433b 2a3e 546b cabd 7e0b 57bd 5bab 3fbe
00000220: 706e 68bd e7bf 9d3b defb 6ebd 666a d43c
00000230: aabc 043d 59a3 92bd 30f7 9cbc a966 9b3d
00000240: 3a9d e3bc b9c7 82bd 8a69 49bd f509 06bd
00000250: d5c3 65bd da51 a33d bf96 45bc db31 9cbd
00000260: 41fb 6bbd f36d d73b 748a a83c 77af 04bc
00000270: 1dcc 82bd 6093 b1bd 3830 5fb9 3d1f 1abd
00000280: 2fae babc caa7 1bbd 975a 863b c858 123c
00000290: 2be1 e2bd 4620 d5bb a5a9 ac3b 4baa edba
000002a0: d154 37be 21fd 68bc 7053 173e 71b0 c03d
000002b0: 6977 463d 842e aebb e0fa 0abe 8713 94bd
000002c0: 1ffd 933d 2646 9ebd a4b6 b3bc 5ab2 d3bd
000002d0: f2d4 983b 42c9 b0bc 5d9f 493d ddcb 66bb
000002e0: b105 b73d ac03 413d e71e 9a3c c7d2 edbd
000002f0: 0c1a 93bc 120d 84bd 6900 f73a c44f 0b3c
00000300: b2cb e5bc e8ef 98bd 22aa 05bd 946d 32bd
00000310: 1167 013d be09 a0bd 8bef 12bd 0745 043d
00000320: f545 4abc 4060 3f3d d99e e13c d2f4 703e
00000330: 1b36 833d 12b3 07bd 2d25 883d d517 2c3d
00000340: 9003 463d 6f96 173d f81a 943d 0ae5 9d3c
00000350: 81fd 0e3c 8585 7dbd f956 2b3e 10ee 14bd
00000360: ad87 443d 5ad4 bebb f2a6 4cbd aaca dd3c
00000370: 79af 87bd 5e0f 3fbd f636 d4bc 5980 8e3d
00000380: 316f e33b 31d8 2dbc 9848 063e d4f3 533c
00000390: 570b 263d c049 25bd fe37 273e ebeb 9bbd
000003a0: 96dd bf3d 0c1b 853d 3425 aa3d ffe6 113e
000003b0: 9cc5 c8bd 0842 d33d 152b 043d a7c9 24bd
000003c0: 615b ec3c a843 a33d a0d7 813b 84fb 043c
000003d0: d4ea 8d3d 7a96 26bd 4056 743d 8b6e 0abe
000003e0: ebc5 c5bd 902b 1ebc 2fb1 d0bd 0bdd 863b
000003f0: 6fac b6bd 6d00 49bd a3b8 e53d f0ba f53b
-0.05944848 0.03747846 0.019404126 0.0113728605 -0.084836915 -0.104019746 0.16704614 -0.062978595
-0.034166634 0.035055153 0.09703577 0.01648553 0.09042865 -0.0023708118 0.09392238 0.031064657
0.061274998 0.082026884 0.1156737 0.05118385 -0.0029082159 -0.050300375 -0.04553429 0.035508163
-0.058852732 0.029068189 0.09720365 -0.04237698 0.05892402 -0.0025705472 -0.030763226 0.01645017
-0.1865336 0.045125715 0.022820888 0.10465641 -0.08221299 0.11349104 0.08937405 -0.08082133
-0.01272795 -0.060101867 0.035938654 0.07722423 0.042735547 0.044450846 0.063774176 0.08082631
-0.059691574 -0.082204945 0.106136575 -0.1307323 0.0609321 0.054139506 -0.01712006 -0.00707329
0.049329907 0.06123428 -0.022509776 -0.10169491 -0.0132223945 0.00080286845 0.02897251 -0.002028512
-0.019650782 0.0786675 -0.042086907 -0.062106557 -0.005774625 0.04988116 -0.026691936 0.046223897
0.016321039 0.004119043 0.033584114 -0.023234773 -0.006034229 -0.022811605 -0.0076565365 0.010607059
0.035166852 -0.033865865 0.05397906 -0.014646004 0.08122761 0.022189137 0.03337542 0.019234829
-0.02059928 0.038788226 0.021120142 0.014976457 0.057754233 -0.027630448 -0.016749956 -0.021043802
-0.00029712095 -0.030002033 0.6145963 0.0027584725 -0.00362915 0.07596773 -0.18118179 -0.006063695
-0.046779707 -0.00066644716 -0.092267096 -0.03748916 0.0012877863 -0.11436499 0.11270644 0.017801613
-0.010718651 0.13856798 -0.0013737779 -0.113128714 0.08822441 -0.19194214 0.025515417 -0.020016536
-0.043199446 -0.08598632 0.045000207 -0.027213346 -0.045878906 0.01981436 -0.026737325 -0.00928425
-0.021660006 0.02982959 -0.0375048 0.2033185 0.16624169 -0.098837525 -0.052501194 -0.1871771
-0.056745946 0.0048141363 -0.058345668 0.025929641 0.032406487 -0.07160062 -0.019160837 0.0758794
-0.027784932 -0.0638575 -0.049172916 -0.03272434 -0.056094963 0.07974596 -0.012059866 -0.07626697
-0.05761266 0.0065743863 0.020573832 -0.008098475 -0.06386588 -0.08670688 -0.000212849 -0.037627447
-0.022788135 -0.038001813 0.0041001546 0.0089323 -0.11078104 -0.0065040914 0.0052692466 -0.0018132416
-0.17903449 -0.014220507 0.14777923 0.094086535 0.048453722 -0.0053156037 -0.13572264 -0.07230287
0.072260134 -0.077282235 -0.021937676 -0.10336752 0.004664057 -0.021580342 0.049224246 -0.0035216727
0.089366324 0.047122642 0.018813564 -0.11612468 -0.017956756 -0.064478055 0.0018844727 0.008502904
-0.028051231 -0.074676335 -0.032632954 -0.043561533 0.031592432 -0.07814358 -0.035872977 0.032292392
-0.012345781 0.04672265 0.027541565 0.23530892 0.06406804 -0.03312976 0.06647716 0.042014915
0.04834324 0.0370087 0.072317064 0.019274253 0.008727432 -0.061894912 0.16732396 -0.036359847
0.047980953 -0.005823654 -0.0499639 0.027074177 -0.06625266 -0.046645515 -0.025905114 0.06958074
0.0069407453 -0.010610626 0.1311363 0.012936551 0.04053816 -0.040353537 0.16329953 -0.07613357
0.09368436 0.064992994 0.08307877 0.14248274 -0.09803316 0.10315329 0.03226765 -0.040231373
0.028852167 0.07971889 0.003962472 0.008116607 0.069295555 -0.04067085 0.059652567 -0.13518731
-0.096568905 -0.009653941 -0.10190045 0.004115706 -0.08919608 -0.04907267 0.11216857 0.0074990913

fc1.bias f4 [400]
00000000: 2926 483d 6d0c 1f3e 5f87 bb3d c90f ee3c
00000010: d764 f1bd b910 ee3d a0e4 2239 7090 6c3d
00000020: 12b3 aabd 7460 14be 43dd 1ebe 7ae6 56bd
00000030: b06b 04be 1553 1abe 5594 2f3e 4a40 8d3d
00000040: 92f4 bcbc ecb4 1dbe b50b fdbd 5727 28be
00000050: e0f5 31bd a960 fd3d ee78 bbbc 8d3d 1e3d
00000060: acd9 50bc 7c32 d83d 9070 2a3e 1704 91bd
00000070: 9d38 09be a317 d13d 22ed eb3d b97d 623c
00000080: 9d2f a0bd 6d73 28bd 3fd7 c93d 9307 553d
00000090: 7925 78bd 9efd 4a3d d42a 5f3d ecc3 4cbd
000000a0: ea7d ccbd bd18 2e3d 865c 2f3d a8f0 2c3e
000000b0: 0837 ebbc 08b9 d23c cdf0 1d3d 1618 a03d
000000c0: 5e72 a73d dd8d f8bd 5063 173e 35e2 0b3d
000000d0: c9f0 313e aa6a 09be 61bc 1e3e be7d 023e
000000e0: 8c20 88bd eb7b 24be 64d2 e83c 69b8 d93d
000000f0: 411f b6bd 8503 943d 130e e03c 7362 173e
00000100: 36b5 2d3e 2cf5 a13d 2413 f9bc e0af 6ebd
00000110: 0f4d fb3d f455 c0bd 859c 84bd 8b82 d0bd
00000120: f0bb 31be 0c76 203e eca2 e43d 2d03 923d
00000130: ca90 033e 8d35 fe3d 6536 f63d 7e64 e8bd
00000140: 169e e83d 0ef9 49bc 170d 2b3e 63df 1c3e
00000150: a764 1f3d 5616 c0bd 4cce 273e 8693 30be
00000160: 4f14 99bd 6ac5 533d c4bb a43c 601b 07be
00000170: c844 d0bd 4d08 0b3d e48e 09bd 4dcf 0fbe
00000180: f696 ce3d 8f64 033e eb63 8abc b890 b43d
00000190: 4edb 133d d4e9 c53d 6176 8f3a 7938 583d
000001a0: 47f5 f73d b2c3 5dbd 312d 003e 5f94 473d
000001b0: e645 10be 8ea5 0d3e 3ab9 8bbd f575 2ebe
000001c0: 3189 34bd 8942 30be 097b 4cbd 02a1 30bd
000001d0: ce55 00be a83b 113e 6c89 de3d 729e b33d
000001e0: 0b95 243e ad8e 90bd 9a11 893d 93b5 043e
000001f0: bbb3 0e3e 8294 823d 7c75 a33d 0df6 203e
00000200: bbe5 143e e11c 0ebe 3a5c 123e 7e26 8cbd
00000210: d938 e73d 7cba 2dbe 7301 1f3e 1dad 143e
00000220: b3a5 4bbd 89c2 223e b592 0f3d d449 ebbd
00000230: 02a6 8c3d 383e e1bd c45d babd 705f 193e
00000240: cbf0 a93b a1b8 c1bd 6ba5 2abe a4cb 12bc
00000250: 91b6 a03c 4213 f8bc 89ea 003c a7c3 113e
00000260: cdd7 22be b25b 253d b54a a4bc 7e16 1dbe
00000270: d829 2dbe 3304 04bc 77c0 2bbe f247 303e
00000280: 6eb6 18be f9d9 a0bb b82d 89bb 0077 d0bd
00000290: 41b2 263e 9f3b cebc df97 88bd 163f 103e
000002a0: 8991 683d 3dc1 56bd ac02 2dbe 917a 09bd
000002b0: fa71 31bd 81ef 42bd f7db d33d 95d4 55bc
000002c0: 7a34 433d c676 113e 7bca 3a3b 2618 283e
000002d0: 0cb4 953d 4e47 05be f1e4 b23d e0a6 93bd
000002e0: f7ba 0c3e 7126 4b3d 104e d7bd d182 d7bd
000002f0: 349d 30be c989 2abe d881 e2bd 45d0 363d
00000300: ed69 4cbd 3a2c 0a3d fd2b 18be 00b1 66ba
00000310: 219d a8bd 2132 3a3d 0267 f7bd 4d02 ab3d
00000320: 098b 94bd a7c9 9d3c 0e8a 97bd e4b9 173e
00000330: a1ab 863c 6549 ad3d eea3 8cbd 45e1 0e3e
00000340: d1df 83bd 2fe2 e23d 46ea 2a3e 076f b3bd
00000350: bcf7 203d e3b2 103d e319 2bba 9a41 9a3d
00000360: f7c8 1d3e 42cb abba 6b33 2e3d 1550 dd3d
00000370: 6e8d 12be f42a d23d c3b8 af3b 2f8c 01be
00000380: f5af 923d c58d a3bd e01e 03be 1e7a 68bd
00000390: 9978 b93c 877d cd3d ba87 9dbd 1f48 153e
000003a0: 114d fdbd fe52 02be 94cc 8b3d 807e 273e
000003b0: a2fc 063e 8394 003e c06b 2c3c 0b3c 7dbd
000003c0: c483 04be e245 febd 6f47 5d3d dbc9 49bc
000003d0: 9ba7 e2bc a306 08bd 8594 a3b9 a5ff d0bd
000003e0: 9ece 21bd f62f 123e a060 bdbd ff2d 54bc
000003f0: 56c5 0cbe 79ec 8ebd 9e6e 713d c881 9a3d
0.048864517 0.15532084 0.09156679 0.029060261 -0.11786812 0.11624283 0.00015534693 0.057754934
-0.08334936 -0.14489919 -0.15514092 -0.052465893 -0.12931705 -0.15070756 0.17146428 0.06897028
-0.023065839 -0.15401047 -0.123557486 -0.16421257 -0.043447375 0.12371952 -0.022884812 0.03863292
-0.0127472095 0.10556504 0.16644502 -0.07080858 -0.13400503 0.102095865 0.11519839 0.01382392
-0.078215815 -0.041125704 0.09855508 0.052009176 -0.06058261 0.049558274 0.054484203 -0.049991533
-0.09984954 0.04250406 0.042812847 0.16888678 -0.028712764 0.025722995 0.038559724 0.07817094
0.08176111 -0.12136433 0.14783978 0.034151275 0.17377008 -0.13419595 0.15501548 0.1274328
-0.06646833 -0.16062896 0.028420635 0.106308766 -0.0889268 0.07227234 0.027350461 0.14783649
0.16963658 0.07908091 -0.030404635 -0.058273196 0.12270557 -0.09391394 -0.06475166 -0.10181149
-0.17356849 0.15670031 0.111638874 0.07129512 0.12848201 0.12412558 0.12022094 -0.11347292
0.113582775 -0.012327446 0.16704212 0.1531959 0.03891435 -0.0937926 0.1638729 -0.17243776
-0.07474577 0.05170194 0.020109065 -0.13194036 -0.10169369 0.033943463 -0.033583537 -0.14043923
0.10087387 0.12831329 -0.016893348 0.088166654 0.036097817 0.0966374 0.0010945314 0.05278823
0.1210733 -0.054141708 0.12517239 0.048725482 -0.14089164 0.13832685 -0.068224385 -0.17037185
-0.04407615 -0.17212881 -0.049922023 -0.0431223 -0.12532732 0.14182913 0.10866055 0.087704554
0.1607248 -0.07058463 0.0669281 0.1295989 0.13935749 0.06375982 0.07981393 0.15718861
0.1454076 -0.13878204 0.14292994 -0.06843279 0.1129014 -0.1696567 0.15527897 0.14519162
-0.04971857 0.15894522 0.03505202 -0.11488691 0.06867601 -0.109981954 -0.090999156 0.14977813
0.0051861755 -0.09459043 -0.16664664 -0.0089596845 0.019618304 -0.03028262 0.007868418 0.14234792
-0.15902634 0.04037065 -0.020055154 -0.15340611 -0.16910493 -0.008057642 -0.16772638 0.17214945
-0.14913341 -0.004908797 -0.0041863583 -0.101789474 0.16278936 -0.025174914 -0.06669592 0.14086565
0.05677942 -0.05243038 -0.1689555 -0.033564154 -0.043321587 -0.04759169 0.10344689 -0.013051172
0.047657467 0.14205465 0.0028502035 0.16415462 0.07309732 -0.13015482 0.08735073 -0.07209563
0.13743196 0.049597207 -0.10512936 -0.10522998 -0.17247468 -0.16654123 -0.11059922 0.044632215
-0.049905706 0.033733584 -0.1486053 -0.0008800179 -0.08233095 0.045457963 -0.12080194 0.08350048
-0.07253081 0.019261194 -0.07399379 0.14817005 0.01643926 0.084612645 -0.068672046 0.13953121
-0.06439174 0.11078297 0.1669093 -0.08761411 0.039298758 0.03532685 -0.000652699 0.07532044
0.15408693 -0.001310684 0.042529505 0.1080629 -0.14311764 0.10262099 0.0053626015 -0.12651132
0.071624674 -0.07986025 -0.12804747 -0.056757085 0.022640513 0.10033708 -0.076919034 0.14578293
-0.12368215 -0.12726972 0.068261296 0.1635685 0.1318231 0.12556653 0.0105237365 -0.06182484
-0.1294089 -0.12415673 0.054023203 -0.0123161925 -0.027667811 -0.033209454 -0.00031200438 -0.1020501
-0.039503686 0.14276108 -0.092469454 -0.012950419 -0.13747153 -0.06978697 0.058943383 0.07544285

fc2.weight f4 [300, 400]
00000000: 1cbc d93d 0ed8 f8bd d59a aa3d 134b 413e
00000010: 4a7e 0ebe c279 6abd fe2e debc 659b 49be
00000020: 9cf0 8f3d 47d1 b2bd cfc8 edbd 1783 4bbe
00000030: eacc 99bc 7c17 ccbd c2a4 fbbd d2ab 17be
00000040: 6786 cc3d 4128 66be 1b0a 863d 0c63 8b3c
00000050: d6cb c4bd 9396 20be d112 e73d e7ca a03b
00000060: 85ed e53d cae8 3c3e 23a1 8ebd 6151 523e
00000070: 046f 9b3c dd6c 56bd df87 af3d 9062 88bd
00000080: 5ca8 773c 59ad 8bbd bac4 913d 67c6 453e
00000090: b383 b63c bd66 8fbd 2419 04be a6b7 153e
000000a0: 72e9 86bc bc28 443e 0c65 623d 4ed6 0a3d
000000b0: 5d9f 98bd a335 4cbe f35b 083d 1f2f 033e
000000c0: e4b2 003d 4b17 ea3d 4c04 4ebe 70a9 733d
000000d0: a2f3 573e 0477 d03d 7c2c dc3b a28a e83c
000000e0: 8e84 e8bc d349 0abd d455 0dbe 19c3 bb3e
000000f0: a3d4 70bd 3e45 59bd 30bd 4dbc db90 c03d
00000100: c93d b63c 98fc edbd 38e4 053d 4651 0dbd
00000110: a485 053d 7614 51bd 4011 ddbd f12b 963d
00000120: fcb4 48be 3aff fe3d 12e7 0cbc dcf9 b73d
00000130: 8a38 d4bd 1465 743b 9176 ad3c 26f6 2a3d
00000140: 879e 80bd 0272 b0bc fb38 c93c 094f 283e
00000150: f8c2 e1bd 7dba 2a3e f90a f23d 24f6 023e
00000160: 8abd 0f3e 0579 84be 3f12 bcbc ddbb 103e
00000170: 613f 773d 09ea 0cbe 3ec0 133e 864d 433e
00000180: 7938 023e cbf3 5ebd 49c3 053d 9f50 10be
00000190: 1fd4 d6bd 69cf eebd 8128 403d a4c4 9cbd
000001a0: bf84 193e 8d08 e0bd 3c61 2d3d e283 ba3c
000001b0: ebbb 94bc 2062 58bd 0a53 603e 6546 0a3e
000001c0: 04f3 90be 9bfd 743e c590 38be 8873 31be
000001d0: f6e4 20be 387a 1f3d 51e5 7bbe 7ce8 613d
000001e0: 1a58 7a3c e454 ddbd 2823 06be 3ac2 eabd
000001f0: 41e3 d73c 6f8c b2be 3451 203e 37b7 4c3e
00000200: 842f 5f3d 5f06 e53c f816 dd3d 8a74 e83d
00000210: 3abb 3dbd c411 89bc 6a1d 7d3d 351d d0bc
00000220: d043 c13d 58cd eebd 00aa e53d 4143 423e
00000230: 3e28 04bd 15ea 653d 68ac c6bd 79fe f13d
00000240: d9ef 44bc a9d3 f8bd e8e5 fe3c d206 24be
00000250: ffcf cf3e ca4f a3ba 89ad 8d3d 5fb1 d33c
00000260: ef18 1d3c 1e09 0b3e b19d b0bc aab3 793d
00000270: 60ee 313e dca3 9d3d 4bd4 dbbd e453 c63c
00000280: 980b 5dbe b229 073e cf6b a83d e159 433d
00000290: c00e b63d d363 983d 76d4 073e 161b b63d
000002a0: 98c7 383e c09a 153b ccd2 febd 6571 bdbd
000002b0: 9f0c 81bc fee5 bb3d 003b 59bd 6332 513e
000002c0: db6a 353d 7b70 123d a0c9 ddba e7ea f63d
000002d0: 5e86 f0bb 3bb2 e0bd 5bab 01be a770 9cbd
000002e0: 2eed f23d f705 bbbd 5177 11bd 1c43 dcbd
000002f0: 415c 69be 0da6 02be 173e c53b 70b4 62be
00000300: 2532 90bc b1a6 32be 0baa 55bd 8ef1 8e3c
00000310: 46c4 ca3d bf4c 30be 2f1c 45be a98c 373d
00000320: 9584 dc3c a3f0 cebd 4d4b a9bd fbfa 373d
00000330: 17d1 8e3d 29ad ac3c 9788 9cbe 0d88 883b
00000340: 5e12 5f3d 90ef 9bbd 2a5d b93d bbf4 1fbe
00000350: 3f25 f4bc 7a18 37be c742 ebbc 5ca4 1a3e
00000360: a873 2bbe 235e 813e f89b aebc 4d11 b63d
00000370: 99eb 203c c796 2fbd 1153 a1bd 8ed9 993b
00000380: ba77 0abd a29e e4be f734 8bbd 3e16 edbd
00000390: 241c 973d 891f 713d 9b6f 3ebe 4dfa eebd
000003a0: f614 8ebd 3e68 743d 988f 9e3d 2612 5c3e
000003b0: ecc0 9c3d 62f2 82bd 00ab 6b3e b65a c03d
000003c0: 11bc dd3d 4c3f 52bd 22e7 f5bd f1b8 8bbd
000003d0: e539 b2bd 3070 a53d fd40 8fbc c1b1 5ebc
000003e0: 817a cb3c 1258 8dbd 0177 c4bb bb7f d9bd
000003f0: a868 9d3c d3bd d03d 3b58 223e de8a 4e3e
0.10631582 -0.12150584 0.08330313 0.18876295 -0.13915363 -0.057245024 -0.027122017 -0.19688185
0.070283145 -0.08731323 -0.11610567 -0.19874226 -0.018774468 -0.09965417 -0.122872844 -0.14811638
0.09986573 -0.22476293 0.06544896 0.017015003 -0.09609191 -0.1568244 0.11282886 0.0049070003
0.11226944 0.18448177 -0.06964328 0.20538856 0.018973835 -0.052349914 0.08570837 -0.06659424
0.015115824 -0.06820173 0.07117601 0.19313966 0.022279596 -0.07002018 -0.12900215 0.14620838
-0.016468737 0.19156164 0.055272147 0.033895783 -0.07452271 -0.19942336 0.033290815 0.12810944
0.031420603 0.11430224 -0.20118827 0.05948776 0.21089032 0.101789504 0.00671917 0.028386418
-0.02838352 -0.03376181 -0.13802272 0.36672285 -0.058796536 -0.05304455 -0.012557313 0.09402629
0.022246258 -0.11620444 0.03268835 -0.034501337 0.032598153 -0.051044904 -0.10794306 0.073326
-0.1960029 0.12451024 -0.008600013 0.08983204 -0.103623465 0.0037291693 0.0211747 0.04173865
-0.06280237 -0.021538738 0.024563303 0.164364 -0.110235155 0.16672702 0.11818499 0.12789208
0.14037147 -0.2587358 -0.02295792 0.14134164 0.060363177 -0.13761152 0.14428803 0.19072542
0.12716855 -0.054431718 0.03265694 -0.14093255 -0.10489678 -0.11660654 0.046913628 -0.07654694
0.14992045 -0.10939131 0.042329058 0.022767965 -0.018156013 -0.052827954 0.21906677 0.13503416
-0.28310406 0.23924868 -0.18023975 -0.17329228 -0.15712342 0.038934916 -0.24599196 0.055153355
0.015279794 -0.10807207 -0.13099349 -0.11462827 0.02635348 -0.34872767 0.15655977 0.19991766
0.054488674 0.02795714 0.107953966 0.11350353 -0.04632113 -0.016732104 0.06179563 -0.025404552
0.09436762 -0.1166026 0.112140656 0.18970968 -0.03226494 0.05613144 -0.09700853 0.11816115
-0.012020075 -0.12149746 0.031115487 -0.16018227 0.40588376 -0.0012459692 0.06917865 0.025841413
0.009588464 0.13577697 -0.021559568 0.060962357 0.17376089 0.07697269 -0.10733851 0.024209924
-0.21586454 0.13199499 0.08223688 0.047693137 0.08889532 0.07440915 0.13264641 0.08891885
0.18044889 0.0022827834 -0.1244255 -0.09250144 -0.015753089 0.09174727 -0.053034782 0.20429377
0.04429136 0.0357518 -0.0016921051 0.12056523 -0.0073402366 -0.10971495 -0.12663023 -0.07638674
0.11861645 -0.09131997 -0.03551418 -0.107549876 -0.22789098 -0.12758656 0.0060193646 -0.22139144
-0.017602036 -0.174464 -0.05216412 0.017449167 0.099007174 -0.17216776 -0.19249032 0.04481188
0.026918689 -0.101044916 -0.082663156 0.044917088 0.069734745 0.021078663 -0.3057296 0.004166609
0.054460876 -0.07614052 0.09050973 -0.15620701 -0.029802917 -0.17880431 -0.028718365 0.1510176
-0.16743338 0.25267133 -0.021314606 0.088900186 0.009821796 -0.0428684 -0.07877172 0.004695124
-0.033805586 -0.44652277 -0.067972116 -0.11576508 0.07378414 0.058867965 -0.18597262 -0.11668835
-0.06937592 0.059669726 0.07742232 0.21491298 0.076539844 -0.06393887 0.2301445 0.09392302
0.108268864 -0.051329896 -0.12006976 -0.06822384 -0.08702449 0.08078039 -0.017487044 -0.0135921845
0.024838688 -0.06901564 -0.0059956317 -0.10620066 0.019214943 0.10192456 0.1585397 0.20170161

fc2.bias f4 [300]
00000000: 7b84 bc3c e9a1 a23d d274 80bd 0825 5e3d
00000010: e728 383d 591e a63d 4fc5 cf3c b87a 38bc
00000020: d144 0a3e 0e18 c63b a0c9 303d 1d09 a8bd
00000030: 855e a1bc cb69 2fbe dcb7 23be 1687 c7bd
00000040: 2ad4 92bd 830d c43c 21fc 183d a4c4 b83c
00000050: 02f5 b33c d4a6 2fbd 56d9 74be a3c3 6bbd
00000060: c312 823d 42ff babd 6b64 babc 5efc 4dbc
00000070: ae85 13bd db02 31be c55b 0fbe 04d4 673c
00000080: e2c6 86bd 7eb3 c0bd 9edc 4d3d 46c2 d53b
00000090: e4a4 3bbd 9a7b e5bd ee7c 163c 13e2 a73d
000000a0: 45d2 0e3c 3c48 e1bd ab15 70be 874a 48bc
000000b0: e7c4 663a 3805 03be dbf4 cebc 5c4c 0fbe
000000c0: cf75 583d c0ae c3bd 45ea 61bd e1d6 32be
000000d0: adc9 04be c2ca c9bc e77c fd3d afcd 7cbd
000000e0: 24d9 903d 1cf9 8dbd bc2b e7bb 74bc 30bd
000000f0: 37bc c8bd 5b30 1cbe 56a4 efbd dc12 573d
00000100: 0306 ddbd 1273 ffbc aefc ca3c 85ef 1cbd
00000110: 71a3 9f3d 0f6d d43c a1a0 8cbd 8241 eabd
00000120: 9cda 263c 7104 233b 5e99 b03d 266c 263d
00000130: 7fab 32bc 8dfb c43d 4c56 fe3b 1fa5 26be
00000140: 34b0 04be fdcc 7f3d c1c6 8d3c 6683 c6bc
00000150: 663d 333d e242 4fbe 1f3c 90bd 89fe a3bd
00000160: f5c1 9fbd b2c5 923c 280a 2bbd 3cdb 5ebe
00000170: c58d 5fbe 8809 09be 9b8d 12be 8611 8fbb
00000180: dc9e aa3c 8f69 44be f411 94bd 2a30 43bc
00000190: eab8 d9bd 8eb4 a63d 2544 a2bd 58db a4bc
000001a0: 12c4 d9bd fc7c 30bc e1c3 34bd c868 21bd
000001b0: b16b 32be c2f3 1abd c144 803d 9eeb 583d
000001c0: 3262 77be 1d65 2c3d dc67 16be 6c80 19be
000001d0: 62c2 1e3d 0996 a73c 080b 3abc a83b e83c
000001e0: 3206 52bd 41ed 0dbd bddf 26be 2fde 23be
000001f0: f132 1d3b 666c 8fbd f8fb 79bc a8e2 65bd
00000200: 243e 42be 5f48 fbbd 86e7 193d 389d 33bd
00000210: 2f82 84bd 244a 37be 07b7 253d cea4 adbd
00000220: 9a41 a0bd 365f 06bd f791 d43d 3c8b b33d
00000230: ea7e 6f3d 9cb5 943c 70b8 b53c 2669 92bd
00000240: fd57 7fbd af0c 06be 3f2f 99bd eef4 50be
00000250: 94e2 8c3c 221e 79be adce a23b 3169 eebc
00000260: 4d95 febb 6615 a5bc 72ed bbbd b883 47be
00000270: 8818 48be 5fb0 42bd 3223 62bd ac70 f83b
00000280: b979 d3bd af5b bc3d 3ac6 a5bc 1eef d5ba
00000290: 109d 28bd f822 f33c 0a57 04be 4f42 43bd
000002a0: 796d 2cbe dbd9 103d 190c 433d 9a07 c7bc
000002b0: 4a11 02bd 24c3 96bd de26 44bd 5e17 053d
000002c0: d224 c6bd 7986 1f3d 699e 0fbe 1a32 15be
000002d0: 008e 383d c104 1fbd aa5e dbbd 6a40 b9bb
000002e0: e5ab 3fbe 51d1 31bd 43d4 88bc ab5a 983c
000002f0: 02c9 aebd bb5e f7bc 9726 eebd c2df 1f3e
00000300: 8eca 7f3d a486 f43c 353d fcbd b597 543c
00000310: 76a2 17bd d082 2abe 4c30 a63d 8bfa 07be
00000320: 235c 46bd 8534 afbb 02ea faba 1eac 3f3d
00000330: 7295 2dbd d7ae ab3d 8317 0abd 3308 5f3d
00000340: d794 893d 85c2 a4bb 0bc9 8dbd 7caa 82bd
00000350: 3fd2 0cbe c4e3 ee3d 7cab 53be 6185 d33c
00000360: 51d9 94be 2445 aabc 61f9 1abe 6f02 a53c
00000370: 2d96 173d 9efd 94bd 26cf 5a3d 5c9f a8bd
00000380: 6908 bcbc b7c2 b63d 2869 b13c 3240 74bd
00000390: 3bdb 943b 8f0c e03d f397 35be 8eb5 063c
000003a0: f38b 22be ff2d f83d c547 403c 1e64 a73d
000003b0: d392 293e 2592 8dbd 8b4a 17be bc48 393c
000003c0: 1de7 eabd f91a b7bc e763 45bd 602c 26bd
000003d0: 90e7 dbbd 9823 9bbc 84b2 18bc 5ddc 94bd
000003e0: 488d 323d 1e03 353c c2c6 efbd 36fa 98ba
000003f0: 6a36 04bd ebb7 dabc a812 07be fbe7 873c
0.02301239 0.07941038 -0.06272282 0.054234535 0.044960883 0.08111257 0.025362639 -0.011259727
0.13502814 0.006045348 0.043161035 -0.08204863 -0.01969839 -0.171302 -0.15988106 -0.097425625
-0.07169373 0.023932224 0.037349824 0.022554703 0.021967415 -0.04288371 -0.23911032 -0.05755962
0.06351235 -0.09130718 -0.022752961 -0.012572376 -0.03601616 -0.17286246 -0.13999851 0.01414967
-0.06580903 -0.094092354 0.050259225 0.0065234033 -0.04581155 -0.11205216 0.009185059 0.08197417
0.008717124 -0.11000106 -0.23445766 -0.0122248 0.00088031444 -0.1279496 -0.02526324 -0.13993973
0.052846726 -0.09554815 -0.055155057 -0.17464782 -0.12967558 -0.024632815 0.12377339 -0.061719593
0.07072666 -0.069322795 -0.007054774 -0.043148473 -0.09801524 -0.15252821 -0.117012665 0.05250822
-0.10792162 -0.0311828 0.02477869 -0.03831436 0.07794846 0.02593091 -0.06866575 -0.11438276
0.0101839565 0.0024874473 0.086230025 0.040630482 -0.010905146 0.09618292 0.0077617522 -0.16273926
-0.12957841 0.06245135 0.017306687 -0.024232578 0.043759726 -0.20240358 -0.07042717 -0.08007533
-0.07800666 0.017916534 -0.041757733 -0.21763319 -0.21831425 -0.13382542 -0.1431183 -0.0043661026
0.020827703 -0.19180892 -0.07229987 -0.011913339 -0.10630973 0.08139907 -0.07923154 -0.020124123
-0.106331006 -0.010771986 -0.044132117 -0.039406568 -0.17423894 -0.03783012 0.06263114 0.052959077
-0.24158552 0.042088617 -0.14688057 -0.14990395 0.038759597 0.020457285 -0.011355169 0.028348759
-0.05127544 -0.03465009 -0.16296287 -0.16002725 0.0023986662 -0.07003097 -0.015257828 -0.05612436
-0.18969017 -0.12269663 0.037574314 -0.043851107 -0.06470143 -0.17899376 0.04045775 -0.084786996
-0.078250125 -0.032805644 0.10379403 0.08766791 0.058470644 0.018153004 0.022182673 -0.07148962
-0.06233977 -0.13090776 -0.074797146 -0.20405933 0.017197885 -0.24327901 0.0049684853 -0.029102894
-0.007769263 -0.020151805 -0.091761485 -0.1948384 -0.19540608 -0.04753148 -0.055209346 0.007581791
-0.10325951 0.09197175 -0.020236123 -0.0016321873 -0.04116541 0.02967976 -0.12923828 -0.04767066
-0.16838636 0.035364013 0.04761896 -0.024295617 -0.03175477 -0.07361439 -0.04788863 0.032492988
-0.09674992 0.038946602 -0.14025272 -0.14569893 0.045057297 -0.038822893 -0.10711415 -0.0056534307
-0.18717916 -0.04341251 -0.016702777 0.018597921 -0.08534433 -0.030196538 -0.11628454 0.156127
0.06244903 0.029849358 -0.12316362 0.012975623 -0.03702017 -0.16651464 0.08114681 -0.13279168
-0.048427712 -0.005346837 -0.0019143226 0.046795003 -0.04237885 0.083829574 -0.03371383 0.05445118
0.06717842 -0.0050280713 -0.069231115 -0.063801736 -0.13752078 0.116645366 -0.20670885 0.025820436
-0.2907205 -0.020784922 -0.15134193 0.020142762 0.037008453 -0.07274936 0.05342021 -0.082335204
-0.022953229 0.08923858 0.021656588 -0.059631534 0.004542736 0.10939895 -0.17733745 0.008221997
-0.15873699 0.12118148 0.011735861 0.08173393 0.16559915 -0.069126405 -0.1477453 0.011308845
-0.114698626 -0.022351729 -0.048190977 -0.040569663 -0.107375264 -0.01893787 -0.009319905 -0.072685935
0.043591768 0.0110481065 -0.11707832 -0.0011671248 -0.032278456 -0.026699027 -0.1319071 0.01659011

fc3.weight f4 [4, 300]
00000000: 53c1 a43e 3793 c8be 9451 3d3e db42 db3d
00000010: ed77 363e 4840 07bf df27 593d 94b2 c0bd
00000020: 88d3 b6be 22c1 a43e bd2f ccbe c28f f73e
00000030: a1b5 23bf 6777 ee3e 0658 82be 5540 ea3e
00000040: c5dc 52bc bdcb 313e 71b5 5b3e c275 21bc
00000050: b19b 353e 4e6d 743e 45fa f6be 7f4e 103f
00000060: eb3c dc3e 81f5 0ebf b462 173e ed08 cbbe
00000070: f03f 8bbe 8fe2 4d3e 197d f43e b204 31bc
00000080: 228f 6ebe 7686 b03e 3f61 e93e 7d38 373e
00000090: 0b70 22be 9ff2 9b3e 684b 123d ad0b 1b3e
000000a0: 477d 7a3d 9f24 bcbd 4f34 4fbf 9637 a0be
000000b0: 538a 0bbe 9855 c2bd f20b 0c3e ff8a b9be
000000c0: 92c3 5d3c fbc3 303e 0b4d c2be a8a9 fbbe
000000d0: b381 7f3d 2ad6 62be e322 06be ffdb 463e
000000e0: 9d9e 4dbe caef 09bf 0981 97be 1ddb c53d
000000f0: 0c89 36be b307 05bf 8879 e73e 5e34 c53d
00000100: 6cc0 763d 4341 8a3e fafe 143e 7583 c43c
00000110: 2867 003e a549 a63e 1fde 033e e3b1 153e
00000120: 710e 9abc 2b11 0fbf 5dc5 283e 1c08 68bd
00000130: 2241 90bc 33b2 83bc d107 01bf e98f 5d3e
00000140: b275 383e 51cd 52be 0f10 973e 0b90 a2bd
00000150: 6b07 52bf dc4f c1be aaaf 823d 10cb adbd
00000160: 42b0 2cbe cd42 223e 89ed c4bb 4124 d4bd
00000170: 9744 f4bd 9854 1fbf b41e 473e 32be 153e
00000180: 85bb 87bd 1412 603e ede1 553e 80d0 2fbe
00000190: f00c 943a c6a8 a0be 2ec1 2abe c7de e5be
000001a0: fa5c a8bd 3db3 e53d b390 433d 8f55 853e
000001b0: 692c efbe 2951 c43d ffca 00bf 5555 b5be
000001c0: a840 c73e bb43 d53e 1847 2bbe db0c 41bd
000001d0: 1294 2e3e f0f5 92be e833 a83d b985 6e3e
000001e0: 0073 063d 337b 8abe 4501 d9be a06e b2be
000001f0: 9f75 923d 4673 0e3e bbb8 fbbe d610 543e
00000200: cb90 08bf 1e9b c7be fae9 3e3e 12ad 88bd
00000210: 3850 b1be 0c31 33bf 1aa3 a2bd 558f 3a3d
00000220: 5f0e bd3d 215d 0d3e 8173 24bf f4b9 f0bd
00000230: 8dba 733d e3f2 66be 0256 90be 116e 1c3e
00000240: a769 9abe 7d0b 903d 4b1b 123e 4625 08bf
00000250: c106 ad3e 64e0 debe 705e babd 1873 053e
00000260: 2b51 d5be 9566 4b3e 6f6b 363d 3293 023e
00000270: 838c 44be 15fb 753e 33e5 903e a62a a93c
00000280: 0963 1abe f1af b1be ab46 afbe dbd3 7a3d
00000290: 59ae 243c a7dc 903e 4f4b 353d b0d5 893e
000002a0: 0c8a 08bf 6827 7f3e e7f7 9e3d 3d3e 49be
000002b0: 7b42 eb3d 6058 4e3e a93f 5b3e 6414 8f3e
000002c0: f32f ed3d 8ba7 233e 2e58 203f 7882 a33c
000002d0: 56c6 203e 299e d8bd 094d bdbd e848 a13e
000002e0: 7665 fabe d6a4 c93c aa4d c23c 8c2f 6fbe
000002f0: 4874 c33d ec71 183e d452 1f3f 268d 6cbe
00000300: 30a2 8cbe 45f7 cfbe ce8f 1a3e 4adf 843e
00000310: fc13 42be d238 4bbf 4fd3 ff3d d530 273d
00000320: 6060 053f 0a9a 3c3e c535 643e d133 853e
00000330: c648 183f 3644 63be 0757 563d 27c6 723e
00000340: f016 0e3d cab4 84be d7d0 49bd 30fc 3e3d
00000350: 8006 693e a5ae 32be fa40 bfbe 56e5 c03d
00000360: f995 73bf f820 b1be acf2 be3d f92f 8bbe
00000370: 2b03 253e b217 773e a27d 1fbf d1aa 9f3e
00000380: 0eb9 bb3d 34a4 02bf 2b3f cb3e 7fd9 c53e
00000390: a6f4 8f3d 0816 4abd 78b7 003f 04e9 3a3e
000003a0: fc39 71be 03c8 953e ac7e bbbe acde 803e
000003b0: 88db 4e3e 8714 29bf d073 23be dfff 42be
000003c0: 0529 d03e 02dd 6f3e 9246 dc3c ef7b eb3e
000003d0: bee6 933e 98cc 963d ae32 903d 2436 503e
000003e0: 604c af3e ca5a e53e 962e f7be 8baa 91be
000003f0: bbfb a1be b3c7 ec3d 04d0 5e3e 8cad 313e
0.32178745 -0.39174816 0.18488151 0.10706111 0.17819186 -0.5283246 0.05301654 -0.09409061
-0.3570826 0.321786 -0.3988017 0.48351866 -0.6394902 0.46575472 -0.25457782 0.45752206
-0.012870018 0.17362876 0.21455933 -0.009854736 0.17735173 0.23869821 -0.48237815 0.56369776
0.43015227 -0.5584336 0.14783746 -0.39655247 -0.27197218 0.20105956 0.47751692 -0.010804342
-0.23296788 0.34477586 0.45582005 0.17892642 -0.15863054 0.30458543 0.035716444 0.15141173
0.06115463 -0.091866724 -0.8093919 -0.3129241 -0.13626985 -0.09488982 0.13676432 -0.36238858
0.013535397 0.1726226 -0.37949404 -0.49152875 0.06237955 -0.2215201 -0.13099246 0.1941986
-0.20080037 -0.53881514 -0.29590634 0.09660933 -0.17825717 -0.51964873 0.45209908 0.09629129
0.0602421 0.27002916 0.14550391 0.023988465 0.12539351 0.3247806 0.12877701 0.1461864
-0.018805714 -0.5588557 0.16481538 -0.05664836 -0.017609183 -0.016076183 -0.5040255 0.21636929
0.18013647 -0.20586134 0.2950444 -0.0793763 -0.8204257 -0.3775624 0.063811615 -0.08485997
-0.16864112 0.15845795 -0.0060097617 -0.103584774 -0.11927145 -0.62238455 0.19445306 0.14623335
-0.066275634 0.21881896 0.20886965 -0.1716938 0.001129536 -0.31378764 -0.16675255 -0.44896528
-0.08220859 0.112158276 0.047745418 0.2604184 -0.4671357 0.095857926 -0.5030975 -0.35416666
0.38916516 0.41653237 -0.16726339 -0.0471314 0.17048672 -0.2870326 0.08213025 0.23293199
0.032824516 -0.2704712 -0.4238378 -0.34850025 0.07151341 0.13911161 -0.49164376 0.20709547
-0.53345937 -0.38985533 0.18643942 -0.066736355 -0.34631515 -0.69996715 -0.079412654 0.04554685
0.09231257 0.13805057 -0.64238745 -0.11754218 0.05950408 -0.22553591 -0.2819062 0.15276362
-0.3015873 0.07033441 0.14268224 -0.53181875 0.33794215 -0.4353057 -0.09100044 0.13032186
-0.4166349 0.1986335 0.04453605 0.12751463 -0.19194226 0.24021561 0.28299865 0.02065022
-0.15076841 -0.34704545 -0.34233603 0.061237197 0.010051333 0.28293344 0.044261273 0.26920843
-0.5333564 0.24917376 0.07762127 -0.19652648 0.114872895 0.201509 0.21411003 0.27945244
0.11581411 0.15981881 0.6263455 0.019959673 0.15700659 -0.10577042 -0.09243209 0.31500936
-0.48905534 0.024614733 0.023718674 -0.23357981 0.09543663 0.14887208 0.6223576 -0.23100719
-0.2746749 -0.4061834 0.1509392 0.25951606 -0.18952936 -0.79383576 0.12491476 0.040818054
0.5210018 0.18418136 0.22286136 0.26016095 0.59486043 -0.22193989 0.05232909 0.23708402
0.034689844 -0.2591918 -0.04927143 0.046627223 0.22756386 -0.17449434 -0.3735426 0.09418742
-0.95150715 -0.34595466 0.0932363 -0.27185038 0.1611449 0.24130133 -0.62301075 0.3118501
0.09166156 -0.51031804 0.3969663 0.386425 0.07029085 -0.049337417 0.5027995 0.18252951
-0.23557276 0.2925416 -0.3662008 0.25169885 0.20200932 -0.6604695 -0.15962148 -0.1904292
0.40656295 0.23424152 0.02688912 0.4599299 0.2888698 0.07363242 0.070409164 0.20333153
0.34237957 0.4479583 -0.4827773 -0.28450426 -0.31637368 0.11561527 0.21759039 0.17351359

fc3.bias f4 [4]
00000000: 0d4d 073e 9873 dfbd 55dc 90bd 8544 563d
0.13212986 -0.1091072 -0.07073275 0.05231144

bn1.weight f4 [400]
00000000: d52f 573f 8e09 0d3f 8544 173f ea8b de3e
00000010: 9918 fb3e 0286 513f 38e9 a23e af4a ba3e
00000020: dad4 663f 498a 1a3f 2d5b 4a3f 946c 043f
00000030: ff57 023f 2334 063f 192f 0f3f 933e 403f
00000040: 654d d83e b1ab 913f a803 623f e326 f43e
00000050: 1bca 333f 5d23 4c3f 8a0a 8e3f e835 163f
00000060: 1545 1a3f 3596 3c3f 8b02 853f ddf7 923f
00000070: bc78 813f f5ad e33e bbec 993e 4703 e03e
00000080: 395f 803f 3c68 f13e bf96 d53e 256c 513e
00000090: 88f5 583f 66ea cc3e 2ff8 613f 97a9 273f
000000a0: 4278 e03e f2c3 553f 0007 313f cbe1 213f
000000b0: 108d 153f 89d9 ca3e 33dd d13e 89c8 e13e
000000c0: 32b8 dc3e d4f6 aa3e 3d44 f13e e560 793f
000000d0: 5e2b 143f 672e 053f 279d 8e3f b4b3 213f
000000e0: 0147 b83e 1fed 453f 12bf 7a3f 49f0 d93e
000000f0: 01b2 413f 69ea 4d3f 1bad 223f b304 e33e
00000100: 3ca8 343f 10cf 5a3f e61d 3f3f 9278 433f
00000110: 0c1b 1b3f 0bdd 713f 0f07 d93e e8cf 403f
00000120: e4a9 683f 95ec 283f 082c 3039 8ce6 313f
00000130: ccae 403f 4cda 0d3f 6398 963d a4b8 143f
00000140: 553d 183f 2660 f83e eefa f63e 7188 043f
00000150: 2acf 243f 5529 723f 1031 483f 624e 003f
00000160: 362b 873f 1265 df3e f2ed 733f abfd f13e
00000170: 888a 3f3f 9b61 c83e 9174 fe3e fcf9 f03e
00000180: 53ad 7e3f 61a4 fd3e 5152 223f 9d72 903e
00000190: 7a85 943f b9d8 813f 0d2d 693f 3564 843f
000001a0: 4cb3 163f ab32 843f 08de 013f 4f10 cc3e
000001b0: c978 843f 645e 1a3f 5225 5a3f a711 8a3f
000001c0: 003c 2d3f 4d38 7e3f 8373 853f f254 323f
000001d0: 722d 6d3f 1378 733f b096 493f 985e fe3e
000001e0: f466 203f a992 453f 66b2 633f 5a9a 0a3f
000001f0: 2634 753f 08c5 9a3e 4d16 c13e 63eb 0e3f
00000200: 37b9 133f ade5 833f 2ea5 603f 75c9 c53e
00000210: 558f 8d3f 6fd5 163f 5090 a43e c279 e53e
00000220: eb7b ed3e 159b 373f cfed e33e 0c50 3c3f
00000230: c6fb 8d3e dcc1 b93e 1f28 533f 56e9 8f3f
00000240: 2faa 473f 2101 2c3f d829 7c3f e7f8 713f
00000250: 9354 703f ce1e 5f3f 01a5 533f 8764 933f
00000260: 7be8 293f 0d4c 1c3f c354 153f 03e7 f53e
00000270: 01ef 033f 32d0 ca3e beaf 4a3f 8c98 e73e
00000280: de5c 1b3f 847b e73e 77de 253f 9845 693f
00000290: ab79 843f c632 aa3e 6c51 183f 88ef 223f
000002a0: ec5b f63e 1eeb 4b3f 145f 253f d3b0 1f3f
000002b0: 82f4 123f d22b 683f b173 193f 11cf 313f
000002c0: 94ce 113f fee6 723f 1a76 713f 44d7 893e
000002d0: aaa2 113f 9f31 963f dac5 623f 941a d33e
000002e0: d69b ed3e 62ef 8f3e a277 b83e dceb 6e3f
000002f0: 81dd e13e 83fc d23e 6394 503f 0b88 be3e
00000300: 337b f73e 8d99 3d3f 3ac6 613f 83c2 1dba
00000310: 176c f83e 0d75 1e3f 4d8c 333f 540b 703f
00000320: 3c2c 503f 2a49 293f e9bf 253f 37c3 093f
00000330: 15a0 3a3f 3f7f 373f fd52 093f e11c ac3e
00000340: a2b0 ab3e e740 503f 5e83 df3e 05e2 ed3e
00000350: 2977 3e3f 73d8 523f 9a9c 553f c91d c93e
00000360: 3663 d63e fb8e a73f 6686 8f3f 92dd fb3e
00000370: 5418 533f 6787 123f ecb6 323f 76cf c23e
00000380: 3cbe 5b3f a0a0 4f3f 4736 af3e e76b 333f
00000390: af9e 803f 6ef5 263f 6ea2 023f 3313 4c3f
000003a0: ffde a73e a105 0f3f b633 993f 9683 013f
000003b0: d85a 9b3e 503e e63e f491 173f 8745 363f
000003c0: dcf2 623f 45a8 40be 3ad2 683f b255 bb3e
000003d0: 130c 273f d8ce 473f 7cc6 863f ca86 5e3f
000003e0: a1c8 e53e 0641 1b3f f41a b03e 73c0 7a3f
000003f0: b0cc 993e 32f0 6b3f 7205 523f e107 283f
0.8405736 0.55092704 0.5908893 0.4346612 0.49042204 0.81845105 0.31818557 0.36385104
0.90168536 0.60367256 0.79045373 0.5172818 0.5091552 0.52423304 0.5593124 0.7509548
0.42246547 1.1380521 0.8828683 0.47685918 0.70230263 0.7974146 1.1096966 0.58676004
0.6026166 0.736667 1.0391401 1.1481892 1.011497 0.44468656 0.30063424 0.437525
1.002906 0.47149837 0.41716573 0.2045141 0.8474965 0.40022582 0.88269323 0.6549315
0.4384175 0.83502114 0.69151306 0.6323516 0.5841837 0.3961909 0.40989074 0.4409831
0.4310928 0.3339144 0.47122374 0.97413474 0.57878673 0.5202393 1.1141709 0.6316483
0.35991672 0.77314943 0.979478 0.42566136 0.7566224 0.80435807 0.6354539 0.44339523
0.70569205 0.854722 0.74654996 0.7635585 0.60588145 0.9447791 0.42388198 0.7531724
0.9088423 0.65985996 0.00016801071 0.6949241 0.7526672 0.5541122 0.07353284 0.5809424
0.59468585 0.48510855 0.4823832 0.51770693 0.6437861 0.9459432 0.78199863 0.501196
1.0560062 0.43631798 0.9528495 0.47263846 0.74820757 0.39136967 0.49698308 0.47065723
0.9948322 0.49539474 0.63406855 0.28212443 1.1603234 1.0144264 0.9108437 1.0343081
0.58867335 1.0327963 0.5072942 0.39856192 1.0349361 0.6030028 0.85213196 1.0786637
0.6766968 0.9930466 1.0425876 0.69660866 0.9264747 0.95105094 0.78745556 0.49681544
0.62657094 0.7717691 0.8894409 0.5414177 0.957827 0.30228448 0.37712327 0.5582792
0.5770449 1.0304466 0.87752044 0.38630262 1.1059366 0.58919424 0.32141352 0.44819456
0.46383604 0.7172101 0.4451737 0.7355964 0.2773115 0.36280715 0.82483095 1.1243083
0.77994055 0.6718922 0.9850135 0.9452042 0.9387905 0.8715638 0.8267365 1.1515054
0.6637036 0.61053544 0.5833246 0.4802781 0.51536566 0.39611965 0.7917441 0.45233572
0.6068858 0.45211422 0.6479258 0.91121817 1.034963 0.33241862 0.5949924 0.63646746
0.48117006 0.79655635 0.645982 0.6237919 0.5740434 0.90691864 0.59942156 0.69456583
0.5695584 0.94883716 0.94320834 0.26922047 0.5688883 1.1733893 0.8858315 0.41231215
0.46407956 0.28112322 0.36028773 0.9332864 0.44114307 0.41208276 0.8147642 0.37213168
0.4833618 0.74062425 0.88193095 -0.0006018059 0.48519966 0.61897355 0.70135957 0.93767285
0.81317496 0.66127264 0.64745957 0.538135 0.72900516 0.7167854 0.53642255 0.33615783
0.33533198 0.81349033 0.43654913 0.46461502 0.74400574 0.82361525 0.8344208 0.39280537
0.41872567 1.3090509 1.121289 0.49192482 0.82458997 0.5723786 0.69810367 0.38048905
0.8583715 0.8110447 0.34221098 0.7008652 1.0048426 0.65218246 0.510291 0.79716796
0.3278732 0.55867964 1.1968906 0.5059141 0.30342746 0.44969416 0.5920708 0.7119984
0.88651824 -0.1881419 0.9094578 0.36588818 0.652528 0.78049994 1.0529323 0.8692442
0.4487963 0.6064609 0.34395564 0.97949904 0.30038977 0.92163384 0.8203956 0.6563702

bn1.bias f4 [400]
00000000: dcc7 09be be05 93bd af0a bc3d dc78 e7bd
00000010: ba62 3b3e d47e 45be af95 70be 6653 d3bd
00000020: 8ef4 bebd 4679 3abe cba3 153e 1f6d f63d
00000030: 44bd 40bd 86e1 b6bd a291 abbd 4c89 08be
00000040: 8756 aebc 838d 0fbc 71a5 59be be2b 37be
00000050: a7bd 3e38 af26 66be 1caa 67bd eeaf 5bbc
00000060: 2b19 48bd e159 19bd d00c c93c d759 723c
00000070: 1ea0 25be 8994 ef3b a779 0ebe 559e bc3d
00000080: d20d 5cbe 22f0 e63d ad43 e33d a8b9 23bd
00000090: 1cce f83d b8ea b8bd 4810 c0bd eca5 a5bc
000000a0: 0cb7 0abe 89df 83bd 54ff 3e3d 2022 e63d
000000b0: 98ad 2abe 13b5 23bd bf89 3e3e de34 ffbd
000000c0: 75b3 f3bc e0a4 8a3d 8041 babd c853 44be
000000d0: a3b6 c8bd 84f0 eb3d 6d48 71be 313a ce3d
000000e0: 31c7 9abd 0733 fa3d 4dfe 3abd 2947 5fbe
000000f0: 883d 8ebe 390f d1bc db3f f63d b459 5fbd
00000100: 5c56 41bd 5c02 ce3d 76a7 90bd 363d 0dbe
00000110: 4b5c 42be 88b1 73be 0d5f 41be 81b5 b3be
00000120: 134b 68be dea2 49bd fb3e afba 7b7a 52be
00000130: 7311 9d3c a20e bc3d b0f3 3f3e 8b14 20bd
00000140: 7a9d 17be 231e e6bd abc9 a0bd 8d4b 72be
00000150: d562 73bc 9855 1bbe 3e2c a63d 0f3d 873d
00000160: 21f9 5fbd 1f95 aa3d e78a 52bd 112e 53be
00000170: 383a 52be 3984 86be f945 e9bc 1629 a1be
00000180: 6990 0b3d 803c 40be 82ef b5bd 617e 0fbd
00000190: 00d1 aebd 179b eebd a01f cbbb df41 21be
000001a0: 14bf 3a3d 9ca6 443c f063 81bd 6d5e 943d
000001b0: fec6 9dbd b10c 2cbe 274e 5fbd 8cb4 39be
000001c0: bcb1 1bbe f6a5 97be c531 81bd f94d 9abe
000001d0: 9ecd 783e 0ca3 0cbe eb14 42be 7fda 85be
000001e0: 0d83 6abe 62f1 86be 68c8 febc ebe4 bc3d
000001f0: b2b5 353d 072f 42be 3762 a63c 0034 c3bd
00000200: 2e41 0e3e c817 57be 0d0b 4fbe 236d ac3d
00000210: 912f 66be 8a01 4fbd 8f54 103e 1a42 0a3e
00000220: 84a3 56bd e5dc b23c ab81 47bd 4ff2 afbd
00000230: a40a 1bbd d521 33bd 94a9 3fbe 37a6 b3bd
00000240: 7fe5 a8be 7937 413e d68d b83d d5f4 7ebd
00000250: 46d2 70be f806 803d d9c0 8bbc 01c7 9a3d
00000260: 90d4 163d 20d2 38be 1744 d03c 3a7d 01be
00000270: bccc 5cbe 5aca f9bc 5f6e dfbd 14a4 1fbe
00000280: 062c 3a3d 2edc edbd 840c 74be dbba ce3a
00000290: 877c 0abe dd0d f2bd 8b74 17be 0b7b 69be
000002a0: 967d 04be 03c7 5f3e dd6f 1bbe b0b8 083c
000002b0: 6b1a c1bd 873a 45be 5b25 e2bd aa41 27be
000002c0: c3e7 a53c fdf9 313e f435 93bd 5a5a fa3d
000002d0: 8d0e aabd da65 3e3d cba8 c2bd 3c2f 23be
000002e0: ad02 053e 98be c7bd 86d2 2abe 783c 323d
000002f0: ba40 e23c 6b0b 65be 3d59 c5bd 56ae 45be
00000300: 21d4 48be 1c8b 893d 5d93 81be 5788 f2bb
00000310: 0f4e a1bd 99a9 0bbe 84e5 9e3b 4a1c 123c
00000320: ffb7 16be f280 1a3e 5976 c7bd c7b6 60be
00000330: 7144 ed3d 6cb5 b2bd 7e39 f2bd 1827 82bd
00000340: 5997 43be 765b 843d a6da a4bd a28b 143d
00000350: c76d 45bd 00df 96be 10ea 6dbe 42e6 9ebd
00000360: d4c8 5cbe 7a3d 8ebe f47f 873d 6101 1fbd
00000370: acad a5be 0aab 7abe 174c acbd b1dd b2bd
00000380: 50e1 f23d e597 14be 6853 693e 457c b1bd
00000390: a399 89be a9c6 5bbd b336 55be ea10 37be
000003a0: 312d 973d 5e1e 66be d496 9cbd 6766 07be
000003b0: 3f87 c4bd 601d afba a07d 84be a2df 073e
000003c0: 4177 0ebc 2eaf 6e3e e06f 14be ce81 093d
000003d0: e736 8fbe 97f9 2cbd b35d fc3d d8b5 96bd
000003e0: ce22 acbc 910a d7bd efe2 74bd f9f3 51be
000003f0: cfe0 ec3d a389 1e3d ffa0 1f3e dd2c b33d
-0.13455147 -0.071788296 0.09181725 -0.11302349 0.1829938 -0.19286662 -0.234946 -0.10318641
-0.09323989 -0.18210325 0.14613263 0.12032532 -0.047055498 -0.08929734 -0.08377387 -0.13333625
-0.021281494 -0.008761766 -0.21254517 -0.1788778 4.5476158e-05 -0.22475694 -0.056558713 -0.013408644
-0.048852127 -0.03743923 0.024542242 0.014791927 -0.16174361 0.007311408 -0.13913594 0.09209887
-0.21489647 0.112762704 0.110968925 -0.039971977 0.12148687 -0.09029144 -0.093781054 -0.02022072
-0.1354639 -0.0643912 0.04663022 0.112369776 -0.16667783 -0.039967608 0.18607233 -0.124612555
-0.029748658 0.06769729 -0.090945244 -0.19172585 -0.0980046 0.11520484 -0.23562784 0.10069693
-0.07557524 0.12216764 -0.045652676 -0.21804489 -0.2778132 -0.025519954 0.12023898 -0.054528907
-0.0472015 0.10059044 -0.07063191 -0.13792881 -0.1898052 -0.23798192 -0.18883915 -0.35099414
-0.22684889 -0.049227588 -0.001337021 -0.20554535 0.01917336 0.091824785 0.18745303 -0.03908209
-0.14806166 -0.11236217 -0.07850965 -0.23661633 -0.014855106 -0.1516937 0.08113907 0.06603443
-0.054680947 0.08329224 -0.051402 -0.20623042 -0.20530021 -0.26272753 -0.028475748 -0.3147666
0.034073267 -0.18773079 -0.08883573 -0.035032634 -0.08535957 -0.11650675 -0.0061988384 -0.15747784
0.045592383 0.012002613 -0.0631789 0.07244573 -0.077039704 -0.16801716 -0.05451789 -0.1813528
-0.15204519 -0.29618806 -0.06308321 -0.30137613 0.24297187 -0.13734072 -0.18953292 -0.26143262
-0.22901554 -0.26356035 -0.03110142 0.0922335 0.04436273 -0.18963252 0.020310504 -0.095314026
0.13892052 -0.21005166 -0.2021906 0.08419254 -0.22479083 -0.050538577 0.14094757 0.13501778
-0.052402034 0.021833846 -0.048707645 -0.085911386 -0.037851945 -0.043733437 -0.18717033 -0.08771937
-0.32987592 0.18868817 0.09011428 -0.06224521 -0.23517713 0.06251329 -0.01705973 0.07557488
0.03682381 -0.18048906 0.025423093 -0.12645426 -0.21562475 -0.030491997 -0.109097235 -0.15589935
0.04545214 -0.116142616 -0.238329 0.001577224 -0.13524066 -0.118190505 -0.14790551 -0.22800843
-0.12938532 0.2185326 -0.15179391 0.008344814 -0.09428867 -0.19260608 -0.11042281 -0.16333643
0.020252114 0.17380519 -0.07188025 0.122242644 -0.083035566 0.046483852 -0.09504851 -0.15935987
0.12989302 -0.0975315 -0.16681871 0.0435147 0.027618755 -0.22367637 -0.096361615 -0.19304785
-0.19612171 0.06715986 -0.25307742 -0.007401507 -0.078762166 -0.13638915 0.0048491377 0.008917877
-0.14718626 0.15088251 -0.0973937 -0.21944724 0.1158532 -0.0872601 -0.11827372 -0.06355113
-0.19100703 0.06462757 -0.080495164 0.036265977 -0.048200395 -0.2946701 -0.23233819 -0.07758762
-0.21560985 -0.27781278 0.06616202 -0.038819674 -0.32359064 -0.24479309 -0.084129505 -0.087336905
0.11859381 -0.14511068 0.22785723 -0.08666281 -0.26875028 -0.053656254 -0.20821647 -0.17877546
0.073816665 -0.22472522 -0.07645956 -0.13222657 -0.09596109 -0.0013360195 -0.25877094 0.13268903
-0.008695425 0.23309013 -0.14495802 0.033571057 -0.27971575 -0.042230215 0.12322559 -0.07358903
-0.02101269 -0.10500062 -0.059786733 -0.20503224 0.11566316 0.03870548 0.15588759 0.08748791

bn1.running_mean f4 [400]
00000000: 065a b0be cf02 6ebd bbdc fa3d 7811 c9be
00000010: 1064 883e 6cf9 c33e a863 84bc 90b6 77bc
00000020: 3df1 9ebd fa3a 76be 0e5d 61be e4f7 4a3e
00000030: 6478 bbbe 3513 38be 6359 1a3f a840 3abc
00000040: b286 b73d 4fe8 6fbe 7e71 95be e79b 0ebe
00000050: 20a0 a43b cefd 2f3e a86c 0b3e 16ab 02bd
00000060: 2330 d13d 92fb 303d 433f bd3d b4f4 92bd
00000070: 8a46 df3a d7f5 343f 456a 55be 42ff 88bd
00000080: ac2b b7be 93a6 16bd 55dc d93d dc35 0dbf
00000090: 9165 ee3d bfac 723e 4431 9abd ffc7 8dbd
000000a0: e865 eabd e96e 0f3d 5a68 93bd 77b9 463f
000000b0: 7b6c 0ebf 6fcb 383b b1b8 043f f050 783e
000000c0: 5f0c b53e e589 393e d4f2 6dbe b771 ba3d
000000d0: 9685 b0ba 5de5 e0bc 59e2 48be f296 393e
000000e0: 0318 84be dbeb 1abd 8ea0 0fbe 9671 01be
000000f0: 478b a2be 800f 45be 7f29 9e3e a9b3 b93e
00000100: d615 843e e18b 5a3e 3d4c 253d 6c8d 99bd
00000110: c2be ce3c 51ad bbbe e5b8 863e 5300 9fbd
00000120: 6086 54bd c777 f63d c0fa 893d 2f96 d8be
00000130: 70cd db3c 2054 133e 8023 d63d 61f3 833d
00000140: bf88 9cbe 8af4 16bd d167 083f 37a9 ba3e
00000150: 446e bfbe 0aec 0cbb 9877 133f 85a5 893e
00000160: bf20 113e ec00 423d 1ab8 69bd ef02 50be
00000170: 3cfc 6cbe 0172 a23e 56c8 463e b46f 7fbe
00000180: 2555 89be 87fa a6bb 3c43 203d eaa3 d83d
00000190: 174d 473e 8d1a 95be f379 a3bc f5a1 ddbd
000001a0: bd5f e73e e0c1 dbbd 5aec d03d 2e1d 8b3e
000001b0: d95b a3be 256c 13be 66e4 403e 645c 40be
000001c0: 9414 c9bd ba9a 86be 100a 67be 3ee6 1ebe
000001d0: 88f8 a3be bd16 433d e7e4 a13d 2058 c4be
000001e0: ea90 27be 1662 d3be b99c 30be a67b f53e
000001f0: a904 aa3e e1e5 c0bd b38a 073e 1461 c33e
00000200: 6b11 023f c7cb 82bd b129 e93d 2e3a 06bf
00000210: 14b8 80bd e853 483e dc5d 263e aedb a33e
00000220: 4733 a4bd 4a39 473e 169c 24be 7711 95be
00000230: ea0c d33d 1176 ecbd 335c 72be c64f b53e
00000240: c2b8 d8be 63db 31be c2a7 0b3e 0832 81bc
00000250: 444f edbd a863 5f3e 4e1b 8abe 7cb4 023e
00000260: 90de a7be 866f e1bd 1a7b 843e f6a5 f3bd
00000270: 60bc 91be b1a5 223e a784 39bd 7a08 18bd
00000280: e2b2 20be 5f2f 91bd eb10 6cbe 17c3 833d
00000290: 757b fa3d 7457 77bd 66a0 cebe c3f1 933c
000002a0: 9a31 1abe 69d4 7bbe ee79 38bf 4923 7bbd
000002b0: c34b b53d 0ebf 35be 2dc2 7a3d eff2 f8be
000002c0: 665f a0be 8196 8f3e 89db e13d d3a4 543e
000002d0: fe0d 5d3e dbe0 f5be 4d87 da3d 19c8 29bf
000002e0: 4d85 423e d79f f0bc 1266 973e 8786 a1be
000002f0: 214d 0bbf 972d aabe 14a6 17be 0c34 dc3c
00000300: c13e 87be 4de2 ccbd b798 09be 0505 3cbe
00000310: f9ae ba3d 6f8b 8e3c 9c5e 57bc 7f79 bebd
00000320: 972b 61be 3f76 07be ec96 38bd 00be 453e
00000330: 8249 873e d796 f43e 4c44 87bd b7a0 efbe
00000340: 0b9f afbe 2325 e33e c5e2 833e 287b b7be
00000350: 4509 c8bd f57d b23d 0d97 ee3c 8a1c 923e
00000360: c3fe d2bd c23f 9f3a b7fc 453e 2d02 2c3d
00000370: fb0a 30be b0df 48be 1bf1 4bbe 33ec dfbe
00000380: 0820 b83e 289b 08be 1944 443e 96ed d4bd
00000390: 51ac 52be 1c75 ffbc 8850 073e dc95 92bb
000003a0: d3a4 223d e258 05bf 81e5 0fbd 91aa 403e
000003b0: 20aa 333d da30 a6be 03d6 05bd bb5d 303d
000003c0: c570 4abe 3ee0 26be 599c bd3d 2eb3 d1bd
000003d0: a98f 88be 82c0 adbe d2af 963e f3af 2dbe
000003e0: ec44 9e3d 2a3a f43e 7899 3b3e e289 b9bd
000003f0: 8a4b 8b3d 4c04 6bbe 5a1f 093f 2329 dd3d
-0.34443682 -0.058108147 0.12249132 -0.3927114 0.26638842 0.3827623 -0.016160801 -0.01511921
-0.07760856 -0.24045935 -0.22008154 0.19821125 -0.36615288 -0.17976077 0.60292643 -0.011367954
0.08961238 -0.23428462 -0.2918815 -0.1392666 0.005023971 0.17186663 0.13615668 -0.03190144
0.102142595 0.043208666 0.09240582 -0.0717558 0.0017034572 0.7068762 -0.2084132 -0.066893116
-0.35775506 -0.03677995 0.10637728 -0.5516031 0.11640466 0.2369871 -0.07528928 -0.06922912
-0.11445218 0.03501788 -0.07197638 0.77626747 -0.5563428 0.0028197428 0.51844317 0.24249625
0.35361 0.18119009 -0.23237163 0.09103721 -0.0013467546 -0.027453119 -0.19617595 0.18123987
-0.2579957 -0.037822586 -0.1402609 -0.12640986 -0.31746885 -0.19244194 0.30891034 0.36269882
0.2579791 0.21342422 0.04035591 -0.07497677 0.025237445 -0.36655667 0.26312938 -0.07763734
-0.051885962 0.120345645 0.0673728 -0.4230208 0.026831359 0.1438756 0.1045599 0.06442905
-0.3057308 -0.036854304 0.5328341 0.36457226 -0.37388813 -0.0021502995 0.5760436 0.26884094
0.14172648 0.04736416 -0.05706034 -0.20313619 -0.23143095 0.31727603 0.1941236 -0.24944955
-0.26822773 -0.005095783 0.03912662 0.10578139 0.19463001 -0.2912182 -0.01995561 -0.108219065
0.4519023 -0.10730338 0.102013305 0.271707 -0.31906012 -0.14396723 0.18837127 -0.18785244
-0.09818378 -0.26289922 -0.22562432 -0.15517518 -0.32025552 0.047629107 0.07904988 -0.38348484
-0.16363874 -0.4128577 -0.17247285 0.479459 0.3320668 -0.09418846 0.13236503 0.38160002
0.5080783 -0.06386524 0.11384905 -0.52432525 -0.0628511 0.19563258 0.16246742 0.3200354
-0.08017593 0.19455448 -0.16075167 -0.29114887 0.103051975 -0.11545957 -0.23667984 0.35412425
-0.4232846 -0.17368846 0.13638213 -0.015770927 -0.11587384 0.2181536 -0.26973957 0.12764162
-0.3278699 -0.110075995 0.2587517 -0.11896889 -0.2846403 0.15883519 -0.045292523 -0.03711746
-0.15693238 -0.070891134 -0.23053329 0.06433695 0.12230579 -0.060386136 -0.4035675 0.018059617
-0.15057984 -0.24592747 -0.7206105 -0.061312947 0.08852341 -0.17748663 0.061220337 -0.48622844
-0.31322783 0.28044513 0.11028201 0.20766 0.21587369 -0.48023114 0.10670338 -0.6632095
0.18996163 -0.029373093 0.2957006 -0.3154795 -0.54414564 -0.33237907 -0.14809448 0.026880287
-0.26415065 -0.10004101 -0.13437162 -0.1836129 0.09115405 0.017400471 -0.013145115 -0.09300517
-0.21989284 -0.13228701 -0.045065805 0.1931076 0.2642327 0.47771332 -0.066048235 -0.46802303
-0.34301028 0.4436427 0.2575895 -0.35836148 -0.09767393 0.08715431 0.029124761 0.285374
-0.10302498 0.0012149739 0.19334684 0.041994262 -0.17191689 -0.1961658 -0.19916193 -0.43734893
0.35961938 -0.13340437 0.19166602 -0.103968784 -0.20573546 -0.031183772 0.13214314 -0.004473431
0.03970797 -0.5208875 -0.03513098 0.18815066 0.043863416 -0.32459146 -0.0326748 0.04305814
-0.1976958 -0.16296479 0.092583366 -0.10239254 -0.26672104 -0.33935934 0.29431015 -0.1696165
0.077279896 0.47700626 0.18320262 -0.09059502 0.06801517 -0.22950858 0.53563464 0.10798862
