checkpoint_actor_GPU2.pth (torch_old, 548298 bytes, 10 tensors)

fc1.weight f4 [400, 33]
-0.02310728 0.051194884 -0.041480307 0.025594702 0.21551381 0.07985405 -0.04346413 -0.051299818
0.10957108 -0.10834459 0.037960995 0.07755923 -0.016466975 -0.14294954 -0.029042413 -0.040779527
0.12296188 0.10909377 0.02041656 -0.12986118 0.023237662 0.018767944 -0.09036362 -0.08634173
0.005483233 -0.038485523 -0.039883666 -0.042348675 0.039860226 -0.0025705472 -0.030790858 0.01645017
0.04216019 0.102407694 0.13400896 0.040858816 0.18539272 -0.23158833 0.18209511 0.019572679
0.045009706 -0.0057633035 0.06405506 0.034962717 0.082288064 0.00054848514 -0.09004546 -0.10358022
-0.0021264842 -0.0009040749 0.0074993633 0.034529813 0.09208821 0.009068166 0.018989354 0.004739826
-0.033805627 -0.033644877 -0.032856833 0.048257947 -0.013287161 -0.04415782 0.02897251 -0.0019637174
-0.019650782 0.2176938 -0.05757077 0.12170635 0.0044690757 -0.06943981 -0.08861962 -0.0019824246
0.0465782 -0.102823704 -0.02690584 0.025093324 -0.07685385 0.09765217 0.055799223 -0.06255129
-0.0038041158 0.034711678 0.06813295 0.1472872 -0.044776883 -0.081433736 -0.011188257 -0.03216716
0.031363633 -0.06198464 0.08319576 0.07880309 -0.031980608 -0.027556792 0.053822573 -0.021043802
-0.00037042017 -0.030002033 0.044581443 0.14140591 -0.070341215 0.06008144 -0.14267121 -0.13790385
-0.14185248 -0.06669997 -0.047510374 -0.07688246 0.074455865 0.018108599 0.0361773 -0.071169294
0.041738413 0.06432541 -0.03055361 0.18275033 0.060450494 0.11917026 -0.079644136 -0.013389453
0.035483796 -0.02644104 -0.03905122 -0.04908462 -0.02805115 0.0835294 -0.026802044 0.060470726
-0.021660006 0.02989431 -0.0375048 -0.11527939 -0.1070538 -0.05102964 0.010255605 -0.009809791
-0.25403145 0.08508664 0.06147325 -0.018942304 0.2132196 -0.058353476 -0.1295459 0.023866365
-0.011827219 -0.074969105 -0.11966806 0.027805012 -0.013030562 -0.08385599 0.0998346 0.08772258
0.017434247 -0.057480495 -0.042174347 0.04383011 -0.011670923 0.06990444 0.056188963 -0.0376501
-0.021348832 -0.038001813 0.0041228603 0.0089323 0.061043527 -0.053043544 -0.011000193 0.1175671
0.056370523 0.05738216 0.036732376 -0.065944806 0.007729539 -0.03359061 -0.068942636 -0.0012825096
-0.021967843 0.00061274075 0.08667014 -0.057493266 -0.12111181 -0.10737255 0.062309727 -0.044142745
0.030772835 -0.07329039 -0.07833091 0.030564928 0.046617176 -0.010195201 -0.018965222 0.019485433
-0.027971359 -0.108380705 -0.032632954 -0.04364193 0.031592432 0.15168554 -0.0225584 -0.011718868
-0.017602451 -0.0031791464 0.09847874 0.10673008 -0.13707942 0.06728737 -0.006265384 -0.10821308
0.044643097 0.02755964 0.01813598 0.016785966 -0.028324585 0.04735938 0.10012797 -0.014114575
0.021765754 -0.12921171 -0.023766007 0.10643154 0.02648142 0.0035137164 0.056130055 0.02642103
-0.023482554 -0.010564594 0.11160549 0.012936551 0.040492613 -0.040353537 -0.41673067 -0.015129026
0.10759673 0.002987167 0.029436616 0.06307603 -0.19153833 -0.044373214 0.032400675 -0.11201796
-0.08352818 0.041976266 0.0023617547 -0.07677781 0.07199484 -0.019936983 0.009802132 -0.00403077
-0.06357553 0.1454107 -0.040997528 -0.13622355 -0.031976976 -0.17228988 0.042171016 0.010597465
00000000: 7a4b bdbc bab1 513d 41e7 29bd fbab d13c
00000010: a7af 5c3e 858a a33d 7207 32bd c21f 52bd
00000020: cd66 e03d c5e3 ddbd fd7c 1b3d 60d7 9e3d
00000030: c0e5 86bc 5d61 12be 5bea edbc 6f08 27bd
00000040: 70d3 fb3d 8e6c df3d a140 a73c 54fa 04be
00000050: e95c be3c 3bbf 993c 9010 b9bd efd3 b0bd
00000060: b1ac b33b ffa2 1dbd 0e5d 23bd ce75 2dbd
00000070: 7a44 233d a076 28bb 1c3d fcbc 82c2 863c
00000080: 2ab0 2c3d 20bb d13d a539 093e 935b 273d
00000090: 97d7 3d3e 7e25 6dbe 2477 3a3e e256 a03c
000000a0: 195c 383d 18da bcbb 4d2f 833d 1135 0f3d
000000b0: a586 a83d 37c8 0f3a c169 b8bd de21 d4bd
000000c0: 7c5c 0bbb 71ff 6cba 38bd f53b 226f 0d3d
000000d0: be98 bc3d a592 143c 908f 9b3c 8b50 9b3b
000000e0: c577 0abd 36cf 09bd e394 06bd 20aa 453d
000000f0: 64b2 59bc d5de 34bd c257 ed3c b6b1 00bb
00000100: adfa a0bc 20eb 5e3e 54cf 6bbd 2e41 f93d
00000110: 5371 923b 7636 8ebd 347e b5bd 91eb 01bb
00000120: c8c8 3e3d 3c95 d2bd a369 dcbc 8490 cd3c
00000130: 8d65 9dbd dcfd c73d ba8d 643d e41a 80bd
00000140: 794e 79bb d52d 0e3d 4a89 8b3d 75d2 163e
00000150: f767 37bd bbc6 a6bd f34e 37bc b6c1 03bd
00000160: 2777 003d 9be3 7dbd 8a62 aa3d 8463 a13d
00000170: 19fe 02bd c8be e1bc 0f75 5c3d 0d64 acbc
00000180: f434 c2b9 d3c6 f5bc 089b 363d b6cc 103e
00000190: 0e0f 90bd f517 763d 6718 12be ab36 0dbe
000001a0: c741 11be fe99 88bd 3d9a 42bd 8d74 9dbd
000001b0: 517c 983d 7c58 943c a62e 143d 35c1 91bd
000001c0: e6f5 2a3d 0abd 833d 904b fabc e722 3b3e
000001d0: f09a 773d 8a0f f43d 771c a3bd 705f 5bbc
000001e0: 7557 113d e19a d8bc 2cf4 1fbd f40c 49bd
000001f0: 86cb e5bc 7611 ab3d f68f dbbc 27b0 773d
00000200: 5370 b1bc e9e4 f43c a29e 19bd 9a17 ecbd
00000210: 063f dbbd 7504 51bd 2007 283c 3fb9 20bc
00000220: 6910 82be e841 ae3d 60cb 7b3d e42c 9bbc
00000230: 3d56 5a3e 0e04 6fbd aea7 04be 6583 c33c
00000240: f4c6 41bc 6789 99bd 8714 f5bd 56c7 e33c
00000250: 237e 55bc b0bc abbd 1576 cc3d e5a7 b33d
00000260: 44d2 8e3c ab70 6bbd 02bf 2cbd 3487 333d
00000270: 6637 3fbc 0f2a 8f3d 6626 663d fe36 1abd
00000280: bfe3 aebc caa7 1bbd 0f19 873b c858 123c
00000290: c708 7a3d 3044 59bd 273a 34bc 05c7 f03d
000002a0: c7e4 663d 8e09 6b3d b074 163d 120e 87bd
000002b0: 1348 fd3b 4f96 09bd cc31 8dbd e219 a8ba
000002c0: e8f5 b3bc 56a0 203a 1d80 b13d 0f7e 6bbd
000002d0: 7809 f8bd 24e6 dbbd 7c38 7f3d 06cf 34bd
000002e0: 5017 fc3c 4619 96bd f56b a0bd 4d63 fa3c
000002f0: a7f1 3e3d c609 27bc f45c 9bbc ea9f 9f3c
00000300: 3124 e5bc b4f6 ddbd 22aa 05bd e1c1 32bd
00000310: 1167 013d 7453 1b3e 65cc b8bc 7f00 40bc
00000320: 0433 90bc 3a59 50bb 39af c93d 4d95 da3d
00000330: 8c5e 0cbe f6cd 893d da4d cdbb d29e ddbd
00000340: aedb 363d c1c4 e13c e891 943c b982 893c
00000350: f608 e8bc e9fb 413d e50f cd3d d240 67bc
00000360: 184e b23c 1350 04be eeb0 c2bc c7f8 d93d
00000370: 90ef d83c 6146 663b a1e8 653d ea70 d83c
00000380: 7c5e c0bc 1e17 2dbc 6b91 e43d d4f3 533c
00000390: 95db 253d c049 25bd b95d d5be bcdf 77bc
000003a0: ad5b dc3d 59c4 433b 0f25 f13c 012e 813d
000003b0: a022 44be b0c0 35bd 92b6 043d ac69 e5bd
000003c0: d310 abbd 4eef 2b3d abc7 1a3b af3d 9dbd
000003d0: 0872 933d e252 a3bc 1f99 203c 8d14 84bb
000003e0: e333 82bd 8be6 143e 06ed 27bd 307e 0bbe
000003f0: 4afa 02bd c26c 30be 84bb 2c3d fda0 2d3c

fc1.bias f4 [400]
0.048880357 0.15530266 0.0917184 0.029115628 -0.117857374 0.11618487 0.0001880161 0.05776305
-0.083475724 -0.1450681 -0.15525222 -0.052466743 -0.12933399 -0.15074678 0.17148335 0.06894587
-0.023094641 -0.15414181 -0.12368798 -0.16429926 -0.04339546 0.12378093 -0.022945013 0.038663458
-0.012617572 0.10557189 0.16647735 -0.07083812 -0.1339791 0.10213043 0.115209 0.013879967
-0.07802918 -0.04102936 0.098457806 0.05202553 -0.060541928 0.049549215 0.054479685 -0.04993921
-0.09979962 0.042655207 0.042784635 0.1688787 -0.028669951 0.025746223 0.038495306 0.07824636
0.08176205 -0.12140481 0.14787723 0.034072887 0.17383273 -0.13419826 0.15510952 0.1273683
-0.066480726 -0.16074133 0.02833109 0.10634439 -0.08891883 0.072263554 0.027376164 0.14785488
0.16957796 0.0791364 -0.030389773 -0.058233935 0.122777835 -0.093986996 -0.06462231 -0.10193782
-0.17354178 0.15665169 0.111638874 0.07123175 0.12853967 0.12408018 0.120245755 -0.11338916
0.11362822 -0.012339129 0.16700745 0.15314417 0.038899653 -0.0938298 0.16391723 -0.17245445
-0.074696444 0.051743403 0.020032337 -0.13189323 -0.10169537 0.033951875 -0.033527344 -0.14039834
0.10094347 0.12834589 -0.016842984 0.08818303 0.036270965 0.09656879 0.0011585726 0.052740745
0.12096165 -0.054093745 0.12507956 0.04874801 -0.1408861 0.13815075 -0.06812813 -0.17023964
-0.044054944 -0.17215928 -0.04975684 -0.0431373 -0.12535784 0.14177574 0.10868647 0.087639384
0.16065912 -0.07063189 0.06710511 0.12954038 0.13933589 0.063737296 0.0798294 0.15713638
0.14543973 -0.13879117 0.14296734 -0.068381704 0.11292057 -0.16976058 0.15532285 0.14515586
-0.049696844 0.15894687 0.035047326 -0.114745654 0.06871274 -0.11001683 -0.091061495 0.14983597
0.005219212 -0.09460027 -0.16662498 -0.008912664 0.01970239 -0.030219175 0.007849804 0.14213946
-0.15898778 0.04033951 -0.020069573 -0.15346648 -0.16913289 -0.00803754 -0.16772592 0.1721405
-0.14912312 -0.004875317 -0.004270274 -0.10180087 0.16264546 -0.025015905 -0.06675592 0.14086074
0.056764193 -0.05235752 -0.16884351 -0.033545192 -0.043334037 -0.04747457 0.10338733 -0.013077144
0.0475883 0.14202023 0.0029094017 0.1641455 0.073093355 -0.1302556 0.08733435 -0.07201804
0.13745667 0.049567517 -0.10511408 -0.105487026 -0.17247912 -0.16652429 -0.110657886 0.044680476
-0.0500213 0.033620827 -0.14851403 -0.0008800179 -0.08227898 0.04545848 -0.120953195 0.083471276
-0.07257949 0.019261045 -0.073984995 0.14814946 0.016360726 0.08471096 -0.068769194 0.13955021
-0.06443906 0.11090617 0.16689013 -0.087630294 0.0393003 0.035347465 -0.00079375925 0.075281374
0.15409027 -0.0013250842 0.042582292 0.10806739 -0.14308365 0.10262833 0.005479393 -0.12639587
0.07153745 -0.07984041 -0.12801373 -0.05678399 0.022640537 0.10028346 -0.076885395 0.14589293
-0.12375414 -0.12722875 0.06867358 0.16351578 0.13187951 0.12556253 0.01056796 -0.061869077
-0.12933612 -0.124153346 0.053956624 -0.012280648 -0.027635965 -0.033204705 -0.0003811917 -0.10196628
-0.03941192 0.14291753 -0.09251999 -0.0129064275 -0.1374561 -0.069809586 0.058995664 0.075346895
00000000: c536 483d a907 1f3e dbd6 bb3d e683 ee3c
00000010: 355f f1bd 55f2 ed3d 3026 4539 f398 6c3d
00000020: 52f5 aabd bb8c 14be 70fa 1ebe 5ee7 56bd
00000030: 2170 04be 5d5d 1abe 5599 2f3e 7e33 8d3d
00000040: f930 bdbc 5ad7 1dbe 2050 fdbd 113e 28be
00000050: 70bf 31bd db80 fd3d 2ef7 bbbc 935d 1e3d
00000060: efb9 4ebc 1336 d83d 0a79 2a3e 9413 91bd
00000070: d131 09be c229 d13d b2f2 eb3d cd68 633c
00000080: c3cd 9fbd 670e 28bd 3fa4 c93d b918 553d
00000090: d0fa 77bd 1ef4 4a3d 1726 5f3d 0f8d 4cbd
000000a0: be63 ccbd 3ab7 2e3d f13e 2f3d 8aee 2c3e
000000b0: 3fdd eabc bee9 d23c 41ad 1d3d a13f a03d
000000c0: dd72 a73d 16a3 f8bd 216d 173e 0390 0b3d
000000d0: 3501 323e 456b 09be 08d5 1e3e d66c 023e
000000e0: 0c27 88bd 6099 24be 9a16 e83c 16cb d93d
000000f0: 131b b6bd eafe 933d fa43 e03c 4567 173e
00000100: d8a5 2d3e 4412 a23d f9f3 f8bc b586 6ebd
00000110: f272 fb3d 417c c0bd b458 84bd c7c4 d0bd
00000120: f0b4 31be 4d69 203e eca2 e43d f4e1 913d
00000130: e79f 033e c01d fe3d 6843 f63d 9338 e8bd
00000140: eab5 e83d 0f2a 4abc 0004 2b3e d3d1 1c3e
00000150: 3e55 1f3d d729 c0bd ebd9 273e e697 30be
00000160: 73fa 98bd e4f0 533d db1a a43c 050f 07be
00000170: aa45 d0bd 1f11 0b3d f853 09bd 95c4 0fbe
00000180: 73bb ce3d 1b6d 033e 4cfa 89bc 4e99 b43d
00000190: dd90 143d dcc5 c53d 3fdb 973a ae06 583d
000001a0: beba f73d 6791 5dbd db14 003e feab 473d
000001b0: 7244 10be 6477 0d3e c386 8bbd 4d53 2ebe
000001c0: f572 34bd 864a 30be d4cd 4bbd bdb0 30bd
000001d0: ce5d 00be a92d 113e 0397 de3d 477c b33d
000001e0: d383 243e 74a7 90bd 676e 893d 3ca6 043e
000001f0: 11ae 0e3e b388 823d 997d a33d 5ce8 203e
00000200: 27ee 143e 461f 0ebe 0866 123e b50b 8cbd
00000210: e642 e73d b8d5 2dbe f40c 1f3e bda3 143e
00000220: eb8e 4bbd f8c2 223e c98d 0f3d c5ff eabd
00000230: 44b9 8c3d 8150 e1bd 737e babd 9a6e 193e
00000240: ec05 ab3b c9bd c1bd bd9f 2abe 6c06 12bc
00000250: e866 a13c 348e f7bc 779c 003c 028d 113e
00000260: b1cd 22be 0b3b 253d f268 a4bc 5126 1dbe
00000270: 2c31 2dbe e3af 03bc 58c0 2bbe 9945 303e
00000280: bbb3 18be 20c1 9fbb a8ed 8bbb f97c d0bd
00000290: 888c 263e 28ee ccbc 54b7 88bd cc3d 103e
000002a0: 9281 683d d774 56bd 50e5 2cbe af66 09bd
000002b0: 087f 31bd b274 42bd bdbc d33d 8441 56bc
000002c0: f3eb 423d c06d 113e a9ab 3e3b c215 283e
000002d0: f8b1 953d b961 05be 5adc b23d 327e 93bd
000002e0: 71c1 0c3e 4f07 4b3d 0d46 d7bd 9509 d8bd
000002f0: 5e9e 30be 5885 2abe 9aa0 e2bd e002 373d
00000300: 22e3 4cbd feb5 093d 1014 18be 00b1 66ba
00000310: e281 a8bd ac32 3a3d 4fb6 f7bd fdf2 aa3d
00000320: 8ea4 94bd 57c9 9d3c 7285 97bd 7eb4 173e
00000330: ee06 863c f17c ad3d ddd6 8cbd 40e6 0e3e
00000340: a0f8 83bd c622 e33d 3fe5 2a3e 8377 b3bd
00000350: 5af9 203d 81c8 103d 4814 50ba 1f2d 9a3d
00000360: d7c9 1d3e 73ae adba c56a 2e3d 7052 dd3d
00000370: 8584 12be cd2e d23d 7b8c b33b eb6d 01be
00000380: 3a82 923d 5e83 a3bd 0816 03be 5496 68bd
00000390: a678 b93c 6a61 cd3d 1776 9dbd f564 153e
000003a0: d072 fdbd 4148 02be bca4 8c3d ae70 273e
000003b0: 6c0b 073e 7793 003e 3d25 2d3c 6e6a 7dbd
000003c0: b070 04be 1c44 febd 9f01 5d3d c534 49bc
000003d0: d264 e2bc a801 08bd afda c7b9 b2d3 d0bd
000003e0: 656e 21bd f958 123e 1f7b bdbd 7b75 53bc
000003f0: 4bc1 0cbe 54f8 8ebd 70a5 713d 794f 9a3d

fc2.weight f4 [300, 400]
0.021801757 0.057688456 -0.16061093 0.055145636 -0.044125892 -0.2643983 0.061425537 -0.011539503
-0.06473456 -0.11616765 0.051898096 -0.07973895 0.12913798 0.09652719 -0.17506683 0.12874767
-0.11828854 -0.007405975 -0.052764367 0.12495168 -0.19514096 0.08185272 -0.027088178 0.1658352
0.05268245 -0.24877077 0.045567 -0.095592186 0.030874118 -0.15477541 -0.023195965 -0.22193505
0.04764909 -0.21088862 0.07056467 0.029484576 -0.19883709 0.07575457 -0.052693013 0.051472317
0.11825047 0.10888533 -0.12055698 0.17328471 0.08815858 -0.120826185 -0.15572935 -0.08694835
0.078707196 0.054192096 0.023198932 0.09170312 0.18633632 0.1423994 0.18656424 -0.275684
-0.03138302 -0.022024352 0.040753763 0.037005402 0.031418543 -0.06376969 -0.21951793 0.0004705892
-0.015839279 -0.07334032 -0.0458301 -0.21704513 -0.124837406 0.037341237 0.07525239 0.12769797
-0.08016546 0.059734393 -0.00860024 0.03197909 0.041129984 0.052198637 0.1523768 0.038290758
0.045195617 -0.05357894 0.17974438 -0.0149034755 -0.1213599 0.06172633 0.04318571 0.25748184
0.26902354 0.027208386 0.06360211 -0.10619661 0.0026155198 0.086183816 -0.118336104 0.12707506
0.13966514 0.052153215 0.054879762 -0.11869185 -0.28200355 -0.0073732687 0.09102679 0.037576456
-0.08010223 0.070600055 0.120297246 0.09344821 0.0578954 0.21978967 0.106733195 0.070893005
-0.113958046 -0.002662218 0.013150913 -0.0049837264 -0.038451176 -0.08090598 -0.14637823 -0.004667977
-0.12873833 -0.075420946 -0.03495786 0.043449584 -0.14622997 -0.18661858 -0.10455845 0.24657288
-0.0824802 -0.075880714 0.05782631 0.03407455 -0.0061258646 -0.16086963 0.04125122 0.06168675
0.010708773 0.14232899 0.13531582 0.09090609 0.102124035 -0.110888176 -0.16516155 0.05562549
0.027918069 -0.06579436 -0.01081795 0.007966581 -0.00387362 -0.13380809 0.24175249 0.07324305
0.00505234 -0.07300069 -0.28554693 0.10015905 0.021327393 0.16536427 0.030719604 0.018017989
0.098076075 -0.36287272 0.08688397 -0.012633589 0.0989031 0.102399684 0.09278781 -0.0844
-0.13938972 -0.13417466 0.07037214 -0.033339225 0.07125378 0.1391524 0.010706985 0.09185725
0.24400488 -0.11899571 -0.11835054 -0.058912624 0.07100458 0.10064214 -0.017671157 -0.05290815
0.09824369 0.02682562 -0.14970367 -0.15761304 -0.13743405 -0.14494076 0.022254588 -0.0028400745
-0.0036854683 -0.07677436 -0.06770685 0.016929766 -0.12747422 0.20397778 0.049696155 -0.027591623
-0.032256942 -0.2706851 -0.13942276 0.12421638 0.12765086 0.07290206 -0.06768064 -0.10238989
0.0013284321 -0.08322897 0.15120411 -0.18620354 0.059013203 -0.08240839 0.013836725 0.16158019
0.024716685 0.09630001 0.069161944 -0.06498354 0.004872967 0.08286207 0.14868668 -0.13410547
0.07035371 -0.11890807 -0.3360642 0.14368804 -0.061896905 0.023444891 0.04783488 -0.007943916
-0.17016593 0.06432734 0.10838712 0.0199191 0.037721083 -0.06477126 -0.056511827 0.101414904
0.15545906 -0.01783355 0.026968509 0.023159232 -0.1917769 -0.15020765 0.15922117 -0.04465829
-0.06301623 0.032967377 0.071132585 -0.084629916 0.042592276 0.09521478 -0.079610646 -0.04484434
00000000: 9999 b23c bb4a 6c3d 3177 24be 64e0 613d
00000010: 5abd 34bd 375f 87be 5899 7b3d 2f10 3dbc
00000020: 8e93 84bd 4ee9 edbd 1993 543d 2d4e a3bd
00000030: bf3c 043e 0cb0 c53d b844 33be 6ed6 033e
00000040: 4341 f2bd d2ad f2bb 731f 58bd abe6 ff3d
00000050: 08d3 47be 66a2 a73d 07e8 ddbc b4d0 293e
00000060: 8dc9 573d c4bd 7ebe 76a4 3a3d d6c5 c3bd
00000070: b8eb fc3c 727d 1ebe 7705 bebc f142 63be
00000080: b12b 433d 30f3 57be 3684 903d a389 f13c
00000090: f39b 4bbe 3625 9b3d a1d4 57bd a3d4 523d
000000a0: 4d2d f23d 46ff de3d 94e6 f6bd 8c71 313e
000000b0: 7c8c b43d b873 f7bd 8477 1fbe fa11 b2bd
000000c0: 3d31 a13d 88f8 5d3d b00b be3c d8ce bb3d
000000d0: f3ce 3e3e 26d1 113e b20a 3f3e 7426 8dbe
000000e0: 7b8b 00bd 6a6c b4bc 6bed 263d fa92 173d
000000f0: bbb0 003d af99 82bd 4fc9 60be 6ab9 f639
00000100: 60c1 81bc 7333 96bd 58b8 3bbd 1441 5ebe
00000110: c1aa ffbd 20f3 183d ed1d 9a3d 42c3 023e
00000120: ca2d a4bd 0dac 743d 05e8 0cbc 82fc 023d
00000130: ea77 283d 3dce 553d aa08 1c3e c5d6 1c3d
00000140: 0a1f 393d 9775 5bbd e90e 383e b52d 74bc
00000150: 8a8b f8bd c0d4 7c3d 80e3 303d a9d4 833e
00000160: 74bd 893e 1fe4 de3c d341 823d 9c7d d9bd
00000170: 2469 2b3b 2481 b03d 335a f2bd f71f 023e
00000180: 6104 0f3e 9c9e 553d 9ac9 603d b614 f3bd
00000190: c562 90be 769b f1bb 416c ba3d c5e9 193d
000001a0: a30c a4bd c396 903d 675e f63d c661 bf3d
000001b0: ba23 6d3d 8b10 613e ef96 da3d 5a30 913d
000001c0: d662 e9bd 9b78 2ebb ed76 573c 874e a3bb
000001d0: fb7e 1dbd 09b2 a5bd 2de4 15be d4f5 98bb
000001e0: fbd3 03be 4c76 9abd f92f 0fbd 31f8 313d
000001f0: 4fbd 15be f118 3fbe be22 d6bd 9a7d 7c3e
00000200: 61eb a8bd 5967 9bbd 48db 6c3d c191 0b3d
00000210: 7abb c8bb 02bb 24be 0af7 283d 3fab 7c3d
00000220: d973 2f3c b1be 113e 3b90 0a3e f92c ba3d
00000230: 6826 d13d 5719 e3bd 1c20 29be 8ed7 633d
00000240: 6fb4 e43c 32bf 86bd c53d 31bc 4386 023c
00000250: 8fdc 7dbb fd04 09be f78d 773e 7400 963d
00000260: 1a8e a53b 6381 95bd 3533 92be 3020 cd3d
00000270: c9b6 ae3c 4055 293e aea7 fb3c 769a 933c
00000280: 1cdc c83d 74ca b9be 39f0 b13d 1dfd 4ebc
00000290: b58d ca3d edb6 d13d 8907 be3d e8d9 acbd
000002a0: 2ebc 0ebe 1565 09be 451f 903d b68e 08bd
000002b0: 80ed 913d f77d 0e3e 5a6c 2f3c a71f bc3d
000002c0: 6adc 793e 06b4 f3bd c561 f2bd 5d4e 71bd
000002d0: d96a 913d 771d ce3d 1ac3 90bc 37b6 58bd
000002e0: fd33 c93d 67c1 db3c eb4b 19be 5065 21be
000002f0: 83bb 0cbe 5a6b 14be 414f b63c 8b20 3abb
00000300: e687 71bb e03b 9dbd e4a9 8abd 4bb0 8a3c
00000310: 9a88 02be 8ddf 503e 328e 4b3d d407 e2bc
00000320: db1f 04bd 3d97 8abe d7c4 0ebe 2865 fe3d
00000330: e8b6 023e ad4d 953d 269c 8abd cab1 d1bd
00000340: c91e ae3a f373 aabd 40d5 1a3e 24ac 3ebe
00000350: d4b7 713d bbc5 a8bd 6eb3 623c 4775 253e
00000360: a57a ca3c f138 c53d c7a4 8d3d 1716 85bd
00000370: 69ad 9f3b 97b3 a93d 5241 183e f252 09be
00000380: 9b15 903d 1386 f3bd 9b10 acbe f522 133e
00000390: 9c87 7dbd 800f c03c 82ee 433d 3327 02bc
000003a0: fa3f 2ebe 0dbe 833d 11fa dd3d 612d a33c
000003b0: 6c81 1a3d cba6 84bd f278 67bd 9eb2 cf3d
000003c0: a930 1f3e aa17 92bc 10ed dc3c 6eb8 bd3c
000003d0: 2a61 44be 09d0 19be e00a 233e 9ceb 36bd
000003e0: a70e 81bd cd08 073d f6ad 913d 7352 adbd
000003f0: 3d75 2e3d f7ff c23d e80a a3bd b3ae 37bd

fc2.bias f4 [300]
-0.07168541 -0.00826383 -0.0508389 -0.023944529 0.012064127 0.005920081 -0.009886044 -0.04614305
-0.034133382 0.04050279 0.028377213 0.02067393 -0.023766382 -0.184289 -0.022548461 -0.009505244
0.0025074023 -0.0051956694 0.041595012 0.03053661 -0.1589314 0.06482403 -0.01945181 -0.107820705
-0.10000739 -0.022039091 -0.0002854021 -0.008574466 -0.32015625 0.043040212 -0.0014477344 -0.030707426
-0.09777167 -0.027448218 -0.09811903 0.017060535 -0.03632833 -0.07463089 -0.16788203 -0.06367084
-0.14697133 -0.09952492 -0.0971013 -0.07968129 0.0686177 -0.036451194 0.011053542 -0.039015118
-0.041266326 -0.007230763 -0.09304741 -0.16813649 -0.08891778 -0.048682444 0.062085565 -0.050377462
-0.18524875 0.07206908 -0.12745108 -0.015028898 0.07292185 -0.015479719 -0.1875129 -0.09470704
-0.08669459 0.006601501 -0.01222094 0.093009524 0.016973887 0.001188162 -0.18420951 0.09429928
-0.14050236 -0.06747959 0.090088084 -0.18226944 -0.11325863 -0.069779105 -0.07569242 -0.06869214
-0.022997767 0.1532824 0.020978374 -0.13605356 0.00874387 -0.046319425 -0.072909184 -0.06972604
0.055384878 0.04087373 -0.06834385 -0.09708259 -0.0893425 -0.032686554 -0.024604872 -0.04195139
0.107216954 -0.0277779 -0.08126843 -0.049440082 0.006453676 0.08246428 0.052891415 -0.14225073
-0.0037799214 -0.10207685 0.011256761 -0.12156588 0.07272253 -0.020204151 -0.033302493 -0.047831353
-0.03909733 -0.00089626387 -0.028591892 -0.19639641 0.006222826 -0.06871077 0.07173635 0.045153774
-0.08286053 -0.09015494 0.033435598 0.044086352 0.006584102 -0.035817772 -0.016944977 0.028961726
-0.007180865 0.0629298 -0.0013473104 -0.12801409 -0.067461394 -0.03347841 -0.003256544 -0.3937447
0.009433906 -0.015707804 0.027115393 0.025023764 -0.17416342 -0.0070892912 -0.0549874 -0.026697513
0.009918038 0.019403894 -0.03702889 -0.12637563 0.11914951 -0.08890215 0.00201597 0.048487976
-0.050200585 -0.08977492 -0.08318134 0.00828572 -0.14209756 -0.049794175 -0.05720255 0.06255972
0.072355464 0.024083132 -0.16638522 0.1306236 0.048691157 0.04398529 -0.12319644 0.01017713
-0.0036546972 -0.06424459 -0.015604985 -0.0011489827 0.046430502 -0.079714924 0.017860394 0.045180377
-0.054928057 -0.20428771 -0.16134171 -0.11589452 0.057570383 0.014513705 -0.1426821 -0.044294342
-0.083507836 -0.031544242 0.109597884 0.058893923 -0.037984036 -0.112122454 -0.03988629 0.10056107
-0.037683085 -0.12549342 -0.14172475 0.0467029 -0.21155259 0.0037552943 0.014723026 -0.13633206
-0.122696504 -0.09874973 -0.055790283 0.013793624 -0.015508814 -0.07627684 -0.11860434 -0.081034675
-0.0515092 -0.059552263 -0.02305 -0.01900011 -0.030817736 -0.0048439107 0.06559162 -0.12627392
0.004290115 0.027871298 -0.10536216 -0.016964685 -0.040437877 -0.15195991 -0.06457723 -0.08646722
0.02043119 -0.07328076 -0.16078992 -0.018741157 -0.015240401 -0.026610205 -0.05297492 -0.06715078
-0.07346438 0.024616022 0.07398526 0.062694356 -0.04106954 -0.109315254 0.0895985 -0.0779484
0.013525182 0.030693982 -0.01632473 -0.04395657 -0.047829583 -0.18615876 -0.04299197 -0.15444393
0.03174262 -0.16359586 -0.11215728 0.116821446 -0.015587916 0.040402748 -0.014155754 -0.04033492
00000000: cdcf 92bd 0465 07bc 733c 50bd 5127 c4bc
00000010: 9ea8 453c 3dfd c13b 13f9 21bc 7f00 3dbd
00000020: 72cf 0bbd 41e6 253d 5477 e83c 605c a93c
00000030: b7b1 c2bc 41b6 3cbe 8db7 b8bc e2bb 1bbc
00000040: 3b53 243b 6f40 aabb 885f 2a3d ea27 fa3c
00000050: eabe 22be 76c2 843d 6759 9fbc 1ad1 dcbd
00000060: add0 ccbd 538b b4bc 05a2 95b9 eb7b 0cbc
00000070: 85eb a3be ef4a 303d e8c1 bdba 248e fbbc
00000080: 833c c8bd 16db e0bc a1f2 c8bd 89c2 8b3c
00000090: 04cd 14bd 14d8 98bd 44e9 2bbe db65 82bd
000000a0: a77f 16be b9d3 cbbd 0cdd c6bd f22f a3bd
000000b0: 7087 8c3d d94d 15bd ea19 353c 51ce 1fbd
000000c0: e106 29bd 09f0 ecbb a48f bebd f92b 2cbe
000000d0: 861a b6bd 3e67 47bd 6f4d 7e3d 9958 4ebd
000000e0: d9b1 3dbe f498 933d 8982 02be c43b 76bc
000000f0: 0d58 953d a69e 7dbc 6203 40be c4f5 c1bd
00000100: ef8c b1bd 6751 d83b 563a 48bc c77b be3d
00000110: d20c 8b3c 1abc 9b3a 6ba1 3cbe fb1f c13d
00000120: dadf 0fbe bd32 8abd 1a80 b83d d7a4 3abe
00000130: 24f4 e7bd 59e8 8ebd a104 9bbd 77ae 8cbd
00000140: d065 bcbc 10f6 1c3e d7da ab3c a051 0bbe
00000150: 7342 0f3c 70b9 3dbd 6951 95bd 87cc 8ebd
00000160: 41db 623d 366b 273d dcf7 8bbd 3dd3 c6bd
00000170: 33f9 b6bd 56e2 05bd 2890 c9bc 39d5 2bbd
00000180: 9094 db3d 7b8e e3bc 1070 a6bd af81 4abd
00000190: 5c79 d33b 08e3 a83d aba4 583d 2daa 11be
000001a0: 8fb8 77bb ab0d d1bd 476e 383c 88f7 f8bd
000001b0: 8def 943d 2d83 a5bc 3268 08bd cfea 43bd
000001c0: 8624 20bd 40f3 6aba 8b39 eabc 241c 49be
000001d0: d9e8 cb3b 3bb8 8cbd 82ea 923d 2af3 383d
000001e0: c8b2 a9bd 27a3 b8bd c4f3 083d e493 343d
000001f0: 73bf d73b a8b5 12bd 31d0 8abc 2441 ed3c
00000200: 764d ebbb 57e1 803d 3c98 b0ba 2016 03be
00000210: 3329 8abd a820 09bd be6b 55bb e898 c9be
00000220: ab90 1a3c a7ad 80bc 1a21 de3c a3fe cc3c
00000230: e557 32be 494d e8bb 783a 61bd beb4 dabc
00000240: 447f 223c eaf4 9e3c 9bab 17bd 9d68 01be
00000250: a904 f43d 5512 b6bd 5d1e 043b 549b 463d
00000260: 219f 4dbd eadb b7bd fa5a aabd d4c0 073c
00000270: 0682 11be faf4 4bbd 394d 6abd 4f1f 803d
00000280: 1a2f 943d fd49 c53c e360 2abe 31c2 053e
00000290: 6170 473d eb29 343d 6a4e fcbd fabd 263c
000002a0: a583 6fbb ab92 83bd 0dac 7fbc 7699 96ba
000002b0: e92d 3e3d 9441 a3bd f64f 923c 0f0f 393d
000002c0: 3efc 60bd cc30 51be c336 25be 1b5a edbd
000002d0: ecce 6b3d e4ca 6d3c 421b 12be fc6d 35bd
000002e0: 2806 abbd 8934 01bd db74 e03d c13a 713d
000002f0: 2695 1bbd 75a0 e5bd ce5f 23bd f6f2 cd3d
00000300: 9459 1abd 5981 00be 4b20 11be 8a4b 3f3d
00000310: 3ea1 58be 621b 763b d938 713c a29a 0bbe
00000320: 4e48 fbbd 4c3d cabd 5a84 64bd a7fe 613c
00000330: ae18 7ebc 0837 9cbd d5e6 f2bd 82f5 a5bd
00000340: 50fb 52bd 13ed 73bd 5bd3 bcbc 1ea6 9bbc
00000350: 7a75 fcbc abb9 9ebb e654 863d f34d 01be
00000360: 1894 8c3b 5952 e43c 1ec8 d7bd 86f9 8abc
00000370: 30a2 25bd 619b 1bbe 1141 84bd ba15 b1bd
00000380: 505f a73c 3914 96bd 1da6 24be 0e87 99bc
00000390: e0b2 79bc a5fd d9bc 3bfc 58bd 5986 89bd
000003a0: 7e74 96bd 8aa7 c93c 9685 973d e665 803d
000003b0: 8938 28bd ade0 dfbd 6b7f b73d 69a3 9fbd
000003c0: ba98 5d3c f271 fb3c 71bb 85bc ce0b 34bd
000003d0: f4e8 43bd 67a0 3ebe 5918 30bd 8d26 1ebe
000003e0: 8d04 023d ac85 27be b7b2 e5bd 1540 ef3d
000003f0: 7564 7fbc 5a7d 253d 89ed 67bc 3b36 25bd

fc3.weight f4 [4, 300]
-0.258895 0.6813908 0.013328266 -0.3331793 -0.06609651 -0.12448104 0.6218938 -0.20367758
-0.18127032 0.19206208 -0.07860941 0.005827467 0.6126413 0.4693392 -0.18253182 0.17500575
-0.073930204 -0.32534355 0.1411021 0.08429029 -0.39209792 -0.11095486 -0.09624244 -0.04532428
0.1295257 0.30046716 0.16394569 -0.1149076 0.2917054 -0.08485549 -0.84090334 -0.09393011
-0.21613544 -0.18855406 0.34299937 0.17304449 -0.49413803 -0.57605475 0.17037669 0.6504503
0.07796113 -0.15527873 -0.21905486 -0.18812515 0.028953021 -0.09414274 -0.21926369 0.93176603
-0.12662421 -0.34284845 -0.27236545 -0.25055265 0.017309492 0.3697159 -0.14608832 -0.20327784
0.58100605 0.03861355 -0.4829155 0.022789914 0.12175106 -0.039982628 0.2907984 -0.13706061
0.02847495 0.26728114 0.104911976 0.55033207 0.5153808 0.32862353 -0.14344548 -0.047861435
-0.09683145 0.12646286 0.19850203 0.51921886 0.48868582 -0.104551174 0.59976834 -0.4067329
-0.012500229 -0.09098434 0.27599978 -0.051493827 0.34366336 -0.29411742 -0.074388206 0.17954719
0.5947328 0.42038465 0.55854225 -0.25069737 -0.25268474 -0.06362654 -0.55681896 0.5631891
-0.15585122 0.22732083 -0.48285806 0.021609541 0.13204108 0.121265806 0.44446406 0.1846233
-0.00924867 -0.04975074 -0.067581415 -0.056067858 -0.08104374 0.21233213 -0.055827323 0.32086542
-0.2645269 -0.24873741 0.8576491 0.5700038 -0.24866763 0.60559404 -0.13889717 0.33650714
-0.18932578 -0.08592833 0.44271553 0.09954012 -0.063402995 -0.27769482 -0.12851745 0.029294021
-0.43491048 -0.20270875 0.12826075 -0.7596272 -0.11149825 0.17378166 0.82470995 0.75978404
-0.42634466 0.017265458 0.2358204 0.13582572 0.52592796 0.08878776 0.010719925 -0.26281533
0.15886782 -0.54778486 -0.46617937 0.289059 0.23656817 0.16053262 0.21443251 -0.16046014
0.07165255 0.1552553 -0.23318298 -0.34258538 -0.47928023 0.4482381 -0.15996002 0.2523078
-0.09660959 0.14124428 0.12311737 0.57862777 0.12472995 0.5033041 0.0007867163 -0.24918646
-0.065744855 0.45872122 0.26176685 0.012452086 0.24803953 -0.119364955 -0.5351232 0.6667015
-0.6441468 0.19079658 -0.025871096 -0.097081766 0.21861215 -0.14146315 0.45924923 0.14975463
0.26891762 -0.16458333 -0.18047261 -0.11320763 -0.26826957 -0.23035572 0.22554177 -0.13209017
-0.008238441 -0.35305876 -0.14185016 0.2268475 -0.36182764 0.13581638 0.06411674 -0.36119723
0.78341603 0.08201046 0.012482998 -0.07556861 0.060234588 0.079121 -0.012727569 0.65597785
-0.27813172 -0.08271023 0.09302309 -0.5311019 0.10057015 -0.075827084 -0.36164895 -0.49380124
-0.35985726 -0.32135698 0.5552129 0.12704234 0.5865908 -0.39511693 -0.1285603 -0.41541073
0.3710442 -0.23675388 0.6440536 -0.21662255 0.004650679 0.6606332 -0.040095348 0.5471807
-0.24097136 -0.004827151 -0.15870832 0.093416326 0.30398902 0.11311304 -0.074618265 -0.20058458
0.040825322 0.07843766 0.2733744 -0.200275 0.017656123 -0.19948111 -0.08441142 0.40787333
-0.27733445 0.36563593 0.035271313 0.026214482 0.11456412 -0.1376732 -0.695656 -0.18501231
00000000: e38d 84be a16f 2e3f cd5e 5a3c 7a96 aabe
00000010: 9b5d 87bd eaef febd 6f34 1f3f db90 50be
00000020: ed9e 39be ecab 443e f8fd a0bd 56f4 be3b
00000030: 0fd6 1c3f 3a4d f03e 9fe9 3abe b534 333e
00000040: b868 97bd 6e93 a6be 127d 103e 63a0 ac3d
00000050: 0fc1 c8be 4d3c e3bd c21a c5bd f4a5 39bd
00000060: 63a2 043e d5d6 993e 61e1 273e ad54 ebbd
00000070: 695a 953e b7c8 adbd 7145 57bf 6e5e c0bd
00000080: 9c52 5dbe 5114 41be 9d9d af3e 9332 313e
00000090: a9ff fcbe 5378 13bf 3a77 2e3e e983 263f
000000a0: 16aa 9f3d 6301 1fbe eb4f 60be e1a3 40be
000000b0: e32e ed3c e9cd c0bd a986 60be 3888 6e3f
000000c0: c7a9 01be d589 afbe 7c73 8bbe 7048 80be
000000d0: a3cc 8d3c 674b bd3e 2d98 15be 1128 50be
000000e0: d0bc 143f 3e29 1e3d b340 f7be eab1 ba3c
000000f0: 9f58 f93d d3c4 23bd 87e3 943e 9e59 0cbe
00000100: 4c44 e93c 13d9 883e 17dc d63d 90e2 0c3f
00000110: ffef 033f 5841 a83e 5fe3 12be 5a0a 44bd
00000120: 914f c6bd 7b7f 013e 1e44 4b3e 87eb 043f
00000130: 0735 fa3e ed1e d6bd 6b8a 193f 4b3f d0be
00000140: c3cd 4cbc ff55 babd d84f 8d3e 31eb 52bd
00000150: a5f4 af3e 8f96 96be d858 98bd 38db 373e
00000160: 6940 183f a83c d73e a0fc 0e3f 685b 80be
00000170: e55f 81be a24e 82bd b08b 0ebf 292d 103f
00000180: 7697 1fbe cbc6 683e 2c39 f7be 7e06 b13c
00000190: c735 073e 355a f83d cb90 e33e e40d 3d3e
000001a0: bc87 17bc 6fc7 4bbd 2068 8abd 69a7 65bd
000001b0: 43fa a5bd 986d 593e 31ab 64bd 7948 a43e
000001c0: 1270 87be 05b5 7ebe e48e 5b3f c5eb 113f
000001d0: baa2 7ebe 3608 1b3f 0f3b 0ebe aa4a ac3e
000001e0: 9ede 41be 31fb afbd 9cab e23e b1db cb3d
000001f0: 6ed9 81bd 042e 8ebe 149a 03be 04fa ef3c
00000200: 96ac debe e292 4fbe c956 033e ee76 42bf
00000210: 3259 e4bd d2f3 313e 3120 533f 3581 423f
00000220: d949 dabe 4a70 8d3c e77a 713e e615 0b3e
00000230: 37a3 063f 5bd6 b53d a0a2 2f3c bb8f 86be
00000240: 3fae 223e a13b 0cbf 10af eebe 8bff 933e
00000250: ed3e 723e aa62 243e 3294 5b3e aa4f 24be
00000260: 92be 923d 3ffb 1e3e 85c7 6ebe 5a67 afbe
00000270: 3864 f5be 777f e53e 8fcc 23be 7d2e 813e
00000280: 40db c5bd 57a2 103e f624 fc3d f320 143f
00000290: 6b72 ff3d 8ad8 003f a33b 4e3a bc2a 7fbe
000002a0: 3da5 86bd 82dd ea3e 4e06 863e d603 4c3c
000002b0: 13fe 7d3e 9d75 f4bd d6fd 08bf f3ac 2a3f
000002c0: cee6 24bf 2e60 433e 9fef d3bc ced2 c6bd
000002d0: dddb 5f3e b7db 10be b722 eb3e 4759 193e
000002e0: 92af 893e 8888 28be d0cd 38be 67d9 e7bd
000002f0: a15a 89be 5fe2 6bbe 6cf4 663e a542 07be
00000300: 87fa 06bc 1ec4 b4be 2b41 11be b64a 683e
00000310: 7941 b9be 7313 0b3e a34f 833d d8ee b8be
00000320: f48d 483f 1af5 a73d 7d85 4c3c b7c3 9abd
00000330: 8bb8 763d 310a a23d 4b87 50bc 2aee 273f
00000340: 4867 8ebe fb63 a9bd e482 be3d 4bf6 07bf
00000350: b9f7 cd3d 3b4b 9bbd 0d2a b9be 84d3 fcbe
00000360: 363f b8be e788 a4be 6f22 0e3f 6317 023e
00000370: d12a 163f c44c cabe 50a5 03be b7b0 d4be
00000380: 81f9 bd3e 9c6f 72be b2e0 243f 4dd2 5dbe
00000390: b964 983b 421f 293f 053b 24bd 0914 0c3f
000003a0: 32c1 76be 142d 9ebb 6f84 22be 0f51 bf3d
000003b0: 73a4 9b3e cfa7 e73d 76d1 98bd 0b66 4dbe
000003c0: 7438 273d eda3 a03d bbf7 8b3e e414 4dbe
000003d0: 93a3 903c c744 4cbe e5df acbd c6d4 d03e
000003e0: c8fe 8dbe a234 bb3e a778 103d c1bf d63c
000003f0: 98a0 ea3d 34fa 0cbe 8316 32bf de73 3dbe

fc3.bias f4 [4]
-0.07416216 -0.12613179 0.06435839 0.10025993
00000000: 55e2 97bd b128 01be 55ce 833d 1455 cd3d

bn1.weight f4 [400]
0.8602468 0.64784265 0.35674435 0.50768155 0.5572078 0.89832723 0.31358406 0.40459383
0.86910117 0.6861572 0.7858818 0.3533723 0.34121326 0.48235786 0.5571021 0.77206254
0.39599246 0.7999648 0.85206795 0.48804247 0.46644852 0.7165878 0.9794952 0.5868606
0.8358638 0.6383199 0.9845386 0.9968712 1.1570972 0.431381 0.232987 0.420293
1.1406714 0.513834 0.51857555 0.3311277 0.8034456 0.49599922 0.6421665 0.5907167
0.5803444 0.5265733 0.58281595 0.8486299 0.6642345 0.39694417 0.36946365 0.5692213
0.4505407 0.44695172 0.37165332 1.056851 0.56898594 0.5260824 1.060189 0.75851846
0.4913326 0.86678994 0.9951147 0.36435047 0.7917014 0.6584517 0.64493227 0.36393112
0.72187287 0.9246422 0.4696577 0.7476798 0.5079514 0.76348275 0.56750435 0.7804543
0.9238439 0.7375691 6.9084155e-05 0.7374016 0.73293734 0.3984935 0.38023493 0.58711714
0.5996259 0.50431806 0.40621176 0.6536699 0.63067734 0.98439956 0.7326822 0.35153678
1.0989271 0.41755864 0.9790473 0.45606694 0.91425985 0.2962884 0.5401074 0.5692301
0.93082124 0.47861266 0.38647732 0.4153756 1.1816257 0.9260606 0.8874533 1.0053594
0.38890323 0.8014648 0.6094211 0.27109802 1.0761464 0.529672 0.73626363 1.0657368
0.57529694 0.98075956 1.0357186 0.6692023 0.8944739 1.1044395 0.6975025 0.53127676
0.47075722 0.7918504 0.92196745 0.52938586 0.9498841 0.30305678 0.34336725 0.64854753
0.6736626 1.2333075 0.82413775 0.5045914 1.0692661 0.6258933 0.35986963 0.38695937
0.3307884 0.74864626 0.45286554 0.7853937 0.40358618 0.5015331 0.8198024 1.0030476
0.7127783 0.44653967 1.0115294 0.81440085 0.6193504 0.93677974 0.8370041 1.1404157
0.83610326 0.6945309 0.609474 0.58865213 0.5874013 0.46771398 0.6353316 0.40991604
0.44006068 0.36169094 0.74683976 0.9406347 1.1177388 0.5117477 0.586077 0.6436042
0.45357358 0.68711334 0.62259704 0.43803534 0.6282078 0.804596 0.614653 0.61036295
0.51114935 0.8109693 0.9494115 0.39373177 0.514566 1.0130016 0.7934755 0.28665492
0.4658336 0.24151222 0.4675799 1.2203511 0.3791311 0.46167272 0.86643845 0.4186501
0.52202773 0.6578307 1.1382164 -0.00052651996 0.43550393 0.35094428 0.8686273 1.1175292
0.71483254 0.73330265 0.66500247 0.47603256 0.76865023 0.8686661 0.49985752 0.36591977
0.38621143 0.7708681 0.4255267 0.5799648 0.7249946 0.7890955 0.8447279 0.35642308
0.35307395 1.0682424 1.1006733 0.28923175 0.80687094 0.6233626 0.7634657 0.47989058
0.6882646 0.61919075 0.42758298 0.65977556 0.9777441 0.6425869 0.53130054 0.7477905
0.44622722 0.56902987 1.1046386 0.48701528 0.46462968 0.52551746 0.49352533 0.631819
0.8752444 0.00015045598 0.8703535 0.42616868 0.65913403 0.83746576 1.1950436 0.83431214
0.56662244 0.70811695 0.3307588 1.0670186 0.26460412 0.9507005 0.8011224 0.60248584
00000000: 2239 5c3f 04d9 253f 32a7 b63e 6bf7 013f
00000010: 2ca5 0e3f c6f8 653f 178e a03e ec26 cf3e
00000020: 6a7d 5e3f 00a8 2f3f 8d2f 493f 37ed b43e
00000030: 81b3 ae3e 9cf7 f63e 3e9e 0e3f e4a5 453f
00000040: 86bf ca3e 7eca 4c3f 2021 5a3f b4e0 f93e
00000050: 57d2 ee3e 4c72 373f 33c0 7a3f 7f3c 163f
00000060: 2cfb 553f ef68 233f b90a 7c3f f332 7f3f
00000070: c31b 943f f8dd dc3e 2594 6e3e a530 d73e
00000080: 8501 923f a08a 033f 5ec1 043f 9289 a93e
00000090: 9cae 4d3f 9cf3 fd3e 0665 243f 3639 173f
000000a0: 7391 143f 82cd 063f 6d33 153f cf3f 593f
000000b0: 460b 2a3f 443c cb3e 572a bd3e 7db8 113f
000000c0: 45ad e63e dbd6 e43e 5849 be3e e546 873f
000000d0: 10a9 113f 56ad 063f 46b4 873f 442e 423f
000000e0: f28f fb3e f2e5 5d3f d6bf 7e3f 258c ba3e
000000f0: f1ac 4a3f 4a90 283f 481a 253f 2e55 ba3e
00000100: a9cc 383f 5ab5 6c3f f976 f03e f267 3f3f
00000110: 1a09 023f 9b73 433f f747 113f dacb 473f
00000120: 0981 6c3f 54d1 3c3f 46e1 9038 5ac6 3c3f
00000130: c8a1 3b3f 5707 cc3e 27ae c23e 4f4d 163f
00000140: 1581 193f fd1a 013f fdfa cf3e e956 273f
00000150: 1274 213f 9c01 7c3f 1091 3b3f a1fc b33e
00000160: a5a9 8c3f 3fca d53e d8a2 7a3f 9b81 e93e
00000170: ef0c 6a3f 1db3 973e 7b44 0a3f 10b9 113f
00000180: 4d4a 6e3f b80c f53e 5be0 c53e 1cac d43e
00000190: 833f 973f 4f12 6d3f 2430 633f 9eaf 803f
000001a0: 531e c73e cc2c 4d3f 0503 1c3f 5ccd 8a3e
000001b0: 2abf 893f 9698 073f c67b 3c3f 106a 883f
000001c0: a946 133f 0f13 7b3f 6d92 843f d850 2b3f
000001d0: 3efc 643f 465e 8d3f 868f 323f c101 083f
000001e0: 1707 f13e b5b6 4a3f 0f06 6c3f d585 073f
000001f0: 9b2b 733f 422a 9b3e d5cd af3e 3607 263f
00000200: 2775 2c3f 05dd 9d3f b1fa 523f e72c 013f
00000210: b6dd 883f 8b3a 203f d540 b83e 8a1f c63e
00000220: 195d a93e 48a7 3f3f fedd e73e 900f 493f
00000230: d9a2 ce3e 7964 003f 92de 513f dd63 803f
00000240: a378 363f d9a0 e43e cc79 813f 937c 503f
00000250: bf8d 1e3f ccd0 6f3f e745 563f 24f9 913f
00000260: dd0a 563f c7cc 313f 7d06 1c3f e8b1 163f
00000270: ee5f 163f 3578 ef3e 17a5 223f 84e0 d13e
00000280: a24f e13e 8e2f b93e e430 3f3f 70cd 703f
00000290: 1112 8f3f e601 033f 2409 163f 3fc3 243f
000002a0: cc3a e83e a9e6 2f3f 8562 1f3f 2b46 e03e
000002b0: 3ad2 203f 01fa 4d3f e659 1d3f bf40 1c3f
000002c0: afda 023f af9b 4f3f a20c 733f 3697 c93e
000002d0: 99ba 033f 09aa 813f 3621 4b3f 6fc4 923e
000002e0: be81 ee3e fb4e 773e a266 ef3e 7734 9c3f
000002f0: 791d c23e 5e60 ec3e e9ce 5d3f 4e59 d63e
00000300: 9ca3 053f 9867 283f 13b1 913f 2806 0aba
00000310: 5ffa de3e f8ae b33e 5c5e 5e3f 320b 8f3f
00000320: 44ff 363f b9b9 3b3f 9a3d 2a3f 8aba f33e
00000330: 43c6 443f e760 5e3f 53ed ff3e d659 bb3e
00000340: 81bd c53e 9d57 453f a3de d93e 9378 143f
00000350: 3f99 393f 2a02 4a3f 1640 583f 167d b63e
00000360: 1cc6 b43e 2bbc 883f dde2 8c3f 2f16 943e
00000370: 188f 4e3f b194 1f3f 7d72 433f 38b4 f53e
00000380: 1c32 303f 4983 1e3f 28ec da3e 0de7 283f
00000390: 704d 7a3f 9380 243f 5003 083f 336f 3f3f
000003a0: e577 e43e f1ab 113f cc64 8d3f 115a f93e
000003b0: f1e3 ed3e 5088 063f 5aaf fc3e e4be 213f
000003c0: 0410 603f b8c3 1d39 7dcf 5e3f c832 da3e
000003d0: 02bd 283f 2864 563f 30f7 983f 7b95 553f
000003e0: 2b0e 113f 2747 353f 3859 a93e 1194 883f
000003f0: 317a 873e 1c61 733f 5c16 4d3f 833c 1a3f

bn1.bias f4 [400]
-0.13049094 -0.09334262 -0.24250573 0.01258063 -0.021994343 0.050354492 -0.09233699 0.066433996
-0.20387161 0.0024839337 -0.39957836 -0.04312294 -0.020315755 -0.09454534 0.021505814 -0.14145924
-0.17949001 -0.16881795 -0.095910326 -0.06260588 -0.29315996 -0.15432423 -0.2028466 -0.114668675
-0.13459979 0.03143548 -0.27195272 -0.11528872 -0.13326363 -0.10609369 0.11469828 -0.032222576
0.010864217 0.07808876 -0.005270384 -0.07896442 0.08519528 -0.12899706 0.06430523 -0.1634665
-0.15872383 -0.015211861 -0.24750315 -0.1747479 -0.109409474 0.078066394 0.08513967 0.13546148
-0.03285093 0.008474642 -0.008864649 -0.31097582 -0.14737278 -0.084896624 -0.11488852 0.025392205
-0.11719597 -0.016907483 0.05208404 -0.14275393 0.04784885 -0.1430391 -0.074866414 -0.21253498
0.03022838 -0.0026818903 -0.22137552 -0.04917963 0.017885182 -0.056778334 0.023303181 -0.018957796
-0.15076257 -0.11440861 -0.0013775957 0.028759273 0.0038437718 -0.1093261 -0.11001219 0.11076339
-0.33165053 0.059230603 -0.09290602 0.018824482 -0.078606874 -0.23938282 -0.12770744 -0.22776437
-0.3288355 0.036729414 -0.1690142 -0.104326345 -0.31228346 -0.14718185 -0.04922648 -0.073340386
-0.0660981 -0.20215751 -0.16727267 -0.10225185 0.15464538 -0.1626198 -0.16942436 -0.20442623
-0.12422664 -0.21856067 -0.25073433 0.06407178 -0.050775245 -0.03407802 -0.18195376 -0.06229637
-0.14965895 0.032791577 -0.40816057 0.06790607 0.11335868 0.02751507 -0.10740013 -0.09172479
-0.015359513 0.02009762 -0.13554904 0.072904974 -0.4247852 0.07561346 -0.10647613 -0.2376165
-0.021347199 0.044993106 -0.2217411 -0.107678466 -0.12987183 0.02498879 -0.19065803 -0.16097507
-0.007205262 -0.2770195 -0.13153999 -0.12295277 -0.18541567 -0.09595081 0.035495326 -0.24835038
-0.20373276 -0.18230362 -0.25914216 -0.20066676 -0.22017422 -0.0009714824 -0.25301158 -0.037173763
0.05375842 -0.009366757 -0.045355085 0.022182705 -0.252899 -0.13511641 -0.33428058 -0.22889616
-0.10346869 0.036987036 -0.24289612 -0.19799316 -0.055734657 -0.060981553 0.0030527331 -0.12798853
-0.13511184 -0.14822342 -0.24068566 -0.009088214 -0.07755659 0.119265705 -0.10056357 -0.15215975
-0.25815487 -0.017771235 -0.024554254 0.016610896 -0.120499805 -0.39126447 -0.12522088 -0.22330849
0.012106997 -0.009412437 0.018750763 -0.15282165 0.042537145 -0.17464885 -0.27192906 0.03196743
-0.11177729 -0.13645199 -0.0131631475 -0.005290837 -0.022730034 -0.37132213 0.106559716 -0.1483883
-0.23742062 0.0031336246 -0.05937246 -0.19253722 -0.032992505 -0.22229302 -0.14402106 -0.01365944
-0.048759755 -0.15712626 -0.14716618 -0.027618673 -0.24680752 -0.12989217 -0.19201583 -0.04079775
0.022839071 -0.07312208 -0.094568945 -0.09057996 -0.29993105 -0.19129257 -0.26051927 3.67938e-06
-0.20368119 -0.25897828 -0.087236084 -0.022159917 0.089939214 0.058412272 -0.18577208 -0.04161706
-0.025128277 0.04476059 -0.12736006 -0.047143493 -0.037745208 0.07574739 -0.09096596 -0.16572541
-0.15164386 -0.0036656472 -0.16712648 -0.10469583 -0.0001998534 -0.20781705 -0.3062504 0.07888216
-0.038796887 -0.088700004 -0.2592327 -0.059757818 -0.015688136 -0.039935775 -0.13417079 -0.056823503
00000000: 6b9f 05be 6a2a bfbd 6c53 78be fd1e 4e3c
00000010: 7b2d b4bc 8340 4e3d 2d1b bdbd 8c0e 883d
00000020: b8c3 50be 7ec9 223b 8995 ccbe aea1 30bd
00000030: 3a6d a6bc fda0 c1bd f62c b03c b1da 10be
00000040: 3bcc 37be 9dde 2cbe a26c c4bd 8337 80bd
00000050: 1019 96be 2c07 1ebe 05b7 4fbe 69d7 eabd
00000060: 87d4 09be 7dc2 003d 633d 8bbe 7e1c ecbd
00000070: 4376 08be a647 d9bd efe6 ea3d d2fb 03bd
00000080: d4ff 313c 00ed 9f3d 2fb3 acbb 19b8 a1bd
00000090: dd7a ae3d ce17 04be 76b2 833d c363 27be
000000a0: 8088 22be 2b3b 79bc 7771 7dbe 1df1 32be
000000b0: 1312 e0bd 46e1 9f3d b55d ae3d 6ab6 0a3e
000000c0: b28e 06bd 3ad9 0a3c 083d 11bc 3938 9fbe
000000d0: e4e8 16be 48de adbd ac4a ebbd 5003 d03c
000000e0: 7104 f0bd 9081 8abc 1356 553d 162e 12be
000000f0: 28fd 433d d878 12be 9053 99bd c5a2 59be
00000100: 82a1 f73c a7c2 2fbb 44b0 62be 9470 49bd
00000110: f283 923c 6690 68bd 50e6 be3c 614d 9bbc
00000120: 8161 1abe 104f eabd 7190 b4ba 9198 eb3c
00000130: cae7 7b3b 5de6 dfbd 124e e1bd ebd7 e23d
00000140: 19ce a9be ca9b 723d 8345 bebd cd35 9a3c
00000150: a4fc a0bd c520 75be bdc5 02be 103b 69be
00000160: 205d a8be 9571 163d 0f12 2dbe 0da9 d5bd
00000170: 9ee3 9fbe d7b6 16be b5a1 49bd 7c33 96bd
00000180: 715e 87bd 6102 4fbe 8749 2bbe 6b69 d1bd
00000190: 5c5b 1e3e ce85 26be 947d 2dbe 1c55 51be
000001a0: 896a febd 5ece 5fbe 4060 80be 1138 833d
000001b0: b4f9 4fbd 6595 0bbd 1652 3abe 7a2a 7fbd
000001c0: 3240 19be 7650 063d 6cfa d0be 5612 8b3d
000001d0: 9828 e83d 4967 e13c 99f4 dbbd 35da bbbd
000001e0: 78a6 7bbc c4a3 a43c 5ecd 0abe 344f 953d
000001f0: 727d d9be 3bdb 9a3d 2810 dabd bd51 73be
00000200: 52e0 aebc b14a 383d 1910 63be 8786 dcbd
00000210: 1ffd 04be 4ab5 cc3c dc3b 43be a6d6 24be
00000220: 1e1a ecbb 80d5 8dbe 6bb2 06be a9ce fbbd
00000230: 9bdd 3dbe dc81 c4bd 8c63 113d 904f 7ebe
00000240: 529f 50be cdad 3abe 48ae 84be 967b 4dbe
00000250: 5a75 61be 15ab 7eba bc8a 81be 8443 18bd
00000260: ca31 5c3d 0777 19bc 41c6 39bd 81b8 b53c
00000270: fa7b 81be f55b 0abe d326 abbe c163 6abe
00000280: 64e7 d3bd b87f 173d c3b9 78be b8be 4abe
00000290: 064a 64bd cbc7 79bd 5d10 483b 6d0f 03be
000002a0: c25a 0abe e1c7 17be 4d76 76be bbe6 14bc
000002b0: fdd5 9ebd 9441 f43d 46f4 cdbd c4cf 1bbe
000002c0: e02c 84be fb94 91bc 0126 c9bc 9313 883c
000002d0: 9ac8 f6bd d153 c8be e739 00be fbaa 64be
000002e0: 6d5c 463c 9f36 1abc 339b 993c 477d 1cbe
000002f0: 6e3b 2e3d 26d7 32be 493a 8bbe 48f0 023d
00000300: 7eeb e4bd 12ba 0bbe 3eaa 57bc c25e adbb
00000310: 5634 babc ef1d bebe fb3b da3d 1af3 17be
00000320: 641e 73be 7f5d 4d3b 8930 73bd 7a28 45be
00000330: 2623 07bd c8a0 63be 427a 13be d8cb 5fbc
00000340: 4fb8 47bd b5e5 20be bbb2 16be 8e40 e2bc
00000350: 1cbb 7cbe 7402 05be cc9f 44be 8b1b 27bd
00000360: 0119 bb3c 07c1 95bd 5dad c1bd fc81 b9bd
00000370: 9090 99be 33e2 43be c862 85be 44eb 7636
00000380: cd91 50be cd98 84be d5a8 b2bd b788 b5bc
00000390: 0d32 b83d b541 6f3d 093b 3ebe a676 2abd
000003a0: d1d9 cdbc e156 373d ad6a 02be 8919 41bd
000003b0: b89a 1abd 7321 9b3d 5c4c babd ecb3 29be
000003c0: 8748 1bbe 5b3b 70bb 3423 2bbe c46a d6bd
000003d0: bd8f 51b9 fecd 54be dacc 9cbe f88c a13d
000003e0: 7ce9 1ebd 59a8 b5bd 26ba 84be 9dc4 74bd
000003f0: 6884 80bc b293 23bd 1164 09be c3bf 68bd

bn1.running_mean f4 [400]
0.09462698 0.29347348 -0.17413007 -0.033936635 0.37077603 0.33638626 0.17355575 -0.08941016
-0.6142623 -0.13088733 -0.29495573 -0.17636506 -0.10740381 -0.37859738 0.609886 -0.08003633
0.07376213 -0.21760798 -0.34125325 0.08702541 -0.1589542 0.1940683 -0.2498344 0.0211153
-0.0093771 0.4684881 -0.17300886 0.049231928 -0.33121353 0.22848754 -0.0143099325 0.28789172
-0.20242862 0.24908097 0.16937718 0.08841797 -0.09020136 0.14966907 -0.14943647 0.21572374
-0.123816215 0.3876304 -0.09772091 0.12406185 0.21019398 0.17200048 0.17459406 0.30463535
0.030366724 0.049442235 0.41591072 0.049706027 -0.1424659 -0.2673897 0.08164482 0.1959283
-0.19564386 0.016695576 0.08811391 0.020391874 0.16356595 -0.056353405 0.22435649 0.047900125
0.27291706 0.009392178 -0.27375236 -0.08643773 0.090528175 -0.6628777 0.06039344 -0.07924181
-0.7789203 0.3636139 0.065440476 -0.03684908 0.2753249 0.24022572 -0.29857072 -0.2834638
-0.056711968 -0.3085323 0.20510261 0.28040808 -0.23795857 -0.59249634 0.35694426 -0.19669305
-0.050949834 -0.09939658 -0.18535346 0.09656404 0.111096166 -0.09366795 -0.377169 -0.29784843
-0.18290158 0.09780755 -0.019894306 0.4377267 -0.1619241 0.1528035 0.17153063 -0.02187201
0.29514462 -0.24009769 0.16439861 0.17300613 -0.107723854 0.49753317 -0.19424504 -0.3633497
-0.18276596 0.17704937 -0.20637168 -0.0629111 -0.3374641 -0.18328458 0.01538854 -0.073848575
0.016737983 0.1287305 -0.118603684 0.12686872 0.0017966079 -0.18934202 -0.02708361 0.07389142
0.3683867 0.021903956 -0.307655 -0.33005467 0.12545957 -0.2868494 0.1695779 0.051802065
0.10383035 0.19209103 -0.03232687 -0.018521992 0.22341679 0.08817919 -0.24887517 -0.1960318
-0.19789419 -0.29960954 -0.5017435 -0.5513889 -0.25908872 -0.26442385 0.051420838 0.41226053
0.08262522 0.20969316 -0.006662274 0.11596438 -0.7928751 0.09759621 -0.14961626 -0.03663401
0.16734852 0.3652615 -0.14809367 -0.49221212 0.13413048 0.17156158 0.06315271 -0.16903044
0.31036294 -0.20139019 -0.38103825 0.16476026 0.44603983 -0.18765448 0.08039298 0.010407513
0.04575561 -0.10880654 0.18504265 0.19635831 0.1454737 -0.33639127 -0.25460172 -0.2556235
0.12312688 0.2412881 -0.20613171 -0.2861616 0.3277178 -0.38999012 -0.09703051 0.35241705
-0.24008216 0.25145483 -0.17856948 -0.17368977 0.092719726 -0.47049302 -0.13115256 0.10764369
0.035437815 0.20469455 0.14149733 0.11059683 0.2818137 -0.057521034 -0.58382714 -0.11302552
0.23418726 0.16025867 0.0061399597 0.029167542 0.060003575 0.06612163 -0.1659684 0.2292204
0.06883568 0.0013258047 0.21153286 0.3518704 -0.28940678 0.2567315 0.22195528 -0.1326378
-0.38824612 -0.45211214 -0.33020708 -0.23143928 -0.025273992 0.3090459 -0.0027328988 -0.051027138
-0.6440928 -0.22428408 0.1408273 -0.25526425 0.016859824 0.2611459 -0.07125294 -0.44818565
-0.023407107 0.06793493 -0.13036536 -0.27813768 -0.127468 -0.26138046 -0.22854398 -0.107967824
-0.042470332 0.2827462 -0.3265743 0.22273299 0.19073655 0.21496712 -0.4060444 -0.03819865
00000000: cacb c13d 2842 963e 274f 32be 2401 0bbd
00000010: 5bd6 bd3e d23a ac3e 99b8 313e ad1c b7bd
00000020: 4b40 1dbf 5407 06be 7004 97be 0b99 34be
00000030: 87f6 dbbd 84d7 c1be 7d21 1c3f 16ea a3bd
00000040: 9a10 973d a0d4 5ebe bfb8 aebe 613a b23d
00000050: e4c4 22be d7b9 463e 97d4 7fbe fef9 ac3c
00000060: 68a2 19bc acdd ef3e 3c29 31be 6ba7 493d
00000070: d294 a9be a3f8 693e 3574 6abc 8b66 933e
00000080: 7349 4fbe 150f 7f3e 3671 2d3e 7b14 b53d
00000090: 7ebb b8bd d942 193e e005 19be afe6 5c3e
000000a0: 5b93 fdbd 7e77 c63e e721 c8bd 2414 fe3d
000000b0: 173d 573e e520 303e c9c8 323e 2af9 9b3e
000000c0: a3c3 f83c f183 4a3d 40f2 d43e 8c98 4b3d
000000d0: 95e2 11be 4ee7 88be 6635 a73d 6ea1 483e
000000e0: dd56 48be 29c5 883c 1175 b43d dc0c a73c
000000f0: d57d 273e d4d2 66bd b5bd 653e ec32 443d
00000100: c9bb 8b3e a6e1 193c 4529 8cbe 4406 b1bd
00000110: d666 b93d 5ab2 29bf 1d5f 773d 8849 a2bd
00000120: 5267 47bf 9a2b ba3e a805 863d 10ef 16bd
00000130: 63f7 8c3e bbfd 753e 43de 98be 2b22 91be
00000140: cf4a 68bd f2f7 9dbe 6b06 523e a691 8f3e
00000150: 69ab 73be d7ad 17bf 66c1 b63e e769 49be
00000160: c6b0 50bd 6f90 cbbd 4ccd 3dbe 5ec3 c53d
00000170: 6386 e33d fbd4 bfbd 4c1c c1be 977f 98be
00000180: 8d4a 3bbe 534f c83d 62f9 a2bc b71d e03e
00000190: 6ecf 25be 8578 1c3e baa5 2f3e ee2c b3bc
000001a0: 321d 973e 2bdc 75be 1c58 283e 8528 313e
000001b0: 539e dcbd abbc fe3e 2ce8 46be f908 babe
000001c0: 0027 3bbe 6e4c 353e 1953 53be 89d7 80bd
000001d0: 18c8 acbe f4ae 3bbe 3720 7c3c ec3d 97bd
000001e0: 181e 893c eed1 033e 7de6 f2bd e0e9 013e
000001f0: 287c eb3a e0e2 41be 72de ddbc 6354 973d
00000200: 2e9d bc3e ed6f b33c f584 9dbe edfc a8be
00000210: 7978 003e eddd 92be d4a5 2d3e 672e 543d
00000220: 02a5 d43d 83b3 443e 2e69 04bd 6fbb 97bc
00000230: 5fc7 643e 4b97 b43d 22d9 7ebe 8fbc 48be
00000240: c6a4 4abe 6c66 99be 4372 00bf d327 0dbf
00000250: 47a7 84be 9062 87be a89e 523d d013 d33e
00000260: 6937 a93d ceb9 563e 344f dabb bc7e ed3d
00000270: ddf9 4abf 86e0 c73d 0135 19be 8b0d 16bd
00000280: 695d 2b3e 8e03 bb3e dea5 17be 3a03 fcbe
00000290: 8059 093e d7ad 2f3e 3556 813d 5116 2dbe
000002a0: e4e7 9e3e 3b39 4ebe 7217 c3be eab6 283e
000002b0: 555f e43e 7f28 40be 13a5 a43d 4684 2a3c
000002c0: 3c6a 3b3d f7d5 debd d27b 3d3e 2712 493e
000002d0: 0ff7 143e 7a3b acbe 285b 82be 15e1 82be
000002e0: f229 fc3d 3a14 773e 3114 53be c683 92be
000002f0: a1ca a73e c9ac c7be efb7 c6bd 0270 b43e
00000300: 19d8 75be b0be 803e ebda 36be bbdb 31be
00000310: d7e3 bd3d 76e4 f0be db4c 06be 4c74 dc3d
00000320: 3e27 113d 739b 513e ade4 103e 9780 e23d
00000330: e349 903e 2d9b 6bbd b275 15bf ed79 e7bd
00000340: c9ce 6f3e d91a 243e b731 c93b c5f0 ee3c
00000350: 4fc6 753d c76a 873d 9ff3 29be c1b8 6a3e
00000360: b9f9 8c3d a0c6 ad3a 129c 583e 5b28 b43e
00000370: 202d 94be 5072 833e 3f48 633e 34d2 07be
00000380: 32c8 c6be 3e7b e7be e710 a9be 6bfe 6cbe
00000390: 670b cfbc 443b 9e3e 6f1a 33bb d501 51bd
000003a0: 44e3 24bf baaa 65be 0835 103e ffb1 82be
000003b0: 9d1d 8a3c eab4 853e 10ed 91bd 9778 e5be
000003c0: 43c0 bfbc 7821 8b3d 7f7e 05be 1068 8ebe
000003d0: f986 02be a9d3 85be 6f07 6abe 3c1e ddbd
000003e0: 5ff5 2dbd 1cc4 903e bf34 a7be 1e14 643e
000003f0: 7150 433e 5720 5c3e 0de5 cfbe 3076 1cbd
