checkpoint_critic_GPU2.pth (torch_old, 549489 bytes, 9 tensors)

fcs1.weight f4 [400, 33]
000000 9f e4 74 3f 20 13 3b 3e d3 a9 cf be b8 2f 21 3e
       0.9566135 0.18269014 -0.40559253 0.1574086
000010 94 77 3a bf 50 0e 14 bf c2 ab 64 3e 08 80 27 3f
       -0.7283871 -0.5783434 0.22331145 0.65429735
000020 2e 95 93 3f 89 5f cf be bd fc 9e 3e b5 cb 5e 3f
       1.1529901 -0.40502575 0.310522 0.8702958
000030 0f 6f 8c 3d 47 4f 93 3e a3 28 d3 3e f9 90 99 be
       0.0685712 0.2877142 0.4124194 -0.29993418
000040 9e 3f da bc e0 c5 3e 3f d3 c8 97 3f 8b e8 89 3f
       -0.026641663 0.74520683 1.1858162 1.0774091
000050 d7 80 88 bb df bb ef bd 87 9d 9b be ad 58 16 be
       -0.0041657495 -0.117057554 -0.3039362 -0.14682265
000060 af c3 54 3f 5e 6c 98 be 7d 22 29 be 21 ea 95 3b
       0.8311109 -0.29770178 -0.16517062 0.0045750295
000070 7c 04 3e bc 16 41 24 bd 92 c5 54 bb e8 7b 64 bc
       -0.011597749 -0.040101133 -0.0032466394 -0.013945557
000080 99 93 08 bf ca 6b 9b be 5e a2 27 3c 9d 48 f1 bc
       -0.53350216 -0.30355674 0.010231582 -0.02945357
000090 62 75 8c c0 be 4a 8d be 86 46 d2 3e 98 11 54 3f
       -4.389329 -0.27596086 0.4106943 0.82839346
0000a0 2d 09 fb bc be 09 23 be 0b d9 5c bf 73 96 8a 3d
       -0.030644024 -0.15921685 -0.8626868 0.06766977
0000b0 b3 88 92 be b5 d2 85 be a2 31 d6 bc d4 9c a8 3e
       -0.28619918 -0.2613732 -0.026146714 0.3293215
0000c0 4c 2d 55 be 6b 17 06 bf a3 4a f7 be 51 30 17 bf
       -0.2081806 -0.52379483 -0.4829913 -0.590581
0000d0 4f 9b 5a bf f1 2e 66 bd c2 7d 49 be 29 b8 d6 bd
       -0.8539323 -0.05619711 -0.19676879 -0.104843445
0000e0 51 ef b4 be a7 64 07 3e 88 16 9d be c4 9d c5 bd
       -0.35338834 0.1322199 -0.30681252 -0.09649232
0000f0 7a 0d 2a 3d 47 c9 62 3e ea 36 f3 bc e7 1e b4 3a
       0.04151676 0.22147094 -0.029689271 0.001374212
000100 d0 f3 6d 3b b4 af de bd d1 f4 29 bf 23 51 24 3f
       0.0036308654 -0.108733565 -0.66389185 0.64186305
000110 b0 ea ea 3e c0 2e f2 3f 91 ab 16 c0 b2 46 e9 3f
       0.45882177 1.8920517 -2.3542216 1.82247
000120 e9 85 56 bf 6e 17 a3 3c ce e5 5e be 06 21 07 3f
       -0.8379808 0.019908633 -0.21767351 0.52784765
000130 d5 46 7f bd bb 29 b3 be 67 41 c4 3d a7 8a 37 bf
       -0.06232341 -0.34992775 0.09582787 -0.7169594
000140 eb 7a 78 be 96 63 e2 3e 6a b4 d0 3c 2d 08 a6 bf
       -0.2426564 0.44216603 0.025476653 -1.2971245
000150 16 39 86 bf 56 ba 13 3f 6f 9f f9 3e 6d d1 65 be
       -1.0486171 0.577062 0.4875445 -0.22443171
000160 b7 09 5e 3e 9f ba c3 bd 39 f0 55 be 51 f2 81 be
       0.21683393 -0.095570795 -0.20892419 -0.25380185
000170 eb 66 04 3e 59 73 16 bc 24 bc ab be 4e 4f c2 3c
       0.12929885 -0.009182774 -0.33541977 0.023719456
000180 01 ae b5 bc b3 27 32 bd da 8e 8f 3b a5 13 6c 3e
       -0.022177698 -0.04349489 0.004381043 0.23054369
000190 62 81 3d 3f 82 96 39 3f a5 2c 14 3c b9 df f0 bf
       0.7402555 0.7249528 0.009043847 -1.8818275
0001a0 e1 ee a0 3f 6d b8 e9 3e dd 81 0a 3f 2f 64 9f bf
       1.25729 0.45648518 0.54104406 -1.2452449
0001b0 70 ac 9b 3d a6 00 31 bf cc 21 c0 3d d2 23 28 bd
       0.07601249 -0.69141614 0.09381446 -0.041049786
0001c0 21 cf 6d be 26 b6 ec bb cb c2 21 bf b4 dc 7f bf
       -0.23223545 -0.007223862 -0.63187855 -0.9994614
0001d0 96 38 d9 3c f6 ec 66 3f ec af a2 bf 93 c7 f8 bd
       0.02651624 0.90205324 -1.2709937 -0.12147441
0001e0 b1 5a 35 be 08 10 54 bd 02 de 81 bd 03 d1 64 3e
       -0.17710377 -0.0517731 -0.06341173 0.22345357
0001f0 e1 a9 3a 3e be 63 09 bf 0e f9 f6 3c 5f 80 88 3f
       0.18228866 -0.5366782 0.030148055 1.0664176
000200 73 5d 03 3d fc 10 44 bc 60 c4 06 3c ff d0 d1 3f
       0.032071542 -0.01196694 0.00822553 1.6391906
000210 b1 40 7a bf 4b 9c a2 3f 70 5c ca 3c 09 2b 01 c0
       -0.9775496 1.2703947 0.02470228 -2.0182517
000220 a3 a9 d8 bf ed 8e f4 be 4b 17 a8 be 82 18 5c bd
       -1.6926769 -0.47765294 -0.3283027 -0.05373431
000230 b0 3c 45 3d 8e 62 c0 bd 1f 78 14 be cd 99 e8 3e
       0.04815358 -0.09393798 -0.14498948 0.4542984
000240 1a 65 12 3e e3 02 d1 3e 20 c3 06 be 3b e3 12 be
       0.1429638 0.40822515 -0.13160372 -0.14344494
000250 96 89 6a 3f c5 c9 2f bf 21 54 ad bf f6 34 b0 3e
       0.9161619 -0.6866725 -1.3541299 0.34415406
000260 2e d3 e4 3d 6d 07 e3 3c 15 fa 8a 3e 46 d1 83 be
       0.11173092 0.027713502 0.27143922 -0.257456
000270 8b c8 03 3e 80 dc 49 3e 46 90 71 be 94 5b 8b 3c
       0.1286947 0.1971302 -0.23590192 0.017011441
000280 5f 6f 5d 3d ca 28 34 bd 1c ae 95 3c 20 b9 4a bb
       0.05406129 -0.043984212 0.018271498 -0.0030933097
000290 80 e7 1d c0 28 f5 16 bf f9 97 ac be 06 99 5d 3f
       -2.4672546 -0.5896783 -0.33709696 0.8656162
0002a0 9d 2d bc bf 9e fa 83 3f 61 be 73 bf 96 da cf 3f
       -1.470142 1.0310857 -0.9521237 1.6238582
0002b0 49 59 d4 bc 75 97 36 bf 66 26 a0 3e 18 78 77 3e
       -0.02592148 -0.71324855 0.31279296 0.24166906
0002c0 4d 94 1e bc d2 97 04 bc ab e2 c6 3e 78 4a 40 3e
       -0.009678912 -0.008092837 0.3884481 0.18778408
0002d0 c2 b7 2d bf 0b fa 6d 3f 11 8d 03 3f 04 b6 1f 3f
       -0.6785852 0.9295966 0.51387125 0.6238711
0002e0 36 48 ae 3d c8 9b 58 3d 30 71 a3 3e 50 18 8b 3e
       0.08509867 0.05288294 0.31922293 0.27166986
0002f0 4e c0 59 3f f8 b5 87 be 93 00 87 be c5 90 34 be
       0.8505906 -0.2650602 -0.26367626 -0.1763335
000300 8a 3f 1e bd a7 7d 66 3e 8e 1a 26 bd ca 19 0e 3b
       -0.038634814 0.2250887 -0.04055267 0.0021682852
000310 b8 71 1e bc 58 63 ff bf 62 7f 74 be bc 75 09 3f
       -0.009670667 -1.9952192 -0.23876718 0.53695273
000320 35 36 3f 3f c0 c0 af 3e eb 23 2f 3f 61 9c c1 bf
       0.7469209 0.34326744 0.6841418 -1.5125848
000330 ed db 4b bf 0d b4 8f 3e e5 b9 8a 3e fa 78 c0 3e
       -0.79632455 0.28067055 0.2709495 0.37592298
000340 f9 81 40 3e bd 6b 89 3e 2e 28 86 b9 61 d6 c2 3f
       0.1879958 0.2684001 -0.00025588408 1.5221673
000350 ac bb 96 bd ba 3b 54 bf d0 6e a0 3e 9b e6 88 be
       -0.07360014 -0.82903636 0.31334543 -0.26738438
000360 eb 16 fa be 2a 68 3c 3f 6e 0f 75 3e c0 b8 ae 3d
       -0.4884561 0.7359644 0.23931667 0.08531332
000370 bf 2b 80 be 73 b2 3d bd f0 11 e8 be 8b cb cb 3e
       -0.25033376 -0.04631276 -0.45326185 0.39803728
000380 4f da c0 3e cc 2b d5 3c 9b 17 4b bd d2 c3 3c bd
       0.37666556 0.02602186 -0.04958306 -0.046085186
000390 4d 54 23 3d 8b 01 2e bd b3 0b 75 3e 5e 5f 0a 3f
       0.039875317 -0.04248194 0.23930244 0.5405177
0003a0 9b fe df 3d 06 e0 0f 3e 77 0d 73 3f 64 6d 19 bf
       0.10937234 0.14050302 0.9494242 -0.5993254
0003b0 23 3a f0 bf c1 05 be 3f 20 19 fa 3d 1a 69 ac bf
       -1.8767742 1.4845506 0.122118235 -1.3469574
0003c0 72 d7 6a 3f 32 1d 83 3f 02 8c 67 be 14 e6 17 3f
       0.91734993 1.0243285 -0.22612002 0.59335446
0003d0 74 43 6e bd 23 1b c7 3e 6f 75 af be 49 83 11 be
       -0.058169797 0.3888789 -0.34269282 -0.14210238
0003e0 1b 69 03 c0 df 3f 21 bf 55 a4 bd be c7 2e 1d 3f
       -2.0532901 -0.62988085 -0.37039438 0.613995
0003f0 a0 e5 bc 3e a5 4f 8a be 84 ac 84 3d ef 1e 13 3e
       0.3689394 -0.2701389 0.06478217 0.14367269

fcs1.bias f4 [400]
000000 7d 5b 48 3d 02 1c 1f 3e 25 76 bb 3d de bf ed 3c
       0.048915375 0.15538028 0.09153394 0.029022153
000010 09 b4 f1 bd dd 05 ee 3d d2 89 0b 38 75 83 6c 3d
       -0.11801917 0.11622212 3.3268538e-05 0.057742555
000020 e5 9e aa bd c3 3a 14 be 6e a6 1e be 45 68 57 bd
       -0.08331088 -0.14475541 -0.15493175 -0.052589674
000030 9d 51 04 be 35 61 1a be ab c2 2f 3e df fc 8c 3d
       -0.12921758 -0.15076144 0.17164104 0.06884169
000040 1e d5 bd bc 56 bc 1d be 41 d2 fc bd 39 33 28 be
       -0.023172911 -0.15403876 -0.1234479 -0.1642579
000050 02 d7 31 bd a7 db fd 3d 1d 1d bb bc a1 b3 1b 3d
       -0.043417938 0.12395411 -0.02284103 0.038013104
000060 04 bc 52 bc ac 37 d8 3d 15 35 2a 3e f1 39 91 bd
       -0.012862209 0.105574936 0.16621812 -0.070911296
000070 90 5b 09 be 6d e9 d0 3d bb bc eb 3d 72 80 63 3c
       -0.13413835 0.102007724 0.11510607 0.013885604
000080 ce 94 9f bd 87 1e 28 bd d1 21 ca 3d 5e 8e 55 3d
       -0.07792054 -0.04104474 0.09869731 0.052137725
000090 20 ee 7a bd 9c dd 4a 3d 80 be 5d 3d 6b 3f 4c bd
       -0.06126225 0.04952775 0.054136753 -0.049865168
0000a0 57 33 cc bd 52 15 2e 3d 1d 0d 30 3d 07 d9 2c 3e
       -0.0997073 0.0425008 0.042981256 0.16879664
0000b0 72 60 eb bc ad a5 d2 3c 23 b1 1d 3d 24 09 a0 3d
       -0.028732512 0.025713766 0.03849901 0.078142434
0000c0 4a 5b a7 3d 87 d9 f8 bd bd 56 17 3e 70 cc 0b 3d
       0.08171709 -0.12150865 0.14779182 0.034130514
0000d0 ff e5 31 3e a6 53 09 be 8c a9 1e 3e f3 3a 02 3e
       0.17372893 -0.13410816 0.15494365 0.127178
0000e0 bd d9 87 bd 88 79 24 be 93 ca e4 3c 3f fc d9 3d
       -0.06633327 -0.16061985 0.027928626 0.10643815
0000f0 7d 20 b6 bd 38 e6 93 3d dc 49 df 3c fd 77 17 3e
       -0.088929154 0.07221645 0.027256899 0.14791866
000100 b9 c0 2d 3e b1 b3 a1 3d e6 fa f9 bc db 24 6e bd
       0.16968049 0.078956015 -0.030515146 -0.058140617
000110 a7 cf fb 3d f1 62 c0 bd 01 83 84 bd 90 23 d1 bd
       0.12295466 -0.093938716 -0.064702995 -0.10211861
000120 a6 a6 31 be df 64 20 3e 6f df e4 3d 7a 53 92 3d
       -0.17348728 0.1566348 0.11175429 0.07144828
000130 eb 85 03 3e 06 00 fe 3d e7 69 f6 3d 7e 10 e8 bd
       0.12844054 0.12402348 0.12031918 -0.11331271
000140 80 3b e8 3d 10 15 4a bc 4d 12 2b 3e a7 fa 1c 3e
       0.11339474 -0.012334123 0.167062 0.15329991
000150 63 dc 1d 3d 0d 0b c0 bd 4e c9 27 3e e6 c2 30 be
       0.038540255 -0.09377108 0.16385385 -0.17261848
000160 14 28 99 bd 6a 8f 54 3d 46 e5 a4 3c 02 55 07 be
       -0.074783474 0.051894583 0.020128857 -0.13216022
000170 04 90 cf bd 46 5e 0b 3d 73 14 09 bd 9b 07 10 be
       -0.10134891 0.034025453 -0.033466768 -0.14065401
000180 56 9d ce 3d 05 6d 03 3e c2 11 88 bc 29 3e b4 3d
       0.10088603 0.12834556 -0.01661003 0.088009186
000190 09 c6 13 3d 53 c8 c5 3d 63 45 8d 3a b8 2f 58 3d
       0.036077533 0.096573494 0.0010778125 0.052779883
0001a0 46 55 f8 3d e4 6f 5d bd 9b ed ff 3d f3 41 47 3d
       0.121256396 -0.054061785 0.124964915 0.04864688
0001b0 06 66 10 be bb 93 0d 3e c7 43 8b bd ce 76 2e be
       -0.14101419 0.13825886 -0.06800037 -0.17037508
0001c0 13 43 35 bd 31 99 30 be 05 bd 4c bd a4 c8 30 bd
       -0.04425342 -0.17245938 -0.04998495 -0.043160096
0001d0 9b 64 00 be ea 39 11 3e e0 43 de 3d 24 55 b3 3d
       -0.12538378 0.14182249 0.1085279 0.08756474
0001e0 a8 8c 24 3e 51 a0 90 bd cd 45 89 3d 41 c2 04 3e
       0.16069281 -0.07061828 0.067027666 0.12964727
0001f0 a6 b5 0e 3e 54 87 82 3d e3 54 a3 3d db 06 21 3e
       0.13936481 0.06373468 0.07975175 0.15725271
000200 a9 d3 14 3e 76 05 0e be 16 3a 12 3e 66 13 8c bd
       0.14533867 -0.1386927 0.1427997 -0.068396375
000210 6e 85 e7 3d 9e b3 2e be ee 04 1f 3e 4c bf 14 3e
       0.113047466 -0.17060706 0.15529224 0.14526099
000220 d0 09 4b bd 3e ae 22 3e 71 49 0f 3d ef 33 eb bd
       -0.049569905 0.1588678 0.03498215 -0.11484515
000230 f4 f6 8b 3d 75 53 e1 bd 0a 4f ba bd 06 67 19 3e
       0.06834212 -0.11002246 -0.09097107 0.14980707
000240 af 07 ab 3b 7f e2 c1 bd c8 b9 2a be d2 8a 14 bc
       0.005219422 -0.09467029 -0.16672432 -0.0090663005
000250 c3 ab a1 3c 64 f5 f6 bc 3b bd 04 3c d8 e2 11 3e
       0.019735223 -0.030146308 0.008101757 0.1424669
000260 67 be 22 be 87 7f 25 3d a0 19 a5 bc 62 0e 1d be
       -0.15892945 0.040404823 -0.02015382 -0.15337518
000270 e6 f1 2c be 40 c7 02 bc d3 d9 2b be 06 10 30 3e
       -0.16889152 -0.007982075 -0.16782312 0.17193612
000280 aa df 18 be 48 94 a0 bb df a9 8d bb ab 23 d0 bd
       -0.14929071 -0.004900489 -0.0043232287 -0.10163053
000290 d9 9f 26 3e 42 3a ce bc e6 75 88 bd 6d 49 10 3e
       0.16271915 -0.025174264 -0.06663112 0.1409051
0002a0 c6 7a 68 3d d3 66 56 bd 4b c6 2c be 39 c3 09 bd
       0.05675771 -0.052344155 -0.16872518 -0.033633444
0002b0 00 40 31 bd 42 b8 42 bd 90 7a d3 3d cb e4 55 bc
       -0.043273926 -0.047539003 0.10326111 -0.013055037
0002c0 e8 17 43 3d 95 85 11 3e 09 a2 3f 3b 3f 37 28 3e
       0.04763022 0.14211114 0.0029240868 0.16427325
0002d0 cd 78 95 3d 84 27 05 be 42 ed b2 3d 3a 23 93 bd
       0.072984315 -0.13003355 0.087366596 -0.07184453
0002e0 5d a6 0c 3e e6 b3 4a 3d 77 4a d7 bd bb 7c d7 bd
       0.13735338 0.04948797 -0.1051225 -0.10521837
0002f0 dd a2 30 be af 93 2a be 3a f4 e5 bd c3 e3 36 3d
       -0.17249627 -0.166579 -0.11228223 0.044650804
000300 69 9b 4c bd f6 c7 0a 3d b9 37 18 be da 44 61 ba
       -0.0499529 0.033882104 -0.14865007 -0.00085933285
000310 bb cf a8 bd 58 00 3a 3d 6c 25 f7 bd 15 3d ab 3d
       -0.082427464 0.045410484 -0.120676845 0.0836126
000320 8b 2b 95 bd be af 9e 3c 67 76 97 bd 30 b8 17 3e
       -0.07283696 0.01937091 -0.0739563 0.14816356
000330 e0 9c 85 3c 82 78 ad 3d 02 8e 8c bd 30 fe 0e 3e
       0.016310155 0.08470251 -0.06863023 0.13964152
000340 d3 e2 83 bd fe e6 e2 3d c3 e4 2a 3e 56 66 b3 bd
       -0.06439748 0.110792145 0.16688828 -0.087597534
000350 9d e5 21 3d 6e 93 0f 3d de ad 3d ba 87 41 9a 3d
       0.039525617 0.03505271 -0.0007235686 0.075320296
000360 0a bd 1d 3e 70 12 cb ba d4 8e 2e 3d 50 50 dd 3d
       0.15404144 -0.0015493166 0.04261668 0.10806334
000370 bd 91 12 be 4f 94 d2 3d d1 43 ad 3b 5b 98 01 be
       -0.14313407 0.10282194 0.0052876254 -0.12655775
000380 fd a7 92 3d d8 80 a3 bd 08 31 03 be a7 54 68 bd
       0.071609475 -0.07983559 -0.12811673 -0.056721356
000390 8c 4e b9 3c 99 38 cd 3d d3 6e 9d bd 88 5e 15 3e
       0.022620462 0.10020561 -0.07687154 0.14586842
0003a0 90 8d fd bd 5a 45 02 be 02 43 8c 3d 9b 78 27 3e
       -0.123805165 -0.12721768 0.06848718 0.16354601
0003b0 4a 0c 07 3e 25 9b 00 3e 79 c1 2a 3c 3c 66 7d bd
       0.13188282 0.12559183 0.010422104 -0.061865076
0003c0 25 8d 04 be e2 fa fd bd e1 07 5c 3d 83 01 4a bc
       -0.12944467 -0.12401368 0.05371845 -0.012329462
0003d0 f0 a2 e2 bc de 39 07 bd 4a d8 b0 b9 1d f4 d0 bd
       -0.027665585 -0.03301417 -0.00033730484 -0.10202811
0003e0 0e c5 20 bd b5 1d 12 3e 31 7f bd bd 8c d0 56 bc
       -0.039250426 0.14269145 -0.092527755 -0.013111245
0003f0 13 e6 0c be 74 f9 8e bd 90 12 71 3d 11 5b 9a 3d
       -0.13759641 -0.06981173 0.058855593 0.07536901

fc2.weight f4 [300, 404]
000000 7a 6e 3a be 70 ed ba be 58 83 83 3d b7 b6 3e be
       -0.18206206 -0.36509275 0.06421536 -0.18624388
000010 7d 2f fa 3e 7a a6 0c bd ad a2 41 3e f1 29 0b bf
       0.48864356 -0.034338452 0.18909712 -0.5436087
000020 b7 6d c3 3d 06 48 c6 bd af bd 5d 3c a0 92 0c 3f
       0.09542411 -0.09681706 0.013533994 0.5491123
000030 f8 6b 46 bf 60 c2 75 3e 93 da f1 3c 6a 4e 8e 3d
       -0.775085 0.2399993 0.02952317 0.0694855
000040 fd 04 e7 3e 37 2a c3 3d 02 63 47 bf fc 6b 59 3e
       0.45120993 0.09529536 -0.7788545 0.21232599
000050 22 73 2a 3e 69 60 02 3e 28 39 9e 3e 06 18 69 be
       0.16645482 0.1273209 0.30902982 -0.2276307
000060 fa 87 49 bf cf 48 48 be 05 89 3f 3e f3 a6 09 3e
       -0.7872311 -0.19559024 0.18704613 0.13442592
000070 03 d2 b9 3d b0 0a 31 3e 83 a8 62 3d 60 5e 8d 3d
       0.0907326 0.17289233 0.055336487 0.06902766
000080 fe 2b 48 3f 16 af 31 bf 07 e4 3d 3d 07 2d 8d 3e
       0.78192127 -0.69407785 0.046360042 0.27573416
000090 db 92 15 bf 00 4f b5 3b 77 1e 00 be d0 94 35 3d
       -0.5842721 0.005533099 -0.12511621 0.04433137
0000a0 8a 02 22 bf 05 7a 1c 3e 40 0d b4 bd cb 27 76 be
       -0.63285124 0.15280922 -0.0879159 -0.24038617
0000b0 8c d6 4a be bc 3d 92 3e ae 0c 0b bd e9 3c 43 3d
       -0.19808406 0.28562725 -0.03394764 0.04766551
0000c0 07 65 20 be df ac 37 bf 4d 98 63 3b e3 6e 49 3f
       -0.15663539 -0.71748155 0.003472823 0.78684825
0000d0 04 ce dd 3e ab 07 41 3b 93 1e ee 3d b5 63 8f 3e
       0.4332124 0.0029454033 0.11626925 0.28005758
0000e0 8d 68 0b 3d 59 fe b6 be d5 96 31 be ab cd d2 bc
       0.034035254 -0.35740927 -0.17342694 -0.025732836
0000f0 1b 6a 18 be 7e 03 d7 bc b6 f2 04 be 1f 55 72 3e
       -0.14884226 -0.026246782 -0.12983212 0.23665284
000100 3d c4 81 bf 29 3b 79 3e 89 f1 24 be dd a2 ae 3e
       -1.0138012 0.24338974 -0.16107763 0.3410863
000110 f8 eb 0d bf 32 a5 db 3d 6c c5 77 3d 98 ac d0 be
       -0.55438185 0.10724868 0.06049101 -0.4075668
000120 2e 1d bc be 23 88 5a 3e c1 c6 d5 3e b8 10 ca 3d
       -0.36741012 0.21340995 0.417532 0.0986647
000130 a6 95 11 bf f6 70 24 be b1 5c ff be 61 6e 99 3d
       -0.5686897 -0.16058716 -0.49875405 0.07491756
000140 08 fc 14 3d f7 17 0c 3f 22 bd 69 be 61 d6 23 3f
       0.03637317 0.5472407 -0.22826055 0.6399899
000150 50 46 03 3f 19 d7 80 bc 6e c5 6c be 11 29 6a 3d
       0.51279163 -0.015727567 -0.23122188 0.05716807
000160 73 67 42 be a6 73 db bc e3 c2 3f bf 16 7c 93 be
       -0.18984775 -0.026788544 -0.7490675 -0.28805608
000170 16 7f b6 3e aa 97 3a bd 2b 5f 19 be 54 e9 ae 3e
       0.35643834 -0.045554794 -0.1497771 0.3416239
000180 e6 39 6e bc 55 4e f6 be e1 d4 b4 3e d0 f8 b5 be
       -0.014540171 -0.48106638 0.35318664 -0.3554139
000190 6f 7c ca bd fd e9 86 be 6a 34 66 be 97 17 06 be
       -0.09887015 -0.26350394 -0.22480932 -0.13094936
0001a0 0d c6 a2 be 0c 32 e0 3d d7 a4 82 be 9c 83 a3 be
       -0.31791726 0.10947046 -0.25516388 -0.31936347
0001b0 91 cd f5 be c8 be dd 3e ba 45 45 3e 49 bc e8 3d
       -0.48008397 0.43309617 0.1926488 0.113640375
0001c0 7c 90 31 3e eb 31 55 3e 68 4a 74 3e ce 1c a1 3b
       0.17340273 0.20819823 0.23856509 0.004916764
0001d0 30 c8 62 3f 68 e6 17 be 6a 37 48 3e 9b c5 58 3e
       0.8858671 -0.14833987 0.19552389 0.2116913
0001e0 f2 46 76 be 14 c7 43 bf c6 98 00 3b 16 3b df bd
       -0.24050501 -0.76475644 0.001962231 -0.108999416
0001f0 3b 9c 9f 3d f8 30 9d bc 47 3d 3b be a7 ac 56 bf
       0.077934705 -0.01918839 -0.18285094 -0.83857197
000200 cf 99 a2 3e 1a d5 14 3e 33 f9 0e be 8c 37 ad 3c
       0.31757972 0.14534417 -0.1396225 0.02114465
000210 9d 8d 4e 3e f1 c9 6d 3e 8c b9 76 3c 3f 9b 04 be
       0.20171209 0.23221566 0.015058886 -0.12949847
000220 b3 0e f9 3e c9 0c b9 be 73 b3 b9 bd de a9 4b bf
       0.48644027 -0.36142567 -0.0906743 -0.7955607
000230 53 f2 84 3e 86 aa 33 bd 69 53 8e bc 39 bf 4c bd
       0.2596613 -0.043863796 -0.017373757 -0.04998705
000240 f3 b4 dd 3d 3a 4b 7f be 17 25 d2 bd 30 6c 8c be
       0.10825529 -0.2493104 -0.102609806 -0.2742629
000250 b6 45 df 3d 8b 98 79 be f8 f6 d4 be a0 81 e4 3e
       0.10901968 -0.24374597 -0.41594672 0.44630146
000260 23 f1 f2 3c 5b 38 a7 bd 38 c1 4f bd 7f a0 99 3e
       0.029655999 -0.08165046 -0.050721377 0.3000526
000270 10 31 52 be 19 0c d3 3e 89 c5 6f be 4a 33 8d bd
       -0.20526528 0.41220167 -0.23415197 -0.06894548
000280 39 81 85 3c 3f 8d fd 3e 89 b3 c8 bd ea 17 5d bd
       0.01629697 0.49521825 -0.097998686 -0.053977884
000290 29 13 4a bd 63 27 57 be 48 85 d5 bd 4d 3b 06 bf
       -0.04933468 -0.21011119 -0.10425812 -0.52434236
0002a0 b4 61 6f 3e ac 66 3d be 6a ce ba 3e a0 c5 a7 3e
       0.23377115 -0.18496197 0.36485606 0.32767963
0002b0 be 57 41 3f 74 a8 e5 3e 78 76 ef 3d 21 42 f6 be
       0.7552451 0.44855082 0.11692518 -0.48097327
0002c0 43 d1 13 bd f7 d6 1c be b8 45 0b 3f 92 8b 6d be
       -0.03608824 -0.15316378 0.5440326 -0.23197773
0002d0 25 c8 a9 be ef d4 22 3f 8c 77 1f be d4 34 26 bc
       -0.3316051 0.6360616 -0.15572947 -0.010144431
0002e0 c7 69 90 be e1 e7 e5 3e 0d 27 9b 3c 30 00 14 3e
       -0.28205702 0.44903472 0.01893952 0.14453197
0002f0 a4 de 99 be 85 b1 4c 3e fe 5f 12 3d c8 9e 20 3e
       -0.30052674 0.19989593 0.035736077 0.1568557
000300 2b cb 12 3e 7f d9 6b bc cd 0c 6c be d1 42 47 3e
       0.14335315 -0.014395117 -0.23051758 0.19459082
000310 83 b5 23 bf 27 52 1b bf d6 7a 12 3f 64 bf 9a 3e
       -0.6394884 -0.6067223 0.5721868 0.30224144
000320 04 7e 8e 3e a3 04 d6 3e f0 20 2b 3e df 32 45 3d
       0.27830517 0.41800413 0.16711783 0.048144218
000330 d3 3b 95 3e dd 1a 4a bf fd ea e1 3d 55 54 e7 3e
       0.29147205 -0.7894724 0.110311486 0.45181528
000340 2b c5 5a be 74 58 f5 bd 35 03 83 be d5 bc b2 bd
       -0.21364276 -0.11979762 -0.25588384 -0.08727423
000350 b3 fe 17 be 6a af 2f 3d 46 fb 60 3e 2f f4 b4 bd
       -0.14843254 0.042891897 0.21970853 -0.08835637
000360 43 6c f7 bd 50 45 47 3e 44 b9 a2 bd 64 24 d1 bc
       -0.12081196 0.19460034 -0.07945493 -0.025530048
000370 9c 36 85 be cb 3b dd bd 3b 7f 94 be 99 7d c1 bd
       -0.26018226 -0.1080242 -0.2900332 -0.09447784
000380 66 32 9b be ff 7b a6 bc d0 9b cb bd ca 7b 1a bd
       -0.30311888 -0.020322798 -0.09941828 -0.03771571
000390 e5 d9 0b be 52 7b 00 3f 90 5b 51 bf 6a e3 68 3e
       -0.13657339 0.5018817 -0.8178034 0.22743002
0003a0 43 2a 4a bd 38 f9 89 be c0 65 43 bd 81 b1 42 be
       -0.04935671 -0.2694795 -0.04770446 -0.19013025
0003b0 eb 14 e7 be cb 45 4b 3e aa 70 50 3c ab 5f bd bb
       -0.45133147 0.19850843 0.012722174 -0.005779227
0003c0 64 01 f2 3e 88 fe 2d 3f cd 90 9b be af e5 fe 3d
       0.47266686 0.6796651 -0.30383912 0.124461524
0003d0 80 8d d7 ba 8e e6 dc bd 12 1c 62 be 46 78 f7 be
       -0.0016445369 -0.10786162 -0.2208102 -0.4833395
0003e0 e8 e4 06 3f 01 84 c3 3e 09 fd c2 3e ea 06 01 bf
       0.52693033 0.38186648 0.38083676 -0.50401175
0003f0 44 09 47 3c f0 c0 19 3e 45 97 9d be d7 1d bb bd
       0.012148205 0.15015006 -0.30779472 -0.09136551

fc2.bias f4 [300]
000000 c3 10 94 3e f1 6b 4e be e7 77 87 bd 56 ee 31 3f
       0.28919038 -0.20158364 -0.066146664 0.69504297
000010 5c 42 e9 bd 61 83 37 be c4 f1 07 bd da 79 c0 bd
       -0.1138961 -0.17921211 -0.03318955 -0.09398241
000020 6f f2 df bd 0f 12 25 3f 4d dd 9f bd 43 b7 9b bd
       -0.109349124 0.6448068 -0.07805882 -0.07603314
000030 62 ba dc bc fb c5 48 be f2 d2 d1 bd 55 6a cc bc
       -0.026944343 -0.19606774 -0.10245313 -0.024953047
000040 db 9f c0 bd d8 60 69 bd c8 e9 b1 bd 03 83 c9 bd
       -0.0940549 -0.056977123 -0.08687168 -0.098394416
000050 a4 c4 e8 bd 0e 9b a4 bd 8c 60 8d bd 3e ed cb bd
       -0.11365631 -0.08037387 -0.069031805 -0.0995736
000060 50 83 24 3f 74 3c 0f bd 05 c7 ea bd fe 8c 3a 3f
       0.64262867 -0.034969762 -0.11463741 0.72871387
000070 75 9c 80 3e 29 05 9f bd 8f a2 24 3f a5 d1 70 be
       0.25119367 -0.07764656 0.64310545 -0.23517473
000080 6d 35 44 3e 5a 16 22 bf fb f6 61 3f 71 67 f1 bd
       0.19161005 -0.63315356 0.8826749 -0.11787308
000090 dc db a8 bd 77 a4 73 bd 18 78 b1 bd 60 08 a6 bd
       -0.0824506 -0.059483018 -0.08665484 -0.08107066
0000a0 28 b0 2b 3e c7 2e 99 bd 6e a2 85 bd 98 70 b4 bd
       0.16766417 -0.07479625 -0.06525122 -0.08810538
0000b0 48 d8 a9 bd 19 fb 88 bd 4a 79 c1 bd 01 52 35 bf
       -0.082932055 -0.06688518 -0.09446962 -0.70828253
0000c0 f4 6b 18 bd 3f 3d ea 3e bb 08 a6 bd 44 83 2b bd
       -0.037212327 0.45749852 -0.08107134 -0.04187323
0000d0 bb 8b e7 3e e9 16 b5 bd 08 b0 c3 bd 2d e9 1f 3f
       0.45223793 -0.088422604 -0.0955506 0.62465173
0000e0 f1 90 96 bd a7 fb bf 3f ce c9 a8 bd 23 35 60 bd
       -0.07351864 1.4998673 -0.08241616 -0.054738175
0000f0 9f 4e ab be 3b eb b6 bd 9e 6d 16 3f b3 83 13 3f
       -0.3345842 -0.089315854 0.5876101 0.5762283
000100 78 87 78 bd 25 c9 39 bd a5 be 86 3f 8a f6 a5 bd
       -0.060676068 -0.045357842 1.052693 -0.08103664
000110 da 30 1a 3e 1e d8 84 3f 5c e2 93 bd f2 e2 c5 bd
       0.15057698 1.0378454 -0.07220909 -0.09662427
000120 a0 6d 92 bd c7 79 74 3f 3d dc 6e 3d 3b 1b b0 bd
       -0.071498156 0.9549832 0.058315504 -0.08598944
000130 bc f1 e9 bd 0a ad 60 bd 26 24 77 bd 45 d5 38 bc
       -0.1142306 -0.054852523 -0.06033721 -0.011281316
000140 dc 59 03 be dd 4c 3e 3e 6b c6 bb be de 26 a1 bd
       -0.12827247 0.18584009 -0.36674818 -0.078687415
000150 30 33 90 bd 9e 2a df bd f5 57 c5 3e 64 10 25 bd
       -0.07041013 -0.108968005 0.38543668 -0.040298834
000160 67 94 6b bd fc d1 d3 bd a6 87 9d bd d7 89 af bd
       -0.057514574 -0.10342786 -0.076918885 -0.08571213
000170 d6 3a 82 bd 0d cf da bd a9 dd df bd 49 f1 e4 3e
       -0.06358878 -0.10684023 -0.1093095 0.44715336
000180 ed ec 96 bd 80 5e 72 3d ad cd e8 bd 20 1e f5 bd
       -0.07369409 0.059172153 -0.113673545 -0.119686365
000190 ab c2 df be 5b a1 ad bd 81 cd 5c bd 5b 6a 8d bd
       -0.43703207 -0.08478042 -0.05390692 -0.06905051
0001a0 ab de 25 bd a1 ce a8 bd b8 da e8 bd 88 db ad bd
       -0.040495556 -0.08242536 -0.11369842 -0.08489138
0001b0 7e d2 b3 bd 7a f1 dc bd 5f 14 bc 3e 24 bd 60 bd
       -0.087803826 -0.107882455 0.36734292 -0.05486788
0001c0 b5 aa b6 3a c2 3b e1 bc ae a0 e0 3e 57 85 ab bd
       0.0013936373 -0.027494315 0.4387259 -0.08375042
0001d0 56 e2 b3 bd 64 00 57 3f 4d 76 cc bd 6d e2 73 3e
       -0.087834045 0.8398497 -0.099835016 0.23816843
0001e0 05 94 4a bf 5b 38 57 bd b2 75 b8 bd 38 a4 bd bd
       -0.7913211 -0.05254398 -0.090068236 -0.09259838
0001f0 b5 d5 f9 bd 27 be e5 bc c3 c5 7f be af 80 5c bd
       -0.121989645 -0.028044773 -0.24977784 -0.05383366
000200 d7 e0 eb bc 82 fc b6 bd 59 6c 8a be b3 35 c8 bd
       -0.028793735 -0.08934881 -0.27035788 -0.09775867
000210 dc f0 73 3e 97 3e 6b bd cd 06 ba bd a3 44 81 bd
       0.2382235 -0.057432737 -0.090833284 -0.063119195
000220 e2 79 b1 3f a9 21 1d bd 06 0b d1 bc 6f 00 99 bd
       1.3865321 -0.03836218 -0.025517952 -0.07470786
000230 8b 8d 87 bd 28 98 01 be 4e b8 8a bd 29 d7 05 be
       -0.06618794 -0.12655699 -0.067734346 -0.13070358
000240 9d 85 7f bd 6b bb 49 3e 11 4b d9 3e 98 54 ad bd
       -0.062383283 0.197004 0.42440084 -0.084634006
000250 2e 72 cc bb 0d 21 3c be 77 af d5 bd 7d 69 1e bd
       -0.006239197 -0.18371983 -0.10433858 -0.03867482
000260 13 9b ca bd cf 4b 04 be 15 f9 f8 bd 87 17 c6 bd
       -0.09892859 -0.12919544 -0.121568836 -0.09672456
000270 62 f2 9e 3e c7 60 c7 bd ff 9b cb bd 38 64 b7 3e
       0.31044298 -0.09735256 -0.09941863 0.35818648
000280 18 da 33 bd c1 cf 44 bd 1e 6a b8 3d ba a0 c4 bd
       -0.043909162 -0.048049692 0.09004615 -0.09600969
000290 b9 3d 9e bd 41 2c 0a 3f 6f 73 7d bd d7 09 7c bd
       -0.077266164 0.53973776 -0.061877664 -0.06153282
0002a0 53 17 13 be 5a 73 b6 bd a5 04 cf bd b5 9b b5 bc
       -0.14364366 -0.0890872 -0.10108308 -0.022168973
0002b0 62 d1 e3 bd 8b a2 41 bd cc 4a a2 bd 14 e7 a0 3e
       -0.11123921 -0.047274154 -0.079244226 0.314263
0002c0 26 9f 73 bd 41 16 dc bd 46 31 ca bd 14 d7 8c bd
       -0.059477948 -0.10746432 -0.098726794 -0.068769604
0002d0 72 2b 57 bd 5c c9 98 bd 36 6c 83 bd 8b 07 d1 bf
       -0.052531667 -0.07460281 -0.06417124 -1.6330427
0002e0 bf 01 75 bd 61 ab 6d bd e6 b4 b6 bd 55 a1 21 be
       -0.05981612 -0.058024768 -0.089212224 -0.157842
0002f0 b9 bb e1 bd 4d 75 58 bd 58 b2 56 bd c2 40 0c be
       -0.110221334 -0.05284624 -0.052416176 -0.13696578
000300 fa 58 01 3f c4 93 3e 3e c2 7f a8 bd 9b 0b cc 3e
       0.5052639 0.18611056 -0.08227493 0.39852604
000310 bd db 4b bf 67 07 96 bd 75 2c 7e 3f 19 84 01 be
       -0.7963217 -0.07325631 0.99286586 -0.12648048
000320 06 11 26 bd b7 47 80 bd 5b b4 ba 3f 40 d2 85 bd
       -0.04054358 -0.062636785 1.458629 -0.06534243
000330 87 46 d6 bd 1d d9 4d bd 1f 1b b7 bd 2c 93 6d bd
       -0.10462671 -0.050255883 -0.0894072 -0.058001682
000340 10 b1 b6 bd b0 ab 4d bd 05 e7 ad 3e 62 a9 0c 3f
       -0.08920491 -0.050212562 0.33965316 0.5494596
000350 0d 4f c1 3e ed 63 7b bd 3a 5e b3 bd 7e d7 f4 bd
       0.37755623 -0.061374594 -0.08758207 -0.119551644
000360 2e d8 12 3f 29 d2 a7 bd e5 3a db bd bb d8 bd bd
       0.57361114 -0.08194382 -0.107045926 -0.09269854
000370 bf c4 0d bf 37 b6 ae bc c5 84 ea bd 35 f5 fc bc
       -0.55378336 -0.021327121 -0.11451105 -0.030878643
000380 b3 3c b8 bd c3 86 fb 3e b2 b6 0b be 33 85 f9 bd
       -0.089959525 0.49126253 -0.13643911 -0.12183609
000390 ed 3a 8d bd ca 39 25 bd 61 5f 65 bd e7 da a9 bd
       -0.06896005 -0.040338315 -0.055999164 -0.082937054
0003a0 a1 33 58 3e 68 9b d7 3e 27 04 75 bd 48 46 0a 40
       0.21113445 0.42110753 -0.059818413 2.1605396
0003b0 2a 66 b8 bd 1a e8 a2 be 82 1c 3d 3f cb 89 1b 3f
       -0.09003861 -0.31817704 0.73871624 0.6075713
0003c0 d8 73 71 bd 11 fa 22 3f cb b8 8c 3f a4 30 8e bd
       -0.058948368 0.6366282 1.0993894 -0.06942871
0003d0 c6 97 c6 bd b9 93 d0 3e 1a 1c 90 3e 10 16 f5 3e
       -0.09696917 0.40737703 0.2814644 0.47868395
0003e0 0e 09 ba 3e cb ec ea 3e fb 19 69 bd a3 36 01 be
       0.36335033 0.45883784 -0.056909543 -0.12618499
0003f0 f5 47 1d bd ac 74 42 bd 75 e9 da bd f1 cd ac bd
       -0.0383987 -0.04747455 -0.1068906 -0.08437718

fc3.weight f4 [1, 300]
000000 b5 22 37 3d c4 cd e9 3b 3d 4b 9c 3b a6 a9 c1 3c
       0.044710834 0.007135125 0.0047697113 0.023640465
000010 de 1b 65 bc ed 1b b1 ba c3 2c 4f bc 37 7e 03 bd
       -0.013983695 -0.0013512351 -0.012644949 -0.03210279
000020 95 2a 96 3c e9 56 87 3d 15 ef 6f bc 2e fc ea bb
       0.018330852 0.06608374 -0.014644404 -0.0071711754
000030 31 d9 31 3c ab 1c 78 bd 9c f2 00 bc 87 e8 3d 3c
       0.010855005 -0.060574215 -0.007870343 0.011591083
000040 bc 42 c7 bc 05 de 82 3c c9 1d 19 3c 7f 49 bf 3b
       -0.024323814 0.015975008 0.00934548 0.005837619
000050 e2 70 57 bc 05 fc 0c 3c c9 73 90 3c 03 e0 10 bd
       -0.013149472 0.008605008 0.017633336 -0.035369884
000060 9d c7 92 3d 40 ff 69 3c 91 45 ba bc cf 79 40 3d
       0.071669795 0.014282048 -0.02273825 0.046991166
000070 28 04 65 3d 04 ed 62 bc 39 28 80 3d a6 0d 73 3e
       0.055912167 -0.013850454 0.06257672 0.23735675
000080 6d 66 3b 3d 05 3a 0b bd 6e f3 7f 3d d0 1e 99 bc
       0.045751978 -0.03399088 0.062488012 -0.01869145
000090 8c 9d d0 bc 63 13 dc 3c 70 b6 32 3c 3c 90 c0 3b
       -0.02546575 0.026864713 0.010907754 0.005876569
0000a0 2a c9 c1 3d 5b 7b 8a 3c 9a a9 9a 3c 1f 62 30 3c
       0.09462197 0.016904524 0.0188797 0.010765581
0000b0 75 44 2e 3c 3d d0 27 bc 3e f2 03 3c e5 a8 5a bd
       0.010636439 -0.010242519 0.0080533605 -0.053383727
0000c0 83 ce d9 bc bb b3 09 3d 0a 99 7a bc 68 7a d7 bc
       -0.02658773 0.03361867 -0.015295276 -0.026303485
0000d0 26 4d 42 3d 95 67 b2 3c b5 34 be bc 2c f4 4a 3d
       0.047436856 0.021777907 -0.023218492 0.049549267
0000e0 55 a9 9e 3c 21 00 f0 3d 47 4f fb 3b 30 09 c0 bc
       0.019367853 0.117187746 0.0076693627 -0.023441881
0000f0 73 3d 9e 3d ca 1d e5 ba 95 92 84 3d ce 9f 4e 3d
       0.07726564 -0.0017480191 0.06473271 0.05044537
000100 b0 b3 c6 3c d7 2f a4 bc b6 b8 5e 3d 7a 7b ed bb
       0.024255604 -0.020042343 0.054375373 -0.0072473856
000110 a4 db a9 3d a3 29 01 3d 12 b1 72 3c 39 dd 36 3b
       0.08293846 0.03153385 0.014812725 0.0027902855
000120 7f 1f 09 3c 9b cf a2 3d be 0c 8e 3d fe fc b6 bc
       0.008369326 0.07949754 0.06936024 -0.022337433
000130 1e 5b 6c 3c f7 06 09 bb 80 3c f3 bb 6d eb 13 bd
       0.014426021 -0.0020908692 -0.0074229836 -0.03611319
000140 c3 fe 28 bc 48 bc 5f bd d7 af 54 bd 49 7c f2 bb
       -0.010314646 -0.05462292 -0.051925506 -0.00740007
000150 af ce 64 bc 84 a7 1f bd 23 c6 5b 3d c9 e5 ad 3c
       -0.013965293 -0.038978115 0.053655755 0.021227734
000160 cb e7 5d bc 8d 1e bb bc e8 7d b0 3b dc 6b 03 3d
       -0.013544033 -0.022841716 0.005386103 0.032085285
000170 fc ac 83 bc 7b 61 93 3c 38 12 23 bc 2b b6 43 3d
       -0.016073696 0.017990818 -0.009953074 0.04778115
000180 e0 89 a4 bb d6 fc 49 bd 3b a3 42 bc 30 e4 99 3c
       -0.005021319 -0.04931339 -0.0118797375 0.018785566
000190 02 21 82 bd 95 02 0c 3c d7 fe d2 3c 4c ec e6 3b
       -0.06353952 0.0085455375 0.025756283 0.0070472118
0001a0 ca ce de 3b 37 dd ac 3c 40 50 d3 3a 78 4e eb 3a
       0.0067995535 0.021101577 0.0016121939 0.0017952463
0001b0 fa e8 1b 3c 61 9e 53 bb f1 af be 3d de 20 fc 3a
       0.009515995 -0.0032290446 0.09310902 0.0019235869
0001c0 98 8e 03 ba 03 e7 c6 3d 96 c7 86 3d 51 be 8e bc
       -0.00050185015 0.09712031 0.06581037 -0.017424734
0001d0 9e 9b bd bc d3 73 4d 3d 24 f3 af 3b 97 63 1a 3d
       -0.023145493 0.050159287 0.005369561 0.037692633
0001e0 1d ee 4b bd 56 a4 de bc 19 71 81 bb 51 0e 90 3a
       -0.04978763 -0.02717797 -0.00395025 0.0010990595
0001f0 6c cc 65 3c 30 f0 5d bc 26 03 00 bd 50 00 6e 3a
       0.014025789 -0.013546035 -0.031253003 0.0009079026
000200 5e 57 df bc 93 90 c5 3b 6d fa 36 bd bd 76 09 3c
       -0.02726334 0.0060291975 -0.04467242 0.008390126
000210 ca 30 24 3d 7c 74 54 3d 86 c5 15 3c 9b 79 37 3c
       0.04008559 0.0518689 0.009141332 0.011198427
000220 d0 3e 8a 3d 4f 4f fc 3c fe ea 4d 3c 39 a5 58 bc
       0.06750262 0.030799536 0.012568234 -0.013222986
000230 48 53 9f 3c 99 7b 81 3c 35 13 b8 3c be 62 1c 3c
       0.019448891 0.015806006 0.022470096 0.009545026
000240 45 72 de 3a 8c 5a a5 3d 5f c0 82 3d d5 e8 ef 3b
       0.0016971311 0.08073911 0.06384348 0.007321457
000250 c5 d5 ea bb 97 03 1f be c0 22 eb 3c 8e 6b 39 bc
       -0.0071665966 -0.15528713 0.028703094 -0.011317147
000260 1e c5 a7 bc d2 f8 83 3a 0a 04 78 3c 9e da 4c 3b
       -0.020479735 0.0010068661 0.015137682 0.0031258236
000270 9f 90 48 3d 9a 04 6a 39 fc 85 26 bc e9 05 af 3c
       0.048966046 0.00022317693 -0.01016378 0.021365123
000280 0e 80 a2 bb 33 15 7a bc 1b 03 40 3d 9b e1 c4 bb
       -0.004959113 -0.015263843 0.04687796 -0.0060083396
000290 c2 5c 3c 3c a1 56 3b 3d 19 b5 b0 3c f9 5b 1c 3c
       0.011496725 0.045736913 0.02157073 0.009543412
0002a0 c4 de 2c 3d a9 5d da bc 26 fc da 3c 2f 5d e7 bc
       0.042204633 -0.026655989 0.026731562 -0.028242676
0002b0 47 47 28 b8 56 d7 f2 bb 44 6f d0 bc bb e1 8c 3d
       -4.0120703e-05 -0.007410924 -0.02544368 0.06878992
0002c0 ae 1e 41 bb 5e 08 d0 bc 78 ae 1d 3b a7 9d 74 3c
       -0.002946775 -0.025394615 0.002406029 0.014930165
0002d0 00 17 22 3c f2 c6 f8 bb ba ec 20 3c 96 ce bc bc
       0.009893179 -0.0075920755 0.009822065 -0.023047727
0002e0 f1 85 1e bc 57 b2 d8 3c 09 16 68 bc f6 7d ac 3b
       -0.009675489 0.026452227 -0.01416541 0.005264039
0002f0 d4 77 b2 3c 58 8c 24 3b 4b e7 fc bc d9 6e 4b bd
       0.021785654 0.0025108065 -0.030872008 -0.04966626
000300 af c9 dd 3d 3c f0 89 3d dd 14 b9 bc c0 4c 44 3d
       0.10829484 0.06735274 -0.022592956 0.047924757
000310 1e b8 13 bd fe 48 8a bc 78 89 3d 3d a9 d7 16 3d
       -0.03606426 -0.016880509 0.04627368 0.036826763
000320 64 7c a5 3c f6 f5 b1 3b 40 a3 a4 3d 05 68 88 bc
       0.020200916 0.005430932 0.0803895 -0.016651163
000330 9e c6 80 bb 69 c8 ba ba 4c d5 60 3a cb 94 ef 39
       -0.003929927 -0.0014250401 0.00085767056 0.00045696492
000340 3e ff 86 bc 93 fc 43 3d 6c c3 4b bd a3 f0 09 3d
       -0.01647913 0.047848295 -0.049746916 0.033676755
000350 ee 7f 65 3d 0a 0f 49 bb d0 a0 57 3c 96 bd ae 3d
       0.056030206 -0.003067913 0.013160899 0.085322544
000360 6d eb 37 3d f0 0e c4 bb 34 52 a3 bc a6 fd 2e 3c
       0.044902254 -0.005983226 -0.019936658 0.010680592
000370 3d 5a 25 bd f0 fc 2e 3c cd a2 30 be 70 b9 d6 bc
       -0.04036926 0.010680422 -0.17249604 -0.02621147
000380 8a 21 49 3c 8e 65 3b 3d 89 2f 30 bc b4 0f 6b 3b
       0.012276063 0.045751147 -0.010753521 0.0035867514
000390 b8 77 03 b9 3d b5 82 bc 6e 35 a3 3b d3 fa 2b 3b
       -0.00012537732 -0.015955562 0.0049807345 0.0026242032
0003a0 bb 6c 95 3d 29 87 80 3d 97 a9 04 3a b8 1a 5c 3e
       0.07296129 0.0627578 0.0005060671 0.21494567
0003b0 f4 aa 56 bd de 77 d4 bc 35 88 17 3d 8a c0 07 3d
       -0.052409127 -0.025936063 0.03699513 0.033142604
0003c0 d4 14 8e bc e7 7b 41 3d 57 81 97 3d 1a 79 9c 3c
       -0.017343916 0.047237303 0.073977165 0.019100714
0003d0 0c b8 ff ba 55 83 89 3d 0f 22 81 3d 04 e0 07 3d
       -0.0019509806 0.06714503 0.06305324 0.033172622
0003e0 2e b9 06 3d 29 ff 27 3d c6 f9 8d 3b 62 56 34 bc
       0.032891445 0.041014824 0.004332754 -0.011006923
0003f0 30 12 fc 3c 00 5c e6 3c d8 31 ad bb 3d 6f 84 3b
       0.030770391 0.02812004 -0.005285483 0.004041581

bn1.weight f4 [400]
000000 62 de da 3e ad c0 a3 3e 71 92 9c 3e 60 46 f0 3e
       0.4274779 0.31982937 0.30580476 0.46928692
000010 a1 c3 9d 3e 46 59 a0 3e c6 8b be 3e dd e2 ad 3e
       0.30813316 0.3131811 0.37216014 0.33962145
000020 71 6a bb 3e 71 a5 e5 3e 13 d3 1e 3f 2f 78 96 3e
       0.36604646 0.44852784 0.62040824 0.29388568
000030 ae 78 f4 3e 01 d2 0a 3f 48 a1 d0 3e ee fe 7a 3e
       0.4774832 0.5422669 0.40748048 0.2451131
000040 38 67 aa 3e df 4a bf 3e 8d 83 d2 3e 8a 5a 8b 3e
       0.33281875 0.3736181 0.4111599 0.27217513
000050 c5 71 a4 3e a5 83 9f 3e 26 aa ec 3e 44 61 fd 3e
       0.3211805 0.31155124 0.46223563 0.4948827
000060 45 0c f5 3e fd 23 6d 3e bb 48 cf 3e b0 f0 d8 3e
       0.47860923 0.2315826 0.40485176 0.4237113
000070 68 f5 f4 3e 2d 33 b6 3e 6d a8 8b 3e e8 ac 17 3f
       0.4784348 0.3558592 0.27276936 0.5924821
000080 82 ec aa 3e 9d 17 f6 3e fc 19 da 3e 41 90 ca 3e
       0.33383566 0.4806489 0.4259795 0.39563182
000090 1f a7 63 3f 1e 2b 2e ba c5 f3 0a 3f bd b2 02 3f
       0.8892688 -0.0006643998 0.5427821 0.5105398
0000a0 11 b7 c3 3e d8 14 a1 3e 38 0e a9 3e f3 c1 fa 3e
       0.38225606 0.31461215 0.3301866 0.48976097
0000b0 7c c5 c2 3e 6f 95 a8 3e 90 92 c9 3e f3 52 cc bb
       0.38041294 0.3292651 0.3936963 -0.0062354743
0000c0 6f 09 9a 3e 02 bb 98 3e 8f 14 e7 3e 3f 89 01 3f
       0.30085322 0.29830176 0.45132872 0.50600046
0000d0 59 aa cc 3e b1 a9 37 3f 6d 3f 0a 3f ce d8 09 3f
       0.39973715 0.71743304 0.5400303 0.5384644
0000e0 62 0a b7 3e e0 ad f9 3e db 5a d8 3e b1 0d 0b 3f
       0.3575011 0.4876547 0.42256817 0.54317766
0000f0 51 1f 8e 3e 68 bf e6 3e e7 e7 df 3e 99 a7 19 3e
       0.27758268 0.45067906 0.43731615 0.1500534
000100 5f ff f8 3e 71 ab 31 3f 18 b8 77 3e 81 49 0a 3f
       0.48632333 0.69402224 0.2419132 0.5401841
000110 db a2 0d 3f df 31 95 3e ae 2d 8b 3e c8 60 a1 3e
       0.5532662 0.2913961 0.27183288 0.3151915
000120 a1 44 b6 3e b3 66 a2 3e 82 07 5b 3e 7a bc 14 3f
       0.35599235 0.31718978 0.21389583 0.5810009
000130 ac 00 80 3e b4 e4 f2 3e 5b 55 db 3e b8 2f 0b 3f
       0.25000513 0.47440112 0.4283856 0.5436969
000140 39 95 0a 3f 14 3a b7 3e bf df ea 3e 8e 28 03 3f
       0.54133946 0.35786498 0.4587383 0.51233757
000150 25 9d ba 3e c2 7e c3 3e 17 25 c9 3e cf 27 5f 3f
       0.36448017 0.38182646 0.3928611 0.8717012
000160 d3 3b ad 3e 1d 36 c6 3e 4c 6f fd 3e bd 04 08 3f
       0.33834705 0.3871316 0.49498975 0.5313223
000170 46 1a c4 3e fe 03 c8 3e c0 56 fb 3e f1 c5 0a 3f
       0.38301295 0.39065546 0.49089622 0.54208285
000180 6c 17 a1 3e 2f 16 08 3f f2 56 ca 3e 65 8e 15 3f
       0.31463182 0.5315885 0.3951946 0.584204
000190 b5 68 f7 3e 8c a0 fd 3e c7 f8 a1 3e 0d 95 d0 3e
       0.48322073 0.4953655 0.31635115 0.40738717
0001a0 cf e3 9c 3e 65 b8 87 3e 27 2f f8 3e 4a b1 23 3f
       0.30642554 0.2650787 0.48473474 0.63942397
0001b0 89 39 ca 3e 4c 35 c5 3e ed 5c 8f 3e dd 11 a3 3e
       0.3949702 0.38517225 0.28000584 0.31849566
0001c0 bf fd ce 3e 6a d8 6d 3e e8 18 e1 3e 96 2a 43 3b
       0.40427968 0.23227087 0.43964314 0.0029780022
0001d0 6e 6d aa 3e 2a 79 20 3f cf 8c c4 3e 43 43 8f 3e
       0.33286613 0.6268488 0.38388678 0.27981004
0001e0 7b 62 fe 3e b1 59 ac 3e 9a 25 d9 3e 10 55 c9 3e
       0.4968451 0.3366218 0.424115 0.3932271
0001f0 e0 a0 dd 3e 99 18 3a ba 1e f3 9e 3e 7f a6 a4 3e
       0.432868 -0.0007099002 0.3104486 0.32158276
000200 39 f8 b0 3e c1 57 b1 3e 2e 62 16 3f 49 62 bb 3a
       0.3456438 0.34637263 0.5874356 0.0014296259
000210 34 de c7 3e ae 43 f2 3e 85 76 0a 3a 14 3d e0 3e
       0.39036715 0.4731726 0.0005281943 0.437966
000220 c0 ab e6 3e 14 6e d9 3e c7 74 33 3f 8a dc dc 3e
       0.4505291 0.42466795 0.70100063 0.43137008
000230 e0 2b fe 3e 04 14 ee 3e 64 96 0b 3f 87 29 15 3b
       0.4964285 0.46499646 0.5452635 0.0022760348
000240 9d 43 b4 3e 5e fe bc 3e e5 c4 ef 3e 84 7c dc 3e
       0.35207835 0.36912817 0.46829906 0.43063748
000250 2c c0 a5 3e 49 10 fb 3e 1c e8 16 3f 05 8c bd 3e
       0.32373178 0.49035862 0.5894792 0.3702089
000260 64 b2 e6 3e 42 05 02 3f 9d 65 e3 3e 22 3d b3 3e
       0.45057976 0.5078927 0.44413462 0.35007578
000270 bb 5f b7 3e fe a1 e2 3e b9 cc 92 3e 20 31 c2 3e
       0.35815224 0.44264215 0.28671816 0.37928104
000280 de d5 d5 3e 52 fd f2 3e eb 5d 98 3e 05 c3 c1 3e
       0.4176473 0.47458893 0.29759154 0.378441
000290 e4 73 5e 3e 2e 85 d4 3e 93 5f f6 3e bd 8a d1 3e
       0.21723896 0.41507858 0.48119792 0.4092616
0002a0 e9 38 e6 3e f8 a2 cb 3e 4b e8 9a 3e c3 8b d9 3e
       0.44965294 0.39772773 0.3025535 0.42489442
0002b0 aa c1 04 3f 11 27 8d 3e 90 29 85 3e ee 44 a9 3e
       0.5185801 0.27568868 0.26008272 0.33060402
0002c0 35 91 78 3a 21 7f fa 3e 82 3b df 3e 1b 1f 9f 3e
       0.0009482087 0.48925117 0.43600088 0.3107842
0002d0 fc ba a1 3e 9b 42 b3 3e 21 df c6 3e 3f 6e dd 3e
       0.3158797 0.35011753 0.3884211 0.43248174
0002e0 48 b8 df 3e ea 5c ae 3e 15 0b e3 3e 03 a3 bc 3e
       0.43695283 0.34055263 0.44344392 0.36843118
0002f0 74 3e c2 be 7e 94 be 3e 35 ea e3 3f 7f aa 00 3f
       -0.37938273 0.37222666 1.7805849 0.50260156
000300 d2 47 b2 3e e5 17 82 3e 30 90 cd 3e 80 0a cc 3e
       0.3482042 0.25408855 0.4014907 0.3985176
000310 0d 88 10 3f 6f 58 06 3f 0f 63 cb 3e 6c 99 b6 3e
       0.56457597 0.5247869 0.39724013 0.35663927
000320 dc 65 9f 3e 0f 68 10 3f 31 96 06 3f 65 6c dd 3e
       0.311324 0.5640878 0.52572924 0.4324676
000330 66 17 06 3f 34 80 13 3f 69 74 98 3e 45 9f 92 3e
       0.52379453 0.576175 0.29776314 0.28637138
000340 17 4e 08 3f 47 65 00 3f d9 e6 e4 3e 7e 4c a4 3e
       0.53244156 0.50154537 0.44707373 0.3208961
000350 de d9 ab 3e f8 cd e8 3e 75 47 bb 3e 84 54 b6 3e
       0.33564657 0.45469642 0.36577955 0.35611355
000360 d1 24 cd 3e 6a 48 d7 3e 69 13 fc 3e 52 c1 25 3c
       0.4006715 0.42047435 0.4923356 0.010116892
000370 13 d6 ba 3e 4f 2d 86 3e dc 33 cf 3e a1 70 d0 3e
       0.3649145 0.26206443 0.40469253 0.4071093
000380 f1 f7 95 3e 65 d5 7b 3e 28 e4 8c 3e 3e fe c6 3e
       0.29290727 0.24593122 0.2751782 0.38865846
000390 ab ff 89 3e a8 b3 0a 3f 20 2d d1 3e 2f a5 95 3e
       0.26952872 0.54180384 0.4085474 0.29227588
0003a0 25 db 27 3f 87 a9 a0 3e e6 e3 39 3b 47 69 1c 3f
       0.65568763 0.3137934 0.0028364598 0.6109814
0003b0 ed b2 b2 3e e6 fe d6 3e 57 28 05 3f ef c8 b8 bb
       0.34902135 0.41991347 0.5201468 -0.0056391875
0003c0 68 16 d9 3e f4 29 00 3f 78 7e ae 3e 90 8b ff 3e
       0.42399907 0.50064015 0.34080863 0.49911165
0003d0 e0 2b a0 3a d9 02 7a 3e 9a 28 ea 3e 3b 86 c5 3f
       0.0012220107 0.24415149 0.45734102 1.5431589
0003e0 64 08 e7 3e d8 7b f6 3e ea 9b 11 3f 63 37 9f 3e
       0.4512359 0.4814136 0.5687853 0.31096944
0003f0 aa 67 b5 3e 34 c9 ac 3e bb ad dc 3e df eb 05 3f
       0.35430652 0.33747256 0.43101296 0.52313036

bn1.bias f4 [400]
000000 95 3c 31 bf 59 bc f9 bd db 0e bb be 98 cb 00 bf
       -0.69233066 -0.121941276 -0.3653477 -0.5031066
000010 3c 63 ee be 9c 89 4e be a0 fc 0f bf 7b ff d4 be
       -0.46560085 -0.20169681 -0.5624485 -0.41601166
000020 ef c5 0b bf e0 b1 db be 38 4a 36 bf da 39 f2 bd
       -0.545989 -0.42909145 -0.71207 -0.118274406
000030 5a b9 1a bf ed c0 40 bf 9b af ee be 36 f6 8c bc
       -0.60439074 -0.7529438 -0.4661835 -0.017207246
000040 ad 12 00 bf 59 28 83 be ff 29 0f bf 9a 22 b3 be
       -0.50028497 -0.2561672 -0.55923456 -0.34987336
000050 8a 9c 3b be 41 07 83 bd 96 7e ab be 68 11 c7 bd
       -0.18321434 -0.06397868 -0.33495015 -0.09720117
000060 a7 ac c5 be 77 2b 32 be c5 cd 01 bf 48 51 92 be
       -0.38608286 -0.17399393 -0.50704604 -0.28577638
000070 e1 5a 28 bf 2d c1 df be e5 43 94 bd 58 91 0f bf
       -0.6576367 -0.4370207 -0.07239512 -0.5608115
000080 c0 b9 71 be 31 db 3c bf f5 54 79 be b8 e4 e7 be
       -0.23606014 -0.7377196 -0.24348815 -0.45291686
000090 94 c4 89 be 8a c6 d6 bd 03 53 25 bf 5e dd 01 bf
       -0.2690779 -0.10487087 -0.6457979 -0.50728405
0000a0 22 6f 44 be 07 8a b1 bd 99 f7 20 3e 43 af 2d bf
       -0.19183019 -0.08668905 0.15719451 -0.67845553
0000b0 a5 62 fb be a0 6e 70 be 87 f8 b9 be 9a 48 74 bd
       -0.49098697 -0.234797 -0.36322424 -0.05963955
0000c0 1d 7f a0 be bb 51 7e bd be 40 b8 be 3d db c7 be
       -0.3134698 -0.062089663 -0.35986894 -0.39034453
0000d0 fd 0b 05 bf 0a 8f 25 bf 82 c8 1c bf b1 88 e2 be
       -0.5197142 -0.64671385 -0.6124345 -0.44244912
0000e0 51 f0 88 bd b7 af 13 bf 24 06 a4 be 1b cf de be
       -0.06686462 -0.57689995 -0.32035935 -0.43517384
0000f0 2c 64 e3 be 05 e3 02 bf 5b 6f 32 bf c8 8f 15 be
       -0.44412363 -0.51127654 -0.69701165 -0.1460563
000100 dc f5 08 bf 7a 77 ac be d7 3b 38 bd 03 35 2a bf
       -0.5350015 -0.33684903 -0.044978943 -0.6648714
000110 cf 32 49 bf 02 2c 78 be 46 06 94 be a5 f0 1e bf
       -0.7859315 -0.24235538 -0.28911036 -0.62085944
000120 26 24 3f be c2 1f ae be 37 0c 0e bd 3f 78 45 bf
       -0.18666133 -0.34008604 -0.034679618 -0.77136606
000130 da 02 1d 3c 82 d8 00 bf 86 e7 21 bf 16 8a 64 bf
       0.009583199 -0.50330365 -0.632439 -0.892732
000140 28 dd 2b bf 6b 5a 84 be ab f9 19 bf fc ec 2f bf
       -0.6713433 -0.25850233 -0.6014659 -0.68720984
000150 08 d9 db be 36 3a 23 be 1f 06 f4 be 58 4f 30 bf
       -0.4293902 -0.15940174 -0.4766092 -0.6887107
000160 e6 87 b1 be 9d e9 d3 be eb f9 3e bf 6b ce e9 be
       -0.34673995 -0.4138917 -0.74600095 -0.45665297
000170 be 65 8f be 4f 7e 21 bf 07 72 81 bd 0a e2 22 bf
       -0.2800731 -0.63083357 -0.06320577 -0.6362616
000180 c8 b8 59 be c4 ff 15 bf 59 f9 fc be ad 1f fc be
       -0.21261895 -0.5859339 -0.49408987 -0.49242917
000190 99 f9 b9 be e4 43 18 bf 36 93 8c be fb ca 2a bf
       -0.3632324 -0.5947859 -0.27456063 -0.66715974
0001a0 a9 af fa bd c9 fa 07 be 2f 08 05 bf 67 c0 08 bf
       -0.12240536 -0.1327926 -0.5196561 -0.5341858
0001b0 d1 26 8a be 8f 15 f8 be 7a 54 77 be 05 ee 3c be
       -0.2698274 -0.48453948 -0.24153319 -0.18450172
0001c0 28 8c fb be 44 c1 0d be 53 9c c8 be ac b8 0b bd
       -0.49130368 -0.13843256 -0.39181766 -0.034111664
0001d0 b5 05 86 be e4 13 39 bf 10 1e e6 be a3 ee 38 be
       -0.2617623 -0.72295976 -0.4494481 -0.18059783
0001e0 cc 59 21 be be 5e da bc 6a 77 0a bf e5 7b 10 be
       -0.15756911 -0.026656505 -0.5408846 -0.14109762
0001f0 89 d2 d4 be 72 35 1e bc e6 a9 51 3d c5 52 04 be
       -0.41566876 -0.009656297 0.05118742 -0.12922199
000200 ae d1 b5 be 0a 78 43 be be 50 14 bf 91 c9 9a bc
       -0.35511535 -0.1908876 -0.579357 -0.018894942
000210 19 64 2e bf 58 0e 92 bd 1d ce d5 bb f7 2a 10 bf
       -0.68121487 -0.07131642 -0.0065248148 -0.5631556
000220 0c 51 1d bf 2d 9f 87 be cc 6b f6 be d9 30 12 bf
       -0.6145179 -0.2648863 -0.48129117 -0.57105786
000230 9d 10 da be 67 41 b5 be d4 ec 35 bf b1 40 66 bd
       -0.425908 -0.3540146 -0.71064496 -0.05621404
000240 68 c9 09 bf 28 df 44 be 91 6d 81 be 13 7b fd be
       -0.53822947 -0.19225752 -0.25278905 -0.4950796
000250 32 41 0a bf c7 be 1f bf 7e 09 41 bf 7f 68 e0 be
       -0.5400573 -0.6240048 -0.7540511 -0.43829724
000260 0b ee 13 bf 40 06 1e bf c4 15 04 bf 6f 3b fd be
       -0.577851 -0.61728287 -0.5159571 -0.49459407
000270 68 e2 6c be ad 89 e3 be 7b 8e 8c be b1 2c c5 be
       -0.23133242 -0.44440976 -0.27452454 -0.3851066
000280 02 68 9c be 85 50 1e bf a8 a1 5d be ad c5 8c be
       -0.30548102 -0.61841613 -0.21643698 -0.27494565
000290 7a 14 0d 3e ea a9 01 bf 66 12 26 bf a7 05 d9 be
       0.13777342 -0.50649893 -0.64871824 -0.42387125
0002a0 02 c4 40 bf 3a 76 12 bf d7 19 c2 be a8 58 c5 be
       -0.75299084 -0.5721165 -0.3791034 -0.38544202
0002b0 6c b8 6f bf 55 fe 56 be 33 c0 dc 3c 23 71 a1 be
       -0.9364078 -0.20995457 0.026947116 -0.3153163
0002c0 80 92 f0 bb 3f 5a 20 bf d2 fc 34 bf ba 08 5f be
       -0.007341683 -0.62637705 -0.70698273 -0.21780673
0002d0 01 f4 fb be d7 71 d4 be 97 85 8e be 7d c4 1f bf
       -0.49209598 -0.41493103 -0.27836296 -0.6240919
0002e0 c7 f4 76 be 5b 54 aa be d2 36 4d bf d3 74 80 be
       -0.24116813 -0.33267483 -0.80161774 -0.2508913
0002f0 dc 98 c2 be 8f f1 1c bf df 2a 25 bd 29 2f 48 bf
       -0.38007247 -0.6130609 -0.04032409 -0.7819696
000300 ba 1e 04 bf 08 8a 58 be 8b 17 e5 be 3e fd 16 bf
       -0.51609385 -0.21146405 -0.44744524 -0.58980167
000310 6e 87 e6 be 1c c1 2c bf 95 3d 0c bf 66 56 1e bf
       -0.450252 -0.6748216 -0.54781467 -0.61850584
000320 2d 4d 60 be 64 5b 00 bf 12 ec 16 bf 92 14 23 bf
       -0.2190444 -0.5013945 -0.58953965 -0.6370326
000330 57 03 f6 be 97 75 40 bf be d1 61 be b2 5f e6 bd
       -0.48049423 -0.7517943 -0.22052667 -0.11248721
000340 12 06 45 be 01 c5 0d bf 57 ea d0 be 30 2b 32 bf
       -0.19240597 -0.5537873 -0.40803787 -0.6959715
000350 26 b0 ce be 7a a2 dd be ec 13 7a be 76 b7 b6 be
       -0.40368766 -0.43288022 -0.24421662 -0.35686845
000360 c9 68 f0 be 64 dd d0 bd e3 8b 1b bf 07 4c 99 bd
       -0.46954945 -0.10198477 -0.60760325 -0.07485204
000370 f4 96 f0 be 1b f3 06 3d 47 8b b4 be b6 85 0a bf
       -0.46990168 0.032946687 -0.3526251 -0.54110277
000380 de 93 dd be 6c a3 bb be e3 dc bb 3c f0 80 84 be
       -0.43276876 -0.36648118 0.022932475 -0.25879622
000390 5f 37 13 3e ad 99 06 bf b4 4c 3b bf 98 c6 51 bd
       0.14376591 -0.5257824 -0.73163915 -0.051214784
0003a0 83 9c 8f be 69 fa dc be 6e 8c 32 bd d0 70 4b bc
       -0.28049096 -0.43159798 -0.043590955 -0.012417033
0003b0 4b d0 86 be ec cc 20 bf 16 b4 b9 be 5e dd 07 bd
       -0.2633079 -0.62812686 -0.36270207 -0.033170097
0003c0 d7 43 2f bf cf 74 00 bf 37 e1 a9 bd e7 e8 77 bd
       -0.6846289 -0.50178236 -0.082949094 -0.060524847
0003d0 da 4f 1e bc 2b 4a 54 be 32 c9 19 bf 54 66 61 bf
       -0.009662593 -0.20731418 -0.60072625 -0.88046765
0003e0 3d d7 94 be 34 18 b3 be 39 a8 6b bf 97 18 d2 be
       -0.29070464 -0.34979403 -0.9205356 -0.41034386
0003f0 33 5f 89 be 81 2f 3a be 24 00 83 3d 2a 14 05 bf
       -0.26830444 -0.18182184 0.06396511 -0.5198389
