checkpoint_actor_GPU.pth (torch_old, 548558 bytes, 10 tensors)

fc1.weight f4 [400, 33]
00000000: a0ce c2bd dcc3 4c3f 669e 7bbf b2d1 853f
00000010: f083 d0be 42e6 15bf eae4 1fbf 8f84 79be
00000020: 1280 cc3e 0ac2 8b3d 6386 c6be 649b 58be
00000030: db02 dabe 5253 213e 1999 01be 34f6 3a3d
00000040: 4aa2 a23f af78 b23f 303f 4c3f 93bd d93f
00000050: c38a 99bd 7237 9d3e 383c a3be c8a3 563d
00000060: cc59 ff3d 120a 97be 8bcd 0b3d 9e53 2ebd
00000070: b519 3b3f a076 28bb 8f83 fabc 82c2 863c
00000080: 76fa 1ac0 38e9 053f d800 11bf a8d2 523f
00000090: 8985 5abf ed1b 2dbf 63d3 0f40 949b 08bd
000000a0: f8bf 2ebf 2185 23bf 25d9 e0bc 479f a33e
000000b0: f52c 863c 22d8 c63e 2418 29be eab1 2bbf
000000c0: 8d11 b2bf 26ca 0c3e 531b b3be 7347 853f
000000d0: 7050 bc3e c2fe 0c3e 7604 d43e 139c 223e
000000e0: 1731 293e 53ce a53c f289 90be 5fb1 ad3d
000000f0: 2b7b 5dbc 709e 083e c257 ed3c 782b e3ba
00000100: adfa a0bc 869b 72bf e969 d53e 8a17 37bf
00000110: c640 4d3f bd6f 76bc b6fe b5be 614b 163f
00000120: c819 123f c768 8d3d a0a3 c9be b0e5 73be
00000130: 48b6 05be a0d1 77be c4e5 df3d 11a0 04bf
00000140: 3006 273f b218 2cbf c7ca 483f 6a98 043f
00000150: 247a c53e 9a1d 38bf 6b91 2ebb df28 fc3d
00000160: 3189 803e 8ba1 dabe ab1a 4c3e 62b0 49be
00000170: 8964 24bc 6b86 debc 0d18 d83e 0d64 acbc
00000180: 3d48 48ba d3c6 f5bc 8501 4040 a738 173e
00000190: cb15 043f 0ce2 bf3f 909e 75bf dd87 403f
000001a0: 7c9a d03f e26f b43f b3bb 70be 9909 1bbf
000001b0: d07d 203e 2470 dcbd 63a3 2f3e dff7 c33e
000001c0: 7035 173f f811 a63e 498d 5cbe 8f4f 9a3f
000001d0: db72 fe3d 23e4 293f bfb6 d3bf f36c ef3d
000001e0: d288 d5be 08b8 9c3e 31f8 223e 1be4 783e
000001f0: df4f bb3d 466d 71be 284d d5bc 8e94 a23d
00000200: 5370 b1bc 1ba2 ee3c a29e 19bd 4e97 ee3f
00000210: 9024 bcbd 978a f7bd d103 823f eddb e4bf
00000220: f6ac 6e3e 3e44 673f fbbd 03bf d16f 023e
00000230: 8d18 993e c98e 9f3f 35f1 8b3e 016f b23d
00000240: 873a 9b3e 6eef 733e 22f3 0f3f cef5 863d
00000250: 3b95 bd3e b432 1a40 7f52 adbf 2f9a 483e
00000260: c198 b3be 2f14 2abc 7bb3 05bf 627a 113f
00000270: e748 303e 996e abbe 9d46 a9bd bc7b 18bd
00000280: 3656 a7bc caa7 1bbd b07c 723b c858 123c
00000290: cea9 c9bf 3d68 10bf e2a8 8dbf ab01 3dbe
000002a0: e42a 3c3c 998a 84bf f772 96bf bd58 a13e
000002b0: dcb9 083e 0280 7cbf 21b2 abbd 4043 8cbe
000002c0: 86d1 acbd f61b 9dbe ed25 823e d22c 66bf
000002d0: c4b1 19bf e876 85be ac97 9dbf ac7a f1bf
000002e0: d011 243e dc48 f0bc b675 33bf 4482 7dbd
000002f0: 60d4 bebe 617e 273e d44a af3e 4d7f 323e
00000300: c890 e4bc e532 4e3f 22aa 05bd fd0b 33bd
00000310: 1167 013d d3de 40bf 6a94 73be 8ddc 803f
00000320: a39e 01bf cf5d a9be 7cb0 bdbf 8756 c0bf
00000330: 880f 16c0 9ab3 a43e a1e5 a93d 177c e1be
00000340: de09 473e 1813 65bd 89f6 a2bd 5bb8 e03e
00000350: fa7d dabd 89ec d9bd cf08 a1bf 6388 023f
00000360: 6f45 853e 275b bbbe a6b3 b03b bfa8 61be
00000370: 19ff 203d b013 cabd 5ecd 21be 3450 38be
00000380: 482a 4bbd 9355 23bc 3f07 53bd d4f3 533c
00000390: 5c6b 233d c049 25bd 0733 76c0 3bed 1ebf
000003a0: 37da 543f 50f5 84be 03ff 5dbe 6f12 8c3f
000003b0: 8a46 3ac0 0221 10c0 5a3e b6be 07b9 7cbd
000003c0: 9ac4 cdbe 1518 b43d 0ee2 bd3d e8ed b63e
000003d0: f95a fabd 4320 0ebf 82b8 0b3d ad7b febf
000003e0: e1cf 16be 84f7 2640 e27b 8fbe c589 a83e
000003f0: bdee 573e 8764 cabd 932d 193d 5c64 873e
-0.09512067 0.7998636 -0.9828857 1.0454619 -0.4072566 -0.5855447 -0.6245867 -0.24366973
0.3994146 0.068241194 -0.38774404 -0.21153027 -0.42580304 0.1575444 -0.12656058 0.045644954
1.2705777 1.394308 0.79783916 1.7010978 -0.0749717 0.30706364 -0.3188188 0.052402288
0.12468299 -0.2949987 0.034131568 -0.042560212 0.730861 -0.0025705472 -0.03058031 0.01645017
-2.421537 0.5230899 -0.5664191 0.82352686 -0.8536001 -0.67620736 2.247277 -0.033351496
-0.6826167 -0.63875014 -0.027447293 0.31957456 0.016378859 0.3883677 -0.16513115 -0.6706835
-1.3911606 0.13748989 -0.34981784 1.041243 0.3678012 0.13769057 0.41409653 0.1587985
0.16522633 0.020239985 -0.28230244 0.084810965 -0.013518135 0.13341689 0.02897251 -0.001733168
-0.019650782 -0.9476856 0.41682366 -0.7152029 0.8017696 -0.015041289 -0.35545892 0.5870877
0.5707059 0.0690475 -0.39382648 -0.23818088 -0.13057816 -0.2420106 0.10932496 -0.5180674
0.65243816 -0.6722518 0.78434414 0.51795065 0.38569748 -0.7192017 -0.0026636969 0.12312483
0.2510467 -0.42701373 0.19932048 -0.19696191 -0.010033735 -0.027163705 0.4220585 -0.021043802
-0.0007640159 -0.030002033 3.0000927 0.14767705 0.51595753 1.4990859 -0.9594507 0.7520731
1.6297145 1.4096644 -0.23509102 -0.6056152 0.15672994 -0.107635766 0.17152171 0.38275048
0.59065914 0.32435584 -0.21538271 1.2055529 0.12424251 0.66363734 -1.6540145 0.11690702
-0.41705948 0.30609155 0.1591499 0.24305765 0.091460936 -0.23576841 -0.026037768 0.07938491
-0.021660006 0.029130032 -0.0375048 1.8639925 -0.09186661 -0.12086981 1.0157415 -1.7879616
0.23308167 0.90338504 -0.5146176 0.12737967 0.29901543 1.246545 0.27332464 0.087125786
0.3031809 0.23821804 0.56230366 0.06589852 0.37027916 2.4093447 -1.3540801 0.19590066
-0.3507748 -0.010380789 -0.5222699 0.56827366 0.1721531 -0.33482817 -0.082654215 -0.037227377
-0.02042685 -0.038001813 0.003700059 0.0089323 -1.5754945 -0.56409055 -1.1067164 -0.18457668
0.011484835 -1.0354797 -1.1753834 0.31513014 0.1335215 -0.98632824 -0.08383585 -0.27395058
-0.08438401 -0.30685395 0.2541956 -0.8991214 -0.60036874 -0.2606728 -1.2311912 -1.8865561
0.1602242 -0.029331617 -0.7010149 -0.06189181 -0.37271404 0.16356803 0.34236777 0.17431374
-0.027901068 0.8054641 -0.032632954 -0.043712605 0.031592432 -0.7534 -0.23787084 1.0067307
-0.50632685 -0.33079383 -1.4819484 -1.5026406 -2.344698 0.32168275 0.08295751 -0.44039986
0.19437358 -0.055926412 -0.07957179 0.43890652 -0.10668559 -0.106408186 -1.2580813 0.5098936
0.26029536 -0.3659298 0.0053925095 -0.22037028 0.03930578 -0.09867036 -0.15800998 -0.17999345
-0.04960087 -0.009969133 -0.051520582 0.012936551 0.039897308 -0.040353537 -3.8468645 -0.62080735
0.8314547 -0.2596841 -0.2167931 1.0943125 -2.9105554 -2.2520146 -0.35594445 -0.061699893
-0.40189058 0.08793656 0.09271632 0.35728383 -0.12224383 -0.5551798 0.034111507 -1.9881493
-0.14727737 2.6088572 -0.28024203 0.3291761 0.21087165 -0.09882455 0.03739698 0.26443756

fc1.bias f4 [400]
00000000: 50bf 483d bd77 1f3e 0c49 bb3d 3787 eb3c
00000010: 2c67 f1bd ca96 ed3d 6784 4fb9 a183 6c3d
00000020: fefa aabd 324a 14be 2937 1fbe c7f8 56bd
00000030: 81af 04be 0a4d 1abe 4eaf 2f3e e43c 8d3d
00000040: ea84 bdbc 58c5 1dbe 4d11 febd ed5a 28be
00000050: 9be6 31bd b3e7 fc3d 02c3 bcbc 2344 1d3d
00000060: 0539 4cbc cd27 d83d fd66 2a3e 7a0d 91bd
00000070: 8800 09be 93e0 d03d 94e8 eb3d 0916 623c
00000080: 1f72 a0bd 5f1c 2abd 44c2 c93d 882f 563d
00000090: d9f0 77bd fa29 4b3d 27e8 5f3d c698 4cbd
000000a0: 8e0a ccbd cc4a 2b3d 019c 323d 43f5 2c3e
000000b0: 29a8 e9bc 7341 d33c 8b3b 1d3d a0e1 9f3d
000000c0: 744c a73d d862 f8bd fdcf 173e a19e 0b3d
000000d0: 0aec 313e 9443 09be 30df 1e3e 1f61 023e
000000e0: 18fe 87bd 427a 23be d6c4 e93c 1f8a d93d
000000f0: 745b b6bd 659c 933d ba92 e13c 0160 173e
00000100: 7ca9 2d3e ecc4 a13d 5abc f8bc 52e8 6ebd
00000110: a7df fb3d df86 c0bd a15a 85bd 1ef1 d0bd
00000120: ad90 31be c276 203e 5dd0 e43d 3ed5 913d
00000130: 30d8 033e 6d66 fe3d 7b97 f53d 7d29 e8bd
00000140: 5a04 e83d f82e 49bc d2f8 2a3e 98f8 1c3e
00000150: 0b88 1e3d a747 c0bd 1431 283e 9f83 30be
00000160: 0068 99bd 0fbc 523d 4afd ad3c c7bc 07be
00000170: ec14 d1bd d76c 0b3d ba11 0abd 9e37 10be
00000180: 53c7 ce3d a60e 033e 0aaa 88bc 0b16 b53d
00000190: a2a6 133d b35c c63d c5f7 993a 3a1a 593d
000001a0: fa27 f83d 1206 5fbd 3a48 003e e6cc 473d
000001b0: 9242 11be 66bf 0d3e b433 8bbd 0d65 2ebe
000001c0: d6f6 36bd a13e 30be fd4f 4bbd f081 31bd
000001d0: c5fe ffbd 7e40 103e 56ee dd3d e3e8 b43d
000001e0: 1587 243e 218b 90bd 88e0 883d 822d 043e
000001f0: 5fe0 0e3e 392b 823d 8a8d a33d dcee 203e
00000200: 1ce3 143e 4e10 0ebe 0cb0 123e 3b18 8cbd
00000210: 3dc1 e63d 8898 2dbe 7803 1f3e e327 143e
00000220: 7ada 4bbd 53c5 223e 5ec2 0f3d 0720 ebbd
00000230: a210 8c3d 2888 e1bd c418 babd caa2 193e
00000240: af44 ad3b ec80 c2bd 8ab2 2abe e47a 0dbc
00000250: bc18 a43c 4a99 f8bc f58e 033c 87cd 113e
00000260: da9d 22be aa65 253d 92d1 a2bc 752a 1dbe
00000270: c7b3 2cbe 2b5a 04bc cc0e 2cbe b95d 303e
00000280: c6ac 18be c769 6cbb 3cad 8dbb fa2c d0bd
00000290: 9bea 263e 870d cbbc ee97 88bd f64a 103e
000002a0: d6a4 683d bc9d 55bd 46da 2cbe bc53 09bd
000002b0: 61bf 31bd dbb1 41bd 16a8 d43d ccbe 55bc
000002c0: a129 443d 2dad 113e 955a 333b f126 283e
000002d0: 9148 953d 4880 05be ed34 b23d 2b91 93bd
000002e0: 0e79 0c3e e357 4c3d 3313 d7bd 39d0 d7bd
000002f0: 0f98 30be 6865 2abe d08d e2bd 8b3c 373d
00000300: 1e22 4dbd 1eea 0a3d 082b 18be 72dd 8aba
00000310: a96a a8bd 6a9e 393d ad07 f8bd 8d1e ab3d
00000320: bf29 95bd 7da3 a03c 949b 97bd 57bd 173e
00000330: aba6 873c 56d5 ad3d d4ea 8bbd ddd5 0e3e
00000340: 6767 83bd c996 e23d 99e4 2a3e d633 b4bd
00000350: a37b 213d 6754 113d 7376 48ba 9821 9a3d
00000360: b8dc 1d3e 85ff d5ba e96d 2e3d 030e dd3d
00000370: 47e2 12be 5a0a d23d c8ff af3b df77 01be
00000380: 2dcf 913d ef1a a4bd b1f2 02be 5d9b 68bd
00000390: 1c03 ba3c c94b cc3d db3d 9dbd 355c 153e
000003a0: 4def fdbd a23f 02be 7498 8d3d f557 273e
000003b0: 3e02 073e 7da6 003e 2569 293c c9d8 7cbd
000003c0: d8ac 04be e8b9 fdbd 02c8 5c3d 36ea 48bc
000003d0: ed18 e1bc 8275 08bd 0433 a5b9 43ee cfbd
000003e0: f44e 24bd 7689 123e e441 bdbd 90f8 51bc
000003f0: 5087 0cbe 4a7c 8ebd 4d1c 723d 6531 9a3d
0.049010575 0.1557302 0.09144792 0.028750999 -0.117872566 0.11601026 -0.00019790382 0.05774272
-0.08348654 -0.14481428 -0.15548386 -0.052483346 -0.12957574 -0.1506845 0.17156717 0.068963796
-0.023134667 -0.15407312 -0.124056436 -0.16440935 -0.043432813 0.123488806 -0.023042206 0.03839506
-0.012464766 0.105544664 0.1664085 -0.070826486 -0.13379109 0.10199084 0.1151897 0.013799199
-0.07834267 -0.041530963 0.09851506 0.052291423 -0.060532425 0.04960058 0.054664757 -0.049950384
-0.09962951 0.04181938 0.04360581 0.16890435 -0.028522568 0.025788045 0.038386863 0.078067064
0.08168879 -0.12128228 0.14825435 0.034086827 0.17375198 -0.13404685 0.15514827 0.12732361
-0.066402614 -0.15964606 0.028536242 0.10622048 -0.08904162 0.07207564 0.027535785 0.14782716
0.16959184 0.07898888 -0.03036325 -0.058327027 0.12298518 -0.094007246 -0.06511427 -0.102022395
-0.17340346 0.15670303 0.11172555 0.07120751 0.12875438 0.1242188 0.11991783 -0.11336038
0.11328955 -0.012279265 0.1669648 0.15329206 0.03870396 -0.093886666 0.16424972 -0.1723771
-0.074905396 0.051448878 0.021238942 -0.13255607 -0.10209069 0.034039345 -0.03370831 -0.14083716
0.10096612 0.12798557 -0.016682643 0.08842095 0.036047585 0.0968565 0.0011746815 0.053003527
0.12117 -0.05444915 0.12527552 0.04877939 -0.14185551 0.13842544 -0.06796971 -0.17030735
-0.044668995 -0.17211391 -0.04963683 -0.04333681 -0.12499765 0.14087102 0.108364746 0.08833482
0.16067155 -0.07057787 0.06683451 0.12907985 0.13952778 0.063559 0.07985981 0.15716118
0.1453976 -0.13873407 0.14324969 -0.06840559 0.11267326 -0.16952717 0.15528667 0.1446834
-0.049768902 0.15895586 0.035097472 -0.11480718 0.0683911 -0.11012298 -0.09086755 0.15003505
0.0052877287 -0.09497246 -0.1666967 -0.008635256 0.020031326 -0.030346531 0.008029689 0.14238559
-0.15880528 0.040380158 -0.019875322 -0.15348227 -0.16865455 -0.008078138 -0.1680252 0.17223252
-0.14909658 -0.003607379 -0.0043236297 -0.101648286 0.16300432 -0.024786724 -0.06669603 0.14091095
0.056797825 -0.05215238 -0.1688014 -0.03352712 -0.043395404 -0.047288757 0.10383622 -0.013045978
0.047891263 0.14226218 0.0027367224 0.16421105 0.072892316 -0.13037217 0.08701501 -0.07205423
0.13718054 0.049888503 -0.10501709 -0.10537762 -0.17245506 -0.16640246 -0.11062205 0.044735473
-0.050081365 0.033914678 -0.14860165 -0.001059456 -0.08223469 0.04531709 -0.12110839 0.083554365
-0.07283353 0.019609207 -0.07402721 0.14818321 0.016558966 0.08487956 -0.06831899 0.1394877
-0.06416207 0.11063916 0.16688766 -0.087989494 0.03942455 0.035480883 -0.0007647045 0.07525939
0.15416229 -0.0016326761 0.042585287 0.10793688 -0.1434413 0.10255881 0.0053710677 -0.12643383
0.07119594 -0.0801295 -0.12787892 -0.05678879 0.02270656 0.09975392 -0.076778136 0.14585955
-0.123991586 -0.12719586 0.06913844 0.16342147 0.13184449 0.1256351 0.01034001 -0.06173018
-0.1295656 -0.123889744 0.05390168 -0.0122628715 -0.027477706 -0.03331519 -0.00031509262 -0.10152867
-0.040114358 0.1431025 -0.09241083 -0.01281561 -0.13723493 -0.069573 0.05910902 0.075289525

fc2.weight f4 [300, 400]
00000000: 4b7a b2be eafc 4ebe 6914 24bc ce22 45be
00000010: a0fa e53d 6491 99be 14d3 ed3e 80d5 80bf
00000020: f8ca 5fbf 6a85 493f 8a82 043e c0ed a9b8
00000030: a184 883e d68c 20bf 8b98 f0be 3f1f 50bf
00000040: 3a09 31be b810 84bf 3095 323e 30e7 c5be
00000050: 599c fcbe 73f3 073f f2b4 7bbf 0eab 28bd
00000060: 396b 38bf faf7 ed3e 6fb0 723f a5b1 abbf
00000070: 4fd3 81be 101e d9bc 2f03 8bbf 5bdf cb3e
00000080: 8e3c 3ebc 261e 513e 0c3f b03d 3f43 f73e
00000090: b5b2 63bf 629e 773e b349 6bbe 9d7a 4abf
000000a0: 0c1f 873e b0fa 74be f213 463f b20d eb3c
000000b0: 04ba 8abe c552 d4be 2e0a 983e e8a1 3bbf
000000c0: f60f da3e d00f 163d f6c4 aebd 41e6 503e
000000d0: 442f a7be 4fdc 80bf f6d2 5f3f 887e 40bf
000000e0: c652 50bf dd27 45bd 5219 673d 9301 ce3e
000000f0: 4c57 283f 9d79 98be b5e8 29bf 2d1e 1ebf
00000100: 2020 853e 6fbf 223e 6d98 c83e 603a abbf
00000110: f834 12bf 8be2 a43e 308a 39bf 2152 babe
00000120: 9ac9 e9be 8831 f4be 2c0e 823e dc79 71bf
00000130: 49fa 053f 539a 243f 33a8 1ebf f5bb 1ebe
00000140: bbf2 a5bf 6865 103e 75f9 873e 36fa 3b3f
00000150: 0724 3f3e 562b dd3c babb e33e aa36 38bf
00000160: 1f2d e33d 57b3 05be 8971 a03f d373 edbf
00000170: a963 ea3e 0b05 953e 2b64 a2bd ac48 4fbd
00000180: f29a 113f 826c 87bf acac ecbf 6088 ce3e
00000190: c240 99bf 50e3 36bf 8db4 87bf 0aec 1c3d
000001a0: 5fa1 8abf 70bf d83e 4386 debf 9702 e13e
000001b0: e503 353d 8a5b 64bd d12f 433c 616b 563f
000001c0: 3830 32be 7787 c9be 2e26 8a3e 5ed8 c53e
000001d0: 10af d9bf c2da 7cbe 2327 a7be 5c10 4abf
000001e0: f074 b3bd 8054 bbbf e389 b7bd f73b 583f
000001f0: a179 88be 8aa7 5f3e 2d32 7abf 8c2e 0e3e
00000200: 9767 533f 9ed3 3bbf 93fb 6f3e 1344 50bf
00000210: 464e 3c3e 7fb5 56be b608 fabe 02de 4a3e
00000220: 6ec8 f8bd 0210 4cbf 598a e2be 8c71 cabe
00000230: c9d8 a9bf ac33 47be 92d2 89be 76b3 85be
00000240: 090d d03e 8e1d 80be b5ca 13be 9151 953e
00000250: 7b63 d8bf e391 87bf b523 2f3f 5c1d febe
00000260: 4240 f9bd f2db 1d3e 1974 22be 24ef d0be
00000270: cf9c 3a3f 536c 2b3f 8a94 d1be 66d5 003f
00000280: 367b 893f df11 833e 0dba 123f e9b6 0dbf
00000290: 474c 903e 95d3 5cbf 673f 8cbf 62df 4bbf
000002a0: 2f43 c2be 3f8b 4a3f 2ebd 283f 2d58 21bf
000002b0: e192 fe3e 2d7c a5bf 1f2e 5b3e 2673 e0be
000002c0: 5fbe b2bf 1b85 093e 48ae 88be 2a73 1ebe
000002d0: f6f1 1a3f aec1 073d ddd6 1a3f 8640 b9be
000002e0: e354 343f d182 c8bf 9799 0ebf a5e0 993e
000002f0: 5f74 86bc b173 ac3e afb3 b1be ed71 0ebf
00000300: 4950 3d3f 6630 30be 8427 7cbf df4e 2e3f
00000310: f7ba 87bf 22fa a7bf 7796 883f d179 c33e
00000320: 42f7 233e d717 d6be 18cd 7b3f 603a 22c0
00000330: 16fb f43e f8ed e9bf 1959 85bf 02cd f3be
00000340: 9a67 f93c 077a 273e 8ab5 7abc 8231 f8be
00000350: e8a3 3f3f b8b8 443e 9fa6 133e 77ef 82bf
00000360: 35b3 37bf b95c 42bf 7739 60be 5bb0 6bbf
00000370: c766 c13e 2b92 68bf e369 a0bd 3627 753f
00000380: 354a bfbe b933 a2bf 6c31 2c3e cc1f 473f
00000390: d802 e53e 1672 c9be 1240 7bbf 18e3 10be
000003a0: 4e99 f53e 87dc 77be 90cb acbe c213 27bf
000003b0: cff0 89bf 498a 9bbe 590d 243f bc2a 0ec0
000003c0: d476 2fbf 32d2 88be 1a05 f1be 26f5 f5be
000003d0: 23d1 373f 6de0 243f e6b4 b23e df02 f9be
000003e0: ff6d 3cbf a61d 8f3f ceea 893d faec e1be
000003f0: 6084 2a3e 756f 463f c601 8ebf a359 62bf
-0.34858927 -0.20213667 -0.010014632 -0.19251558 0.112294436 -0.29993737 0.46450102 -1.0065155
-0.8741908 0.787192 0.12940422 -8.102832e-05 0.26663688 -0.627149 -0.4699138 -0.8129768
-0.17288676 -1.0317602 0.17439723 -0.38652945 -0.49338034 0.5310585 -0.98322976 -0.041178755
-0.7203861 0.46478254 0.94800466 -1.3413588 -0.25356528 -0.026503593 -1.0860347 0.39818844
-0.011611117 0.20421657 0.08605775 0.48293492 -0.8894456 0.24181512 -0.22977333 -0.79093343
0.26390874 -0.23923755 0.77374184 0.028693054 -0.27095044 -0.41469398 0.29695266 -0.73293924
0.42590302 0.036636174 -0.08533661 0.20400335 -0.32653248 -1.0067233 0.87431276 -0.7519307
-0.813763 -0.04813372 0.05642063 0.40235576 0.65758204 -0.29780284 -0.6637071 -0.61764795
0.26001072 0.15893339 0.39178792 -1.337719 -0.57112074 0.3220409 -0.7247648 -0.36390784
-0.45661622 -0.4769404 0.25401437 -0.9432657 0.5233503 0.6429798 -0.619754 -0.15501387
-1.29647 0.14101183 0.26557508 0.73428667 0.18666087 0.026998203 0.44479162 -0.7195841
0.110925905 -0.13056694 1.2534648 -1.8550972 0.4577916 0.2910541 -0.07929262 -0.050606415
0.5687705 -1.0579989 -1.8490195 0.4033842 -1.1972888 -0.714406 -1.0601975 0.038311042
-1.0830497 0.42333555 -1.7384723 0.43947288 0.044193167 -0.05575136 0.011913256 0.837576
-0.17401206 -0.39361164 0.26982254 0.38641638 -1.700655 -0.24692824 -0.32647046 -0.7893121
-0.087625384 -1.4635162 -0.08961847 0.844665 -0.26655295 0.21841255 -0.9773281 0.13884944
0.8257994 -0.7336978 0.23435812 -0.81353873 0.18389234 -0.20967673 -0.4883477 0.19811252
-0.12147604 -0.79711926 -0.44246176 -0.39539754 -1.3269283 -0.19453305 -0.26918465 -0.2611348
0.40634945 -0.25022548 -0.14432795 0.29163793 -1.6905359 -1.0591396 0.6841386 -0.49631774
-0.12170459 0.15415934 -0.158646 -0.4080745 0.7289552 0.66962165 -0.4093364 0.5032562
1.0740726 0.25599572 0.5731514 -0.55357224 0.28183195 -0.8626035 -1.0956849 -0.7963773
-0.37941882 0.7911872 0.65913665 -0.6302517 0.49721435 -1.292852 0.21404313 -0.4383785
-1.3964347 0.13429682 -0.26695466 -0.15473619 0.60525453 0.03314369 0.60484105 -0.3618204
0.70442027 -1.5664922 -0.5570311 0.30054203 -0.016412912 0.33682016 -0.347074 -0.55642587
0.7395063 -0.17205963 -0.98497796 0.680891 -1.0603932 -1.312321 1.0670918 0.38178876
0.1601229 -0.41815063 0.98359823 -2.534813 0.47847813 -1.8275747 -1.0417815 -0.47617346
0.030444909 0.16355143 -0.015302071 -0.4847527 0.74859476 0.1921109 0.1441903 -1.0229329
-0.71757823 -0.75922734 -0.21896921 -0.9206597 0.37773725 -0.90848035 -0.07832696 0.95762956
-0.37361303 -1.2672035 0.16815728 0.77782893 0.44728732 -0.39344853 -0.9814464 -0.1414913
0.47968525 -0.24205218 -0.33749056 -0.65264523 -1.0776614 -0.3037894 0.64082867 -2.2213583
-0.6854069 -0.26722866 -0.47074205 -0.48038596 0.7180349 0.64404947 0.3490364 -0.48635003
-0.7360534 1.1180923 0.067342386 -0.4412611 0.1665206 0.7751382 -1.1094291 -0.88418025

fc2.bias f4 [300]
00000000: 96bb a0be 3b7a fdbe 1d8d 1cbf 851e 853d
00000010: 1c83 10be 18dc 10bf 343a 2ebf 6698 bf3e
00000020: ef99 ecbe 544a 64be 109c 013e d295 00bd
00000030: f968 e63b 46d5 08bf 2baf 4dbf 3044 82be
00000040: 7106 78be 038b 0ebf d91c 37bd 6333 e1be
00000050: 207e 38bf ecd6 f0be 7360 c8be 2e0e 3ebf
00000060: a456 583e 2660 9f3e 6e1d 35be 8197 75bc
00000070: 6d3e a3bd bec7 053e d456 4abf 1acd 75bf
00000080: 93bd 07bd 75a2 c0bd 7595 19bf f42a 983d
00000090: 461d 623e 1e0d 32bf c038 8bbe 3caf 483c
000000a0: fa5a 78bf d327 1dbf 0e97 2bbe a821 6abd
000000b0: 873a 08bf 72ed 69bf 013e e7be 6c65 26bf
000000c0: c976 a6be 02de 8fbe a9a4 67bf 4b80 40bf
000000d0: 235a fdbe 7483 b7be 9247 3dbe d55c 85bf
000000e0: b468 813d 1e8f 2dbe 148f a2bd 5c77 c3be
000000f0: 3c3b e5be 6714 963d f162 05bf 1395 1abf
00000100: 47a7 bd3d c3dc afbe 2715 2bbf fdb7 14bf
00000110: 1dd0 18bf d9bb 25bf db5e 293e 07f0 e8be
00000120: dbb5 90bc 632c 8cbe aac5 38bf a130 013e
00000130: 9e29 07bf 1c4b a23e 3c89 3b3c b0f3 b83d
00000140: 9492 2cbf 3450 42bf 9c45 4abe 2b1e 30bf
00000150: 5973 0bbd 2464 39bf 8735 73be 812e 92be
00000160: 18d9 093f 109e d0be c295 8abe 3f04 8ebe
00000170: 5fbe 0abf 3c0e 05bf 1fc8 21bf 6f8f 34be
00000180: 76ed f9bd 18a7 18bf a3b3 10bd 00c0 ebbe
00000190: a263 b93d 5a21 7bbf 1a38 8ebe bfa3 083d
000001a0: 281b 81bf f367 d9bd 3529 19be 9d48 df3d
000001b0: f638 77bf 4afa f6be 6035 8bbe 9723 85bf
000001c0: 69a9 fcbe ea64 6a3e 155d 753e ac6a bcbd
000001d0: 117f 2dbe 2b89 0dbe 6831 39be 0fdc 79be
000001e0: 4e47 aebd 827f fcbd dd48 d7be f6d7 f4be
000001f0: 36bf 56bf a263 2ebf 3b76 48be 48b2 b63d
00000200: f002 a6be 6acb a1be 4228 53bf d85d 5bbd
00000210: 52bc ccbe 5c4f 093e d3d7 a8be e0cf 35bf
00000220: d54f c2be 6f99 dfbc febe 29bf 3267 66be
00000230: b120 12be d956 c0bd 9f31 20bf d385 d1be
00000240: 467a 05bd 448f c3bf 0996 79be 19ea e1be
00000250: d738 90bc 3a69 e9be 7f82 6abf dc0e ddbe
00000260: 81bc a3be 2c45 2ebf db90 57be 6698 47bd
00000270: 2404 bbbe 315a 85bd 834b 8fbf e0d4 383e
00000280: 9231 50be a607 9abe 27e8 043e f8ec c1be
00000290: 89f1 873e f0b5 73be b7b4 96be 35c8 bcbe
000002a0: af67 07bf 0334 dbbe 9b5e b03e ada4 33bf
000002b0: 8f54 d3be 1857 0e3e 0b02 5ebf 0e62 46be
000002c0: 9e32 0dbc c4e4 133f b670 f0be 9a97 9a3e
000002d0: 888f 5cbc 4b73 9e3e 1e88 08bf 7bcf 2ebe
000002e0: d004 a2be d11c fcbe 4cce 0bbf 1460 96bd
000002f0: edff 7cbe d51c 46be b688 78be 5836 09bf
00000300: 896c 713d be54 88bc 56f2 203e 10fb dbbe
00000310: e164 cfbe 7624 a8be 91e9 2fbe 4d3f dfbe
00000320: 7f6e d1be 1fe5 1ebe d92d 83be d69b 18bf
00000330: 05a3 eabc 8ab2 06bf 0fd5 263e d89f c7be
00000340: 24f7 5bbd 61e4 77be d7b4 01bf d1d5 823d
00000350: 7975 5dbf 46c0 913e ccb3 c73c fff7 7b3e
00000360: da96 15bf a733 7ebe c0e9 903e 8dd9 b63e
00000370: 0641 18bd a5bb 62bf a555 f7be 2b63 8abe
00000380: 04e3 0dbf e2ba 0c3e f8e6 a9bd ef12 9ebd
00000390: a44b 12be 2838 6b3e c64b afbe f23f 353d
000003a0: bdf0 a2be 62f1 34be ebde 543c d2d8 0bbf
000003b0: 5700 873d 3a29 babd 68af 75be 14cb 04bd
000003c0: a70a 90bf ff0e 64be 612e aebe e42e e8be
000003d0: 17bb d0be a44f 21bf b10f 9fbe c883 69be
000003e0: 9e73 49be e029 2dbe 6df5 79be 27e7 86bd
000003f0: 1754 15bf 352c 44bf 94f0 02bf 7150 133e
-0.31393117 -0.49507317 -0.6115282 0.06499962 -0.14112514 -0.56585836 -0.6805756 0.37420958
-0.46211192 -0.22293979 0.1265719 -0.03139288 0.0070315567 -0.5345043 -0.8034541 -0.25442648
-0.24221207 -0.55680865 -0.044705246 -0.43984517 -0.7206745 -0.47038972 -0.39136085 -0.74240386
0.21126801 0.31128043 -0.17687008 -0.014989735 -0.07970891 0.13064477 -0.7903874 -0.96016085
-0.033139776 -0.09405986 -0.5999368 0.07430068 0.2208148 -0.69551265 -0.27191734 0.01224881
-0.9701382 -0.6138889 -0.16756842 -0.057161003 -0.53214306 -0.9137794 -0.45164493 -0.6499851
-0.325125 -0.28099066 -0.90485626 -0.7519576 -0.4948283 -0.35842478 -0.18484333 -1.0418955
0.06318799 -0.16949126 -0.07937446 -0.38177 -0.44771755 0.0732811 -0.521041 -0.6038372
0.09260421 -0.34348115 -0.6682915 -0.58093244 -0.59692556 -0.6473976 0.1654009 -0.45495626
-0.01766484 -0.27377614 -0.7217661 0.12616207 -0.5279788 0.3169793 0.011446293 0.09030855
-0.6741116 -0.7590363 -0.19753116 -0.6879603 -0.03404555 -0.7241843 -0.23750888 -0.28551105
0.53846884 -0.40745592 -0.2706738 -0.27737615 -0.54196733 -0.51974845 -0.63195986 -0.1763284
-0.12203495 -0.59629965 -0.035327565 -0.46044922 0.090522066 -0.98097765 -0.27777177 0.033359285
-1.0086412 -0.1061553 -0.14957125 0.10902522 -0.9657129 -0.4823783 -0.2718916 -1.0401486
-0.49348 0.22890058 0.23961289 -0.092000335 -0.16943003 -0.13821857 -0.18085253 -0.24400352
-0.08509694 -0.12329008 -0.42047778 -0.47821015 -0.83885515 -0.6812078 -0.19576351 0.08920723
-0.32424116 -0.31600505 -0.82483304 -0.053556293 -0.39987427 0.1340918 -0.3297716 -0.7102032
-0.37951532 -0.027294843 -0.66307056 -0.22500303 -0.14270283 -0.09391565 -0.62575716 -0.40922412
-0.032587312 -1.5278096 -0.2437364 -0.44123915 -0.017605228 -0.45588094 -0.9160537 -0.431754
-0.31979755 -0.680743 -0.21051352 -0.048729323 -0.36526597 -0.06511343 -1.1194919 0.18049955
-0.2033141 -0.3008396 0.12979184 -0.37876105 0.26551464 -0.23799872 -0.2943475 -0.36871496
-0.52892584 -0.4281312 0.34447178 -0.7017315 -0.4127545 0.13900411 -0.8672187 -0.19373342
-0.008618025 0.57770944 -0.46960992 0.30193788 -0.013461955 0.30947337 -0.533327 -0.17071335
-0.31644297 -0.49240735 -0.5461166 -0.07342544 -0.24707003 -0.19346936 -0.24270901 -0.53598547
0.058941398 -0.01664197 0.15717444 -0.42964983 -0.40506652 -0.32840317 -0.17178942 -0.43602982
-0.40904614 -0.1551709 -0.25620916 -0.59612787 -0.028642187 -0.5261618 0.16292213 -0.3898914
-0.05370249 -0.24208213 -0.50666565 0.063884385 -0.86507374 0.28467005 0.024377726 0.24606322
-0.58433306 -0.24824391 0.28303337 0.35712853 -0.037171386 -0.8856757 -0.4830753 -0.27028784
-0.55424523 0.13743165 -0.08296007 -0.07718455 -0.14286667 0.2297064 -0.34237498 0.044250436
-0.31824294 -0.17670205 0.012992601 -0.54627717 0.06591862 -0.090898946 -0.23992693 -0.032420233
-1.1253251 -0.22271346 -0.3401976 -0.45348275 -0.40767738 -0.63012147 -0.3106666 -0.22804177
-0.1967301 -0.16910505 -0.24410029 -0.065870576 -0.58331436 -0.76629955 -0.51148343 0.14386155

fc3.weight f4 [4, 300]
00000000: 8998 ee3e a4ef 21bf 8b1c 2e3e 3117 20bf
00000010: cf41 8a3f 1b80 d9be 68e3 e53e 7362 cabc
00000020: 0574 bb3f b48a b4bd c4f3 cf3f 7547 fcbd
00000030: 1fa7 6e3f 8ade fe3d 2e96 f1be fd78 82bf
00000040: 26d6 9bbf fd0d e13e dcfd 9c3e 4462 a33f
00000050: 24ef 523e 5cbf 293f afed b23e 9d98 b5be
00000060: aa37 1cbf 65d4 adbd 9061 a63f 27fb 853e
00000070: 3361 debe aee3 013e 9486 66bf 8b55 613e
00000080: 1720 44bd a6dd 0c3b 78bc aebf a3eb 833f
00000090: 3faa 15bf 99dc 753f 07e0 033f 517c 5abf
000000a0: 300b c0be 255e 883d cb44 20bf d2e9 6fbc
000000b0: 75df 94bf 0cfa 403f 04a4 88bd 40db cb3e
000000c0: 816c aebe a1fa 513e c1bd aabf 9499 5bbf
000000d0: 402b 0fbf fae3 1a3f 67a3 11be 03fb a63d
000000e0: 6413 2cbd 6194 b7bc b564 f7bc 9210 523c
000000f0: d5a7 88bf b18e 883f ff60 72bd 3dfc 8c3e
00000100: 8fa1 86bf 1da0 a63f 28b8 b2be 3f1c 0bbf
00000110: 839a 05bf 15e4 493f fe04 4cbe 5f05 183f
00000120: e08b b7be 5516 ebbe 93f9 8ebe d1d6 9e3e
00000130: f283 4d3f 7d2d 693e ea19 d63e 284c b1be
00000140: ab3f 873f e74d 1abe 77f5 d03e c463 aebe
00000150: 086b b53e 6fc9 68be a46b e8be 2371 883f
00000160: a339 60be a202 083f 5b82 943f c538 adbe
00000170: 728d ee3e d2f9 47be f005 5f3e b030 d8bd
00000180: cb30 1cbd 654c 90bf 0076 38bd aaa7 9f3e
00000190: 51bf 64bf 3f45 edbe 5fa5 903f eadf ccbe
000001a0: 538c 313f 5649 1fbc dcf6 2f3f c7ba fabe
000001b0: bcfa 5dbe 7d56 9c3f f537 9cbd e91b cbbd
000001c0: 6c63 1fbd 3470 163f 4567 7bbf d168 943b
000001d0: 128e 2b3e a6b6 12bf 6941 97bf 967c a43e
000001e0: a245 fc3d 7fa2 683f ddce 113f d73b 85bf
000001f0: f00e b53f 03c3 1e3f 8114 e83e 38da 75be
00000200: 310a 9f3f edb2 05bf 4a60 283d 2bce d1be
00000210: a4e7 173f fe67 74be a44b f0bd bdbe 923d
00000220: 545b 6c3f d417 8539 1bb8 7dbe f81b f03d
00000230: a6dd 043d 19a3 a2bf 0a00 d6be 343c 383f
00000240: 43e3 68bf ee7c d5be 6cd6 71be 829d ec3e
00000250: 7f94 77be 591c f3be 2ac2 0fbe 035e 6f3f
00000260: 0adb 783d da35 17be 6f43 7d3f a111 61bd
00000270: f774 aebe b3b0 4d3e f751 c13e 03b6 63be
00000280: f65c 8b3e d70d 49be bbaf 9bbe db13 473e
00000290: 80f7 a2be 5dc9 763f 844a a6bf 2b2b debe
000002a0: 4ab0 1abe 3496 193e e696 143f 95e8 d33e
000002b0: 94f1 6c3f 1d69 fabe 5f2b cb3c 3d22 cc3e
000002c0: 0dc4 0a3e d460 3b3d 53d8 c3be 8af3 31bf
000002d0: 6b38 51bf 14e0 813f 3123 99bf 699b 1e3e
000002e0: 41ee e23e aa44 9ebf 8867 873e 99af 6fbf
000002f0: fa44 0f3f 1caf 7ebe 6699 ffbe 4c95 46be
00000300: a455 e83e be1f d83f f0ff a63e 2b0b 3cbe
00000310: ec43 5f3d 50c7 e23f a073 8b3f 77fc 99bf
00000320: dc58 3abf aa6d 993f 7524 983f 36a4 7dbf
00000330: 7442 28be dde7 c93f 78e8 cb3f ab02 3cbe
00000340: 3af9 a7bc 69f0 b63e 5726 32bf 002f ccbf
00000350: 3557 013f 0367 00bf 426a c43f ccfc d3be
00000360: bc16 4abf 3501 82be f453 463f 13f1 713e
00000370: e542 533c 72a0 743e e601 42bf 12a1 873e
00000380: 5f79 323f 06eb 12bf 2ba5 cebe bddd d8bc
00000390: 6b06 053f 780a d9bf 44d0 8e3f 41b9 0a3f
000003a0: 341a b5be 85c1 08be be2c f13d 510f 37bf
000003b0: 7336 863f fc43 313e 9238 643e 74bf 1b3f
000003c0: b410 053f 11cb 943f 873f 7cbf 3d96 a23f
000003d0: d6b8 72bf e287 eebe 508c 963e 895a 4a3e
000003e0: 1f7c 293f f462 1a3f b963 a73e a705 d2b9
000003f0: fd39 e03e a405 373f 150b 4c3f 735b 8bbe
0.4660075 -0.6325629 0.17003076 -0.6253539 1.0801333 -0.4248055 0.4490006 -0.024705147
1.4644781 -0.08815518 1.6246266 -0.12318317 0.93223757 0.1244479 -0.4718489 -1.0193173
-1.2174728 0.43955985 0.3066243 1.2764363 0.20599037 0.66307616 0.34946963 -0.35467997
-0.61022437 -0.08487777 1.2998524 0.26168177 -0.43433532 0.12684509 -0.900491 0.22005288
-0.047882166 0.0021494417 -1.3651266 1.0306286 -0.584629 0.9603973 0.51513714 -0.8534594
-0.37508535 0.06658582 -0.6260497 -0.014643149 -1.1630694 0.7538154 -0.066719085 0.39815712
-0.34067157 0.20505764 -1.3339158 -0.85781217 -0.5592537 0.60504115 -0.1422249 0.081533454
-0.04201068 -0.02240962 -0.030199388 0.0128213335 -1.0676218 1.0668546 -0.059174534 0.27536193
-1.0518054 1.3017613 -0.34906125 -0.54339975 -0.5218889 0.7886365 -0.1992378 0.59383196
-0.35848904 -0.45915475 -0.27924785 0.31023267 0.8027946 0.22771259 0.41816646 -0.34628415
1.0566305 -0.1506878 0.40812275 -0.3406049 0.3543322 -0.22733091 -0.45394623 1.0659527
-0.21896987 0.5312902 1.1602281 -0.33832374 0.4659229 -0.19528893 0.21779609 -0.105561614
-0.03813247 -1.1273314 -0.04503441 0.31182605 -0.89354426 -0.46341893 1.1300467 -0.40014583
0.6935474 -0.0097220745 0.6873605 -0.48970625 -0.21677679 1.2213894 -0.076278605 -0.09917433
-0.038913175 0.5876496 -0.9820445 0.0045290967 0.16753414 -0.5730995 -1.1816837 0.32126302
0.12317969 0.9087295 0.56956273 -1.0408887 1.4145184 0.62016314 0.45328143 -0.24009025
1.2424985 -0.52226144 0.041107453 -0.40977606 0.5933783 -0.23867795 -0.11733177 0.07165287
0.92326856 0.0002538549 -0.24777262 0.117240846 0.032437943 -1.2706023 -0.41796905 0.7196686
-0.90971774 -0.41696876 -0.23616952 0.4621392 -0.2417774 -0.47482565 -0.14038911 0.93502825
0.060755767 -0.14766636 0.9893102 -0.054948453 -0.34073612 0.20086937 0.37757847 -0.222374
0.2721936 -0.19634186 -0.3040751 0.19441168 -0.31829453 0.96401006 -1.299149 -0.4339231
-0.15106311 0.14998704 0.5804275 0.41388384 0.9255612 -0.4890832 0.024800954 0.39869872
0.1355135 0.04574664 -0.3825098 -0.69512236 -0.8172671 1.0146508 -1.1963865 0.15488972
0.44322398 -1.2364705 0.26446176 -0.93627316 0.55964625 -0.24871486 -0.4992172 -0.1939289
0.4537784 1.6884687 0.3261714 -0.18363635 0.054508135 1.7717075 1.0894661 -1.2030171
-0.7279184 1.1986592 1.1886126 -0.9907869 -0.164316 1.5773884 1.5930319 -0.18360393
-0.020504583 0.35730293 -0.6958975 -1.5951843 0.5052369 -0.50157183 1.5344927 -0.41403806
-0.7894094 -0.25391546 0.7747185 0.23627119 0.012894367 0.2388933 -0.75784147 0.26490074
0.6971645 -0.5738987 -0.40360388 -0.02647292 0.5196292 -1.695632 1.1157308 0.54188925
-0.35371554 -0.13355072 0.11776112 -0.71507746 1.0485367 0.1731109 0.22287205 0.6083901
0.5197861 1.1624471 -0.98534435 1.2702099 -0.9481329 -0.46588045 0.29403925 0.19761099
0.6620502 0.6030724 0.3269327 -0.00040058533 0.43794242 0.7149298 0.7970441 -0.27218208

fc3.bias f4 [4]
00000000: 7b03 ce3d 90ff cbbe d412 65bd b24c 983d
0.100592576 -0.39843416 -0.05592616 0.074365035

bn1.weight f4 [400]
00000000: 1b3a 493f 95bc 4e3f db63 863f 1219 5d3f
00000010: 80af 463f b97c 423f 7b81 7a3f b022 6b3f
00000020: 2354 353f 7d2a 313f 1c62 453f 8e73 593f
00000030: ec91 7c3f 615c 803f d63d 703f 8f04 993f
00000040: d8f0 213f 2606 503f f999 9a3f c51e 673f
00000050: 9ad8 753f 05ee 4d3f c165 573f e278 573f
00000060: f655 723f ecc4 493f 2c8e c43f da63 953f
00000070: 008d 323f 225c 343f 6dc0 6e3f 65e6 5e3f
00000080: 6007 553f b9ca 773f 7d51 4a3f f832 383f
00000090: 9417 563f 1c92 483f 7842 573f d0bb 3a3f
000000a0: 978e 433f d695 383f ffbe 8e3f e87e 653f
000000b0: 1832 513f 8e40 443f bf9d 843f 2379 7a3f
000000c0: cd29 3c3f 921a 103f 28a8 623f bacd 0b3f
000000d0: 8181 233f e0dd 403f cd8d 453f 55a4 6e3f
000000e0: c1a0 2b3f 7bfd 303f cd94 893f dd75 293f
000000f0: 6368 2e3f 814d 513f 5291 4f3f 1eff 3a3f
00000100: 2310 463f 9686 3b3f 5d75 473f f1d8 593f
00000110: 6f9a 1a3f 49b9 753f b71f 523f 918a 5c3f
00000120: 5ca8 693f d848 673f a137 6c3f fd03 4c3f
00000130: bd54 8a3f 0dab 5f3f 2e68 4f3f 400b 413f
00000140: 9e2b 7a3f e5db 253f b081 383f e049 4a3f
00000150: fbb2 563f 9b32 0d3f 3215 1b3f bf32 483f
00000160: 9c94 4f3f e924 8b3f bbf6 483f b484 d33f
00000170: 5ec7 0040 1c85 363f 102f 693f 5810 663f
00000180: df0e 7a3f 117a 5a3f 8a35 833f cc84 383f
00000190: 1c8a 623f 68ff 623f 37e9 403f e90c 403f
000001a0: e398 4f3f bcaa 403f d0a4 6d3f 68b4 463f
000001b0: 1111 783f 66cc 543f 69c0 563f 9058 3f3f
000001c0: eabc 5b3f 0d6b 203f 17d3 643f 8b46 863f
000001d0: 06d1 3e3f 32d5 943f 055e 7d3f 4022 5d3f
000001e0: 5058 573f 20a9 473f bd4b 973f 47a8 903f
000001f0: 54a8 423f 2afa 143f 4ee9 573f 2dde 483f
00000200: e708 663f 34c7 5a3f 9c27 4c3f b460 3b3f
00000210: 4b21 6a3f 7a50 703f 9ae9 2b3f 5a6d 223f
00000220: 30ef 603f 0670 673f 2342 1b3f 835a 4a3f
00000230: 3f6d 6e3f 78cb 4a3f b37b 6a3f 05a8 1a3f
00000240: a949 453f c2b6 863f d139 3f3f 9759 463f
00000250: 56db 793f f899 263f eb22 583f cf07 373f
00000260: c107 3b3f 382c 063f 4808 2b3f 3430 033f
00000270: 4a09 3a3f 6ac4 533f 8db3 493f 81cb 003f
00000280: 5464 5e3f bfde bf3f 5d67 4b3f 88d3 6e3f
00000290: c369 2b3f 9cc8 4a3f b117 513f 21d5 493f
000002a0: 8184 2e3f 31ce 693f a0a7 593f d0b3 443f
000002b0: eb45 383f 4c98 433f caa9 813f 7eb9 923f
000002c0: ae76 733f 4a89 633f 0db8 613f 114b 683f
000002d0: e01d 4e3f 3143 833f 59f4 673f 3629 803f
000002e0: 8a54 203f 47f8 823f ea59 673f 2b8d a53f
000002f0: a533 833f 76a7 5d3f a976 2d3f aadb 413f
00000300: bc52 a83f d012 253f 233f 6a3f 9d0c 273f
00000310: 80f2 103f a66e 653f da46 653f 1ae5 413f
00000320: f4f1 733f 73f3 343f affe 253f 6d90 723f
00000330: f3fe 6c3f 4eb9 733f 3cda 5c3f a11e 403f
00000340: 1068 3d3f 4771 2a3f 2ce9 643f 7916 793f
00000350: bc17 3b3f 9151 2b3f fc14 853f 1a20 603f
00000360: d913 4b3f 4f05 423f ba67 723f 8e87 3f3f
00000370: a762 573f d9d5 7a3f d7a1 3b3f a094 4c3f
00000380: 9757 653f c0c6 743f 8611 383f efce 7e3f
00000390: c2fb 863f 1d96 273f 42d8 373f d10e 513f
000003a0: 42c1 843f 4a60 4d3f ab34 7e3f a278 4b3f
000003b0: b9f1 813f ca34 343f f645 873f 1f8a 6e3f
000003c0: b6fe 573f 4ad3 473f 0c14 633f 4662 823f
000003d0: d094 523f 752d 863f 35ce 3f3f 8ed4 713f
000003e0: 3e1b 453f 9beb 713f 852b 123f 0a40 4e3f
000003f0: d3ae 433f 787a 403f e19d 633f 759a 3a3f
0.78604287 0.80756503 1.0499223 0.8636638 0.7761154 0.7597156 0.9785382 0.91849804
0.7083151 0.69205457 0.7710283 0.8494195 0.9866016 1.0028192 0.93844354 1.1954516
0.63258123 0.8125938 1.2078239 0.90281326 0.9603363 0.80441314 0.8413964 0.8416883
0.94662416 0.78816104 1.5355887 1.1671097 0.697464 0.70453084 0.9326237 0.87070304
0.8321438 0.96793705 0.7903059 0.7195277 0.8362973 0.78347945 0.840858 0.7294283
0.7638945 0.7210363 1.1152037 0.8964677 0.8171706 0.76661 1.036064 0.9784109
0.7350128 0.56290543 0.88537836 0.5461079 0.6386948 0.75338554 0.77169496 0.932195
0.67042166 0.6913678 1.0748535 0.6619547 0.6812803 0.81758887 0.81081116 0.7304553
0.7736837 0.73252237 0.7791346 0.8509665 0.60391897 0.9598585 0.82079643 0.86148936
0.9127252 0.90345526 0.9227238 0.79693586 1.080711 0.8737038 0.8101834 0.7540779
0.97722805 0.6478866 0.7207289 0.79018974 0.8386685 0.5515534 0.60579216 0.7820243
0.81086135 1.0870639 0.7850148 1.6524873 2.0121684 0.7129686 0.91087437 0.8986869
0.9767894 0.8534251 1.0250714 0.7207763 0.8849199 0.8867097 0.7535586 0.750197
0.8109266 0.7526052 0.9282961 0.7761903 0.9690104 0.8312439 0.83887345 0.7474451
0.85835135 0.62663347 0.893846 1.0490278 0.74537694 1.1627562 0.9897159 0.86380386
0.8411913 0.7799244 1.1819988 1.1301354 0.760381 0.5819422 0.8434037 0.78464013
0.89857334 0.8546021 0.7974794 0.7319443 0.9145705 0.938728 0.6715332 0.6344811
0.8786497 0.9040531 0.6064779 0.7904436 0.93135446 0.7921672 0.91595 0.6041263
0.7706552 1.0524523 0.74697596 0.77480453 0.97600305 0.6507869 0.8442828 0.7149629
0.73058707 0.5241122 0.6680951 0.5124543 0.72670424 0.8272158 0.787896 0.5031052
0.8687184 1.4989852 0.79454595 0.9329152 0.66958255 0.79212356 0.81676775 0.78840834
0.68170935 0.9133025 0.850214 0.7683687 0.71981686 0.7640426 1.012994 1.1462858
0.95102966 0.8888136 0.88171464 0.9073954 0.80514336 1.025488 0.9060722 1.0012577
0.62628996 1.0232018 0.9037157 1.2933706 1.0250136 0.8658365 0.67759186 0.75725806
1.3150249 0.6448183 0.9150259 0.6525362 0.56620026 0.8962196 0.89561236 0.75740206
0.95291066 0.70683974 0.6484174 0.94751626 0.9257652 0.9520463 0.862705 0.75046736
0.7398691 0.665791 0.8941829 0.97299916 0.7308309 0.66921335 1.0397029 0.87548983
0.7932716 0.7578935 0.94689524 0.74816215 0.84134907 0.97982556 0.73293823 0.79914284
0.89586776 0.9561577 0.7190174 0.99534506 1.054558 0.6546343 0.7181436 0.81663233
1.0371478 0.8022505 0.99299115 0.79480946 1.0151893 0.7039305 1.0568225 0.93179506
0.84373033 0.78056777 0.88702464 1.0186241 0.8225832 1.0482622 0.7492402 0.9446496
0.76994693 0.9450013 0.57097656 0.80566466 0.76438636 0.7518687 0.8891278 0.7289193

bn1.bias f4 [400]
00000000: d7b1 c5be c6d6 ebbe 9880 c5be 0fdb 12bf
00000010: d090 6dbf cd9b 4ebf 49cb 96bf fa70 78bf
00000020: e7e4 f6be d90f 4bbf 0fb4 0bbf 2904 31bf
00000030: bc3c c4be e3d2 90bf bb3a 4abf 0e8a 81bf
00000040: b3bc 15bf 9402 5dbf 2bc8 86bf 81f4 84bf
00000050: cc64 8bbf 45bd 9fbf 1118 05bf b2aa dabe
00000060: 85d1 5ebf 4950 bdbe 2d76 78bf 184b debe
00000070: d6d5 57bd 8444 99bf 042a 68bf d3ba 3ebf
00000080: cee4 43bf b0a0 febe e1ab 0dbf d9ea 80bf
00000090: 498f 1fbf b1bf a2bf b472 8dbf ef3f 9fbf
000000a0: bbcf 5ebf 8d18 813c ceb2 91be 8910 9ebf
000000b0: 80ad 7cbf ad3d 5ebf 71c4 cebf 0ba5 80bf
000000c0: c567 12bf dc99 1cbf dce0 61bf 08e7 10bf
000000d0: e721 a53c 6ec2 16bf dfc4 81bf 4647 51bf
000000e0: 6022 a0be de34 e83d 07e4 1bbf 4f29 08bf
000000f0: 7b07 d7be a0b0 13bf adb6 4cbd f63e 15bf
00000100: 2092 49bf 278c 7abe fdf2 01bf 1c63 87bf
00000110: 0544 0abf 03ed 97bf 4529 7ebe a70e 6abf
00000120: 6cea 6abf 1ca1 9abe 0abb 8cbf 6987 4fbf
00000130: 3572 86bf 852a 74be 18de d2be 2a76 28bf
00000140: 761a 6fbf 01a8 9cbe 1a2e 38bf cdbd 81bf
00000150: c970 92bf 1aeb 97bf 8090 303e 5708 65bf
00000160: 25a2 8dbf 69ad 45bf ae89 a5bf 03ba 5ebf
00000170: c347 91be e916 febe 626d 6cbf bfe0 2bbe
00000180: 0aa3 b1bf 6539 04bf 8e36 78bf ee7f 14bf
00000190: 6ec8 c1be 0d78 40bf 1a1c 73bf c028 8abf
000001a0: 0eac 0dbf 80d5 8abf 8bf6 7bbf 5eed 90bf
000001b0: b036 dcbe 8e2e 87bf 2f62 c8be 2bcd 9fbf
000001c0: 391f b3be eadd 37bf eb0a adbe ce56 3cbf
000001d0: 41b9 72bf 39c5 8c3c f16e 96bf d3bb 22bf
000001e0: 4ece 30bf 2e64 5dbf 6272 36bf 3470 0fbf
000001f0: 4667 52bf c6ef d4bd cc4d b9be 054d 32bf
00000200: 61ab 94bf 9c3e 5ebf 4c17 5fbf b852 6ebf
00000210: 4cdd 5dbf d801 b8be 6649 b4be 084f 0c3e
00000220: 1ae2 81bf 1f50 5ebf f669 36bf 7942 0cbf
00000230: 1c84 e4be f934 84bf b4e6 8cbf 7f80 a63e
00000240: 0d88 89bf 276e 36bf 5aae 8abf 703b 8abf
00000250: 0ea9 1cbf 5701 13be 02d3 10bf 098e 39bf
00000260: dd35 4dbf 0b3c babe 1c90 3fbf 8e82 4cbe
00000270: 1a64 5cbf dc20 7ebf 9c7a 48bf 70d9 bbbf
00000280: 85de 50bf f611 a5be 3202 a0bf 3005 8abf
00000290: bb04 debd bd97 0ebf 1deb fcbe 9e71 08bf
000002a0: 0941 92bf bdbf 3dbf fe35 94bf f8eb bfbe
000002b0: b23d eabe 579b b0be f3be f1be 68c3 9bbf
000002c0: 9e5d f93d aa7e 7abf 4887 79bf 6b6c 46bf
000002d0: b088 91bf 3369 a5bf 6392 a0bf 8519 83bf
000002e0: 3c88 85bf 7b75 6abf 780f 74bf 9279 44bf
000002f0: 5adf 1dbf d7f2 62bf 6dea 14bf 7038 97bf
00000300: ea0b 7dbf 3bca fcbd aa8e 49bf 6315 8dbf
00000310: c948 2ebf d33b a6be 3a44 36bf e61c 87bf
00000320: 376d eebe 5a04 b4be 0a52 10bf 38d8 2dbf
00000330: d38a 2fbf dd56 84be 3623 bebe a349 5ebf
00000340: c738 babe f3ff 83bf 1038 65bf d0fb acbf
00000350: c14c ebbe e547 6abf d337 28bf b79d e4be
00000360: d1bc 97bf dc85 50bf d417 bfbe 6d05 57bf
00000370: e1fa 91bf 6294 94bf 0fef 4bbf e28b b9bf
00000380: 1a8a 90bf dff8 19bf f822 1cbf d5f0 87bf
00000390: b6d6 58bf 361b 6bbe 3ec9 20bf 3733 6fbf
000003a0: b65a 80bf 2757 20bf a17c 82bf 4d2e 08bf
000003b0: 02f5 06bf cf09 99bf 753f 10bf 853f 6fbf
000003c0: 2bc3 39bf 3820 8fbf 18e9 1ebf bc95 72bf
000003d0: 8267 aebf f997 7cbf cb3a 2dbf 1b78 e63d
000003e0: 584a bcbd c7b9 4dbf 5a65 bbbe f128 4ebf
000003f0: 01d1 24bf 877d 07bf 345a 88be 1a08 53bf
-0.38612244 -0.46062297 -0.38574672 -0.57365507 -0.9279909 -0.80706483 -1.1780788 -0.9704739
-0.48221514 -0.79321057 -0.5457162 -0.6914697 -0.38327587 -1.1314358 -0.78995866 -1.0120256
-0.5849106 -0.8633206 -1.0529836 -1.0387117 -1.0890136 -1.2479635 -0.5198985 -0.42708355
-0.8703845 -0.36975315 -0.9705532 -0.43416667 -0.052694164 -1.1974034 -0.9068911 -0.7450382
-0.76521003 -0.4973197 -0.5534039 -1.007167 -0.6232801 -1.271475 -1.105063 -1.2441386
-0.8703572 0.015758777 -0.2845673 -1.2348796 -0.9870224 -0.8681286 -1.6153699 -1.0050367
-0.5718959 -0.6117227 -0.88233733 -0.56602526 0.020157767 -0.58890426 -1.0138205 -0.8174938
-0.31276226 0.113382086 -0.6089482 -0.5318803 -0.41997895 -0.57691383 -0.0499789 -0.58299196
-0.78738594 -0.24467526 -0.50761396 -1.0577121 -0.5401004 -1.1869205 -0.2482043 -0.9142861
-0.9176395 -0.30201042 -1.099458 -0.81065995 -1.0503603 -0.23844345 -0.4118507 -0.65805304
-0.9339975 -0.30596927 -0.71945345 -1.0136048 -1.1440669 -1.1868622 0.17242622 -0.8946585
-1.1065108 -0.7721773 -1.2932642 -0.8700258 -0.28375062 -0.49626854 -0.92354405 -0.16784953
-1.387788 -0.5165008 -0.96958244 -0.58007705 -0.37848228 -0.7518318 -0.94964755 -1.0793686
-0.5534066 -1.0846405 -0.9842307 -1.1322439 -0.43010473 -1.0561082 -0.39137408 -1.2484487
-0.34984758 -0.7182299 -0.33797392 -0.73569953 -0.94813925 0.017183887 -1.1752607 -0.63567847
-0.69064796 -0.8648099 -0.71268284 -0.56030583 -0.8218883 -0.10397296 -0.36192167 -0.6964877
-1.1614801 -0.86814284 -0.87144923 -0.9309497 -0.866658 -0.35938907 -0.3521225 0.13702023
-1.0147126 -0.86841005 -0.71255434 -0.5478893 -0.4463204 -1.0328666 -1.1007905 0.3251991
-1.0744644 -0.7126183 -1.0834458 -1.0799389 -0.61195457 -0.1435598 -0.5657197 -0.72482353
-0.80160314 -0.36373934 -0.7482927 -0.19971678 -0.8609024 -0.9926889 -0.7831209 -1.4675732
-0.8158954 -0.32240266 -1.250067 -1.0782833 -0.10840746 -0.55700284 -0.49398127 -0.53298366
-1.1426097 -0.74120694 -1.1578977 -0.37484717 -0.45750195 -0.34493515 -0.47215995 -1.2169008
0.12176059 -0.97849524 -0.9747205 -0.7750918 -1.1369839 -1.2922729 -1.2544674 -1.0242163
-1.04322 -0.9158551 -0.95336103 -0.76748 -0.6166893 -0.88651794 -0.58170205 -1.1814098
-0.98846304 -0.1234326 -0.78733313 -1.1022152 -0.6807981 -0.32467517 -0.71197855 -1.0555694
-0.465677 -0.3515957 -0.5637518 -0.6790805 -0.68571204 -0.2584752 -0.3713624 -0.8683111
-0.36371443 -1.0312485 -0.8953867 -1.3514347 -0.45956996 -0.9151595 -0.6571018 -0.44651577
-1.1854497 -0.81454253 -0.37322867 -0.83992654 -1.1404687 -1.1607783 -0.7966165 -1.4495814
-1.1292145 -0.6014537 -0.6099086 -1.0620371 -0.8470262 -0.22959599 -0.6280707 -0.9343752
-1.0027683 -0.62632984 -1.0194284 -0.5319565 -0.527176 -1.1956118 -0.5634683 -0.934563
-0.7256343 -1.1181707 -0.6207442 -0.94759727 -1.3625338 -0.9866939 -0.67667836 0.11253377
-0.091938674 -0.803616 -0.36600763 -0.8053122 -0.64381415 -0.52925915 -0.2663132 -0.82434237

bn1.running_mean f4 [400]
00000000: 60ba 503e e127 4b40 b111 c6be bcf3 91c0
00000010: fe6f 5bc0 257b c540 e266 f1bf fdb2 d7be
00000020: 3bd3 6a40 ca29 56c0 a380 6440 72f7 fdbf
00000030: 42af bd3d 8a30 cabf 437e fe3f 8275 40bf
00000040: b0e4 5f3f b631 0340 8414 5a3e a0e7 52bf
00000050: 223a b2bf 0953 50bf 95ab f93e f842 2f40
00000060: 7c74 02bd 4fdf a93e 12ea 8abf d021 03bf
00000070: 166c 773f fad7 5dc0 0d81 8abf 6251 8bbf
00000080: b39e e1bf 4942 b63e a164 193f e310 a4c0
00000090: e4d0 4140 e06d 04c0 1c7d 77c0 3d65 27bf
000000a0: f9aa 07c0 f229 2d40 b372 2c40 ee2a 0540
000000b0: 6072 31bd 468f ef3f 3ee7 9ec0 b0a7 cf3e
000000c0: e26c 753f 4002 fa3e 9d49 98bf f52a 2cbf
000000d0: 476b 1fbe d143 07c0 0ef4 55bf 5838 65be
000000e0: ee8e 9f3f 349d 8b3e af1e 8b40 2bfb 25c0
000000f0: cefd 26c0 2c52 06c0 5471 4b40 eb13 3a40
00000100: d214 a13f 7081 6fbf cf98 d1bf 4428 18c0
00000110: 4d28 4140 50f9 0cbf ffe1 39bf 8759 bbbf
00000120: 76b1 febe f08b f13f 247c 9bc0 9858 1bc0
00000130: 0aa1 4ebf 0a7a fb3d 42bf 9f3d ca2d 9c3f
00000140: 9bcc cabf 3e7d 4c3f 7857 74c0 7856 d9bf
00000150: 7c0f f7bd accb d0be 1468 3d40 65ff 9cbf
00000160: 39b2 39c0 990b f7be 4f56 72c0 395d 00bf
00000170: 3950 79be 076a 39c0 b5a0 443f 7d75 f3be
00000180: 5c7f 88bf fbde e5bf 3e85 223f 7aea 9bbf
00000190: 573f 2940 e44e 06bf 59c1 853f 2e0f 12c0
000001a0: 941b 4a3f d1cd 4fbf bd03 3bc0 7eb3 b3bf
000001b0: 6c8f 2ebd 81fc a5bf ee79 24c0 e9d9 c8bf
000001c0: 861b 19c0 012f a140 1ea5 bdbe f82e 77bd
000001d0: de3f bb3f fd8b 393f 641f 31c0 c9f8 8c3e
000001e0: ed2d ffbf 6c10 9d3e 8b46 e53e 5b0c 0cc0
000001f0: dd87 963e 17d0 0040 b0ba 0bbf bc6c 57c0
00000200: de5c 5dc0 431b b6bf f062 23c0 2014 b93f
00000210: 6d55 0fbf 9487 133f f183 f83e 6ce6 a63f
00000220: b65f bdbf 3a01 16c0 5223 c9bf 6843 17c0
00000230: e4db 8c3f 33d1 aec0 ce15 8040 e221 fd3f
00000240: df29 36c0 25e1 9abf e24a a3bf 2672 2ac0
00000250: c2b4 0cbe 3533 0540 b103 2dbf 917d 16c0
00000260: 2cb7 eabf 01b1 08bf c3bc f6bf 93b2 223f
00000270: a88f d23f 6ff4 66bf 9537 a3be 9325 69c0
00000280: d2f7 7dbf 926d 7ebf cb7f 8fc0 cde6 53c0
00000290: b599 bd3f 8e36 e53f 0417 6ebf 2332 803f
000002a0: 20a2 70c0 a3d2 d4bd 3b60 45c0 16cf cf3f
000002b0: f53d 2240 024f 0ac0 0a56 a3bf ad13 19c0
000002c0: b746 c63f bd3e bdbf c556 853f 19ac 5b40
000002d0: ea6f f2bf 0814 2ec0 30fe 973e d652 10c0
000002e0: 2ead 0cc0 348b 16c0 2f27 013f 2ded f73e
000002f0: c921 d4be be11 65bf b7e9 2f40 5bef d5bf
00000300: 684f 0240 8bc8 edbf 82a4 57bf ff73 46c0
00000310: 235b 24be bfbb 0540 6b3c 64bf 6107 34bf
00000320: d304 8b40 f6c2 633f d279 5dbe b243 603f
00000330: 42bc edbe 7bb1 833f a0ae 81bf fe98 803e
00000340: c873 0ec0 e045 8abe f586 3f3f 390c 38c0
00000350: 7e5a b3bf 458b 7a3f 2cbd 073f 30f5 3640
00000360: 6f85 ac3f d13b 2fc0 0ded ba3f 1831 03bf
00000370: 35c3 80bf 445e 9cbf e28d 14c0 da3b 67c0
00000380: bebd 983f 160c 993f c6f0 d8bf e221 84c0
00000390: 2ee6 84c0 4db9 f63f b6e3 2440 db07 1840
000003a0: 90ed 523f 776f 2abf 2edc 4fc0 8476 4d3f
000003b0: 48b3 bd3f 077d 83bb 704e fe3e 2c1d 20c0
000003c0: cbc4 1440 8519 93c0 9316 23bf c094 9abf
000003d0: 2978 4fc0 e9b8 243f 3e5b 3b40 dd39 25bd
000003e0: 4360 b13f 685e 7cc0 0a0f 84bf 6fec 973f
000003f0: 046d bebf 7bcb 4740 34b7 4240 2637 cc3e
0.20383596 3.174309 -0.38685372 -4.5610027 -3.4287105 6.1712823 -1.8859522 -0.42128745
3.6691425 -3.3463006 3.5703514 -1.9841139 0.092619434 -1.5796063 1.9882282 -0.751793
0.87458324 2.049909 0.21296889 -0.8238468 -1.3923991 -0.813767 0.4876372 2.7384624
-0.03184937 0.33178183 -1.0852683 -0.5122347 0.966493 -3.4663072 -1.0820633 -1.0884211
-1.7626556 0.35597447 0.5991917 -5.1270614 3.0283747 -2.0692062 -3.867011 -0.6538885
-2.1198103 2.7056851 2.6945007 2.0807452 -0.043321967 1.8715599 -4.965728 0.40557623
0.95869267 0.48829842 -1.1897465 -0.6725305 -0.15568267 -2.1135142 -0.8357552 -0.22384775
1.2465494 0.27268374 4.3474956 -2.593455 -2.609241 -2.0987654 3.178792 2.9074657
1.2584479 -0.9355688 -1.6374758 -2.3774576 3.0180848 -0.5506792 -0.7261047 -1.4636697
-0.49744767 1.887083 -4.858904 -2.4272823 -0.80714476 0.122791365 0.078001514 1.2201474
-1.5843691 0.79878604 -3.8178387 -1.6979513 -0.120635 -0.4078039 2.9594774 -1.226544
-2.9015028 -0.48251036 -3.7865179 -0.50142246 -0.24347009 -2.8970964 0.7680772 -0.47550574
-1.0663867 -1.7958673 0.6348456 -1.2180932 2.644491 -0.5246413 1.044963 -2.2821765
0.7894833 -0.81173426 -2.9221032 -1.4039152 -0.042617247 -1.2967683 -2.569942 -1.5691501
-2.392305 5.036988 -0.37040037 -0.060347527 1.4628866 0.7247923 -2.767541 0.27533558
-1.993589 0.3067659 0.44780383 -2.188254 0.2940053 2.0127008 -0.5458174 -3.3660116
-3.4587932 -1.422707 -2.5529137 1.4459267 -0.55989724 0.5762875 0.48538163 1.3039069
-1.4794834 -2.3438249 -1.5713904 -2.3634892 1.1004605 -5.463037 4.0026617 1.9775965
-2.8463056 -1.2099959 -1.2757227 -2.663217 -0.13740829 2.0812504 -0.6758376 -2.351414
-1.833715 -0.53395087 -1.9276356 0.6355373 1.645009 -0.90216726 -0.31878343 -3.6429183
-0.9920627 -0.9938594 -4.4843497 -3.310962 1.4812533 1.7907274 -0.9300387 1.00153
-3.7598953 -0.10391738 -3.0839984 1.6235073 2.5350316 -2.1610723 -1.2760632 -2.391826
1.549033 -1.4784771 1.0417105 3.432379 -1.8940403 -2.7199726 0.29686117 -2.255056
-2.19807 -2.3522463 0.50450414 0.48423138 -0.41432026 -0.894802 2.7486398 -1.671367
2.0360966 -1.8576826 -0.84235394 -3.1008298 -0.16050391 2.089584 -0.8915469 -0.7032376
4.344339 0.8896936 -0.21628502 0.87603295 -0.46432692 1.0288538 -1.0131416 0.25116724
-2.2258167 -0.27006435 0.74815303 -2.875746 -1.4011991 0.9786876 0.5302303 2.858715
1.3478221 -2.738026 1.4603592 -0.51246786 -1.0059572 -1.2216268 -2.3211598 -3.613028
1.1932905 1.1956813 -1.6948478 -4.129136 -4.153098 1.9275299 2.5763984 2.3754795
0.8239374 -0.6657633 -3.2478137 0.80258965 1.4820337 -0.004012707 0.49669218 -2.5017805
2.3245113 -4.596865 -0.6370632 -1.2076645 -3.241709 0.6434465 2.927444 -0.040338386
1.3857502 -3.943262 -1.031709 1.1869029 -1.4877019 3.1217945 3.0424318 0.39885825
